src/models/trained_hybrid_model_fixed_gnn.pth (torch, 13166 bytes, 6 tensors)

conv1.bias f4 [64]
00000000: a59e 033b 0011 bdbb e70d b6bb 3dfe 1b3b
00000010: 3a58 97ba 630a 9ebb 0fe7 d2bb 1d1a aebb
00000020: be39 d2bb 5072 2abb 1084 84bb 0c1d a93b
00000030: 72c3 cf3b 8fa7 4f3b 8a49 443b 28dd a5bb
00000040: 0c8a 09bc dc27 bdbb 1a0f 7738 22c9 95bb
00000050: 3571 c0bb 7b11 d4bb 7b86 0ebc de1a c1bb
00000060: ee99 c9bb 8075 43bb 40bf 72bb 1ec2 abbb
00000070: 56e4 063b c948 b63a 0963 bcbb 4e6c dcbb
00000080: 57a7 773a 2f77 b6bb 0678 b1bb 2875 9839
00000090: 97a8 b2bb 222b 513b 0f9f a2bb 88a7 173b
000000a0: 21f7 c5bb 5d7c b73b 20df 0bbc b809 7eba
000000b0: d20c af3b b312 b8bb f218 5abb 7a8b 173b
000000c0: 96ad bcbb 775c e8bb bee6 a1bb 96bf f0bb
000000d0: b268 12bb ee9e 573b 18dd ebbb 645c a3bb
000000e0: 4fa8 02bc f71a a4bb ea4d 93bb 389d a6bb
000000f0: 3d89 12ba 1e9f a6bb 4eb0 abbb e566 bbbb
0.0020083573 -0.005769849 -0.0055558565 0.002380266 -0.0011546679 -0.0048230155 -0.0064362357 -0.0053131715
-0.006415575 -0.0026008077 -0.0040440634 0.0051609334 0.0063404376 0.0031685566 0.002995106 -0.0050617643
-0.008394729 -0.005772574 5.8903453e-05 -0.004571096 -0.0058728703 -0.0064718104 -0.008699055 -0.0058930954
-0.006152383 -0.0029824674 -0.0037040263 -0.0052416464 0.0020582876 0.001390719 -0.0057491106 -0.006726778
0.0009447238 -0.005568407 -0.0054159192 0.00029078987 -0.0054522264 0.0031916578 -0.004962809 0.0023140628
-0.006041423 0.005599542 -0.008537084 -0.0009690779 0.0053421045 -0.0056174635 -0.0033279029 0.0023123906
-0.0057579977 -0.007091101 -0.0049408367 -0.0073470576 -0.0022340235 0.0032901126 -0.0071979873 -0.004985379
-0.007974698 -0.0050080973 -0.004495372 -0.00508466 -0.0005589908 -0.005084886 -0.005239523 -0.005719053

conv1.lin.weight f4 [64, 4]
00000000: 6134 213c f104 703e 5c52 903e 1fe8 e7bd
00000010: a0c9 bd3b 8a7f 22be 7629 313e d20a d83d
00000020: 75a8 9d3e 7928 5ebe 2326 843e 461d c3bd
00000030: c115 4abe f2cd fa3d 33af 6c3d f7a8 cbbd
00000040: 2c02 053e 081a 9bbd 6d44 73be 2e14 803e
00000050: b28b 5ebd 9381 0f3e 9500 843d 01ca be3d
00000060: efb0 92be 3570 a7bc 0bfa 31bc b41d 063e
00000070: a255 ff3d cd99 55be d4af 923e 2c24 51be
00000080: 5bd4 7d3e ff97 9fbd f66c 8dbe 4960 213e
00000090: 492c 78be 36bf 7b3c cc4c 0dbb a843 f1bd
000000a0: 3c41 373d 941c c13d 6519 8d3e 7cdd 9a3d
000000b0: d681 9abd ade5 3d3e 6c7a 60be c892 ca3c
000000c0: 796d ce3d 86a0 773e 6f90 aabd c56c 8fbe
000000d0: 397e 0dbe d8bb 783e f71c 553d 3800 3dbe
000000e0: 47df 2dbe 6d48 30be f3b2 8a3e 5863 1b3e
000000f0: d196 39be 9994 943e c3f1 68bd 7bed 053d
00000100: cc70 403e 31ea 6a3e 00f6 543e b6e4 98bd
00000110: 603e 8abe 25dd d9bd 1603 29be be49 1b3e
00000120: a838 8b3d 1308 12be 3d8d a23d 33a1 4b3e
00000130: 81af 703e 1968 713e 0d1a f0bd 5b94 1d3e
00000140: 8f46 853e 452a 54be e31d acbd 1b58 3e3e
00000150: 2f2b 7a3e 4824 10bd fb57 403d d8ef 6cbe
00000160: c754 573e 27d3 4e3e 4426 8c3e 1af1 ca3c
00000170: efaf 11bd 02ff 8abd 9a58 d4bd 2d94 953e
00000180: e3ff ff3d cd5d 1a3e 61dc 5bbe f7a1 99bd
00000190: 0645 29bd e6d0 bdbc fecc 0cbe 2b00 8e3e
000001a0: 4104 f93d f825 043e b057 8d3e 22aa ec3d
000001b0: 3914 7cbe 06eb 29be 6cf7 833d 1364 c6bd
000001c0: 5559 923d 34d3 443e 33b3 5fbe f7b0 163e
000001d0: a714 633e 3bb5 17bd 4f53 42be f894 6d3e
000001e0: 018b 89be 14dc b5bd 1f8e 80bd 7011 a2bd
000001f0: 4b73 343d e665 7e3e 6e32 8a3e 0bdf d0bd
00000200: 110a 2fbe f5d7 493e 6e26 31be 1e88 d3bd
00000210: 2879 a2bb 2782 333e 26c9 3ebe 9bc3 63be
00000220: e6e5 88be e63b 8e3e 770f 81be 6a59 e63d
00000230: 9274 4a3d e7dd 3cbe 3f8e 3f3e a1e2 553e
00000240: 83e0 9bbc 4884 7dbd f01d 5e3d 9f4e 85bd
00000250: 9a57 643e 9e8b 973e edc8 033e cdc5 313e
00000260: 1bf2 fcbd d408 7fbe 9c7c 3e3e 5913 893c
00000270: b269 2e3e 415b 49be 5dcd 863e 83af 443e
00000280: e276 6e3e c27f 36be 2803 ca3d acad 113e
00000290: 5d54 86be d726 353e 34f9 3cbd cca1 8ebe
000002a0: 6e13 acbd 7101 653d 6483 8b3e 7fe8 cc3d
000002b0: f145 94be c689 373e 3111 fe3d 530d 963d
000002c0: aea2 103e 1ddb 8c3e 8a45 9b3d 5df6 773e
000002d0: 2eb9 6a3e cbfd 48be 8642 86be 3081 423d
000002e0: 4186 8dbe 37da 2d3c 335e d63d ba67 14bd
000002f0: a79c a13d 156d 103e 4e66 db3d 9346 6d3e
00000300: c908 90be df36 813e 947e 17be 048e 053e
00000310: d834 343e 71b4 8c3e e34b edbd 523d 4a3e
00000320: 12b9 c53d 0412 8dbe 07f6 a73d 1142 3bbd
00000330: 9bdc ab3d 02fc a5bc 3802 6f3e 0873 713e
00000340: ce1f df3c ac36 debd 2ba6 c13b 211b 7c3e
00000350: 4e11 863e f3d9 8abd c349 4b3e d263 3d3e
00000360: 2b60 fa3d ea97 183d 42b9 3cbe 596d 2abe
00000370: 8585 88be 6f64 7ebe 9843 23be ac4d 823e
00000380: 1d52 32be ef21 4f3e b4d4 92be b516 f53d
00000390: dacc 3fbe 938c 58be 5460 5fbc 58fd 92bd
000003a0: 7f0a 5abd 451e 1d3e 0140 93be 7528 0fbe
000003b0: cc41 81be f3cc 7e3e 9608 2bbe d0bf 76be
000003c0: 0eb8 90be f9bf f23d 2683 2ebe bc99 6d3e
000003d0: e8bc 553e 4ead e9bd 35be a9bc 41ff 3fbe
000003e0: 5f27 54be 096e 4ebe df3d 10be e33e 143e
000003f0: 7bc5 3dbe 94dc cdbd b0bf 60bc 2463 debd
0.009839148 0.23439385 0.28187835 -0.113235705 0.005791858 -0.15868965 0.17300972 0.10548939
0.30792585 -0.21695127 0.25810346 -0.09527068 -0.19734861 0.12246312 0.05778427 -0.09944337
0.1298911 -0.075733244 -0.23756571 0.25015396 -0.054332443 0.14014272 0.064454235 0.09315873
-0.28650615 -0.020439247 -0.010862838 0.13097268 0.12467505 -0.20859452 0.2864977 -0.20423955
0.24788038 -0.07792663 -0.27622193 0.15759386 -0.24235643 0.015365412 -0.0021560667 -0.117804825
0.044739947 0.09429279 0.27558437 0.07561776 -0.075442955 0.18544646 -0.219217 0.024728194
0.10079474 0.24182329 -0.0832833 -0.28012672 -0.13817681 0.24290407 0.052029576 -0.18457115
-0.16979705 -0.17215128 0.27089652 0.15174615 -0.18123938 0.2901962 -0.056871187 0.032697182
0.18793029 0.229409 0.20796967 -0.07465498 -0.27000713 -0.10637883 -0.16505083 0.15164849
0.06797916 -0.14260893 0.07937095 0.19885711 0.2350445 0.23574866 -0.11723719 0.15388624
0.26030394 -0.2071925 -0.08404138 0.18588297 0.24430536 -0.03519085 0.046958905 -0.23138368
0.21028434 0.20197736 0.27372944 0.02477317 -0.035568174 -0.0678692 -0.10368462 0.29214612
0.124999784 0.15074845 -0.21470787 -0.075015955 -0.04132559 -0.0231709 -0.13750073 0.27734503
0.121590145 0.12905109 0.27605963 0.11555888 -0.2461709 -0.1659356 0.06443676 -0.096870564
0.07145945 0.19221193 -0.21845703 0.14715944 0.22175847 -0.03703807 -0.18977092 0.23201358
-0.26863864 -0.08879867 -0.062771074 -0.07913482 0.044055264 0.24843559 0.269916 -0.10198792
-0.17093684 0.19711287 -0.17299816 -0.10328697 -0.0049582906 0.17530118 -0.1863142 -0.22242586
-0.267379 0.27780074 -0.2520711 0.11247523 0.049427576 -0.18444024 0.18706606 0.20887233
-0.019027954 -0.06189373 0.05422777 -0.065091364 0.22299042 0.29598707 0.12869616 0.17360611
-0.123508655 -0.24905711 0.18602222 0.016732858 0.17032507 -0.19663717 0.26328555 0.19207577
0.23287538 -0.17822173 0.09863883 0.14226407 -0.2623624 0.17690597 -0.046136096 -0.27857816
-0.084021434 0.055909578 0.2724868 0.100052826 -0.2895961 0.1792365 0.12405623 0.0732676
0.14124557 0.2751092 0.07581623 0.24215074 0.22922203 -0.19628064 -0.26222628 0.047486484
-0.2764149 0.0106111085 0.10467186 -0.036231734 0.07891207 0.14104111 0.107128724 0.23171453
-0.28131703 0.25237176 -0.1479438 0.13042456 0.17598283 0.27481416 -0.1158674 0.19749954
0.0965444 -0.27552807 0.08201223 -0.045717303 0.083916865 -0.020261768 0.2334069 0.23579037
0.027236845 -0.108502716 0.0059097013 0.24619724 0.26185077 -0.06779852 0.19852357 0.1849511
0.12225374 0.03725425 -0.18430045 -0.16643275 -0.26664367 -0.24843 -0.15943754 0.25449884
-0.17414136 0.20227788 -0.28677905 0.11967222 -0.18730488 -0.21147375 -0.013633806 -0.07177228
-0.053232666 0.15343578 -0.2875977 -0.13980277 -0.25245512 0.2488287 -0.16702494 -0.24096608
-0.28265423 0.11853022 -0.17042217 0.23203176 0.20872843 -0.11410008 -0.02072058 -0.18749715
-0.20718144 -0.20159163 -0.14086102 0.14477114 -0.18532364 -0.100518376 -0.013717577 -0.10858753

bn1.weight f4 [64]
00000000: 5d09 823f eb7b 813f 0000 803f 49d9 813f
00000010: 657a 813f 80d4 803f c02b 7f3f 0000 803f
00000020: abba 803f 954d 803f 62c4 803f a7ee 813f
00000030: 89cb 813f adde 813f 8292 813f d6be 813f
00000040: 9d2b 7d3f 1e37 813f 003c 823f f48e 813f
00000050: f9dc 7c3f 7950 7f3f dc0e 7d3f 72d4 813f
00000060: 5679 7d3f 851a 7f3f 6a84 7f3f 0000 803f
00000070: 1cd7 813f 84c1 813f 0000 803f 9f83 813f
00000080: 4dde 813f 6fa4 813f 667d 813f 72a4 813f
00000090: 8bf1 7f3f f4d2 813f 0000 803f 30f0 813f
000000a0: 08c2 7d3f 9ce8 813f 9dd2 7c3f 4880 813f
000000b0: 00f3 813f 0000 803f 88d4 7f3f eec6 813f
000000c0: 6790 813f 9bb3 813f 0000 803f 804f 7c3f
000000d0: f65e 803f 73fd 813f 653c 7e3f 8bf1 7d3f
000000e0: e043 7d3f 0000 803f 568e 813f 69ad 813f
000000f0: 4769 813f 75ff 7f3f 0f00 803f 0000 803f
1.0159107 1.0115942 1.0 1.0144435 1.0115477 1.006485 0.9967613 1.0
1.0056967 1.0023676 1.0059931 1.0150956 1.0140239 1.014608 1.0122836 1.0136364
0.98894674 1.0094945 1.017456 1.0121751 0.9877468 0.99732167 0.988508 1.0142958
0.9901327 0.9964984 0.9981142 1.0 1.0143771 1.0137181 1.0 1.0118293
1.0145966 1.0128306 1.0116394 1.012831 0.9997794 1.0142503 1.0 1.0151424
0.99124193 1.0149112 0.9875887 1.0117273 1.0152283 1.0 0.9993367 1.0138834
1.0122193 1.0132936 1.0 0.9855881 1.002898 1.0155472 0.99310905 0.9919669
0.98931694 1.0 1.0121562 1.0131046 1.0110253 0.9999917 1.0000018 1.0

bn1.bias f4 [64]
00000000: ce83 803c cb96 643c 0000 0000 5f32 613c
00000010: 1f67 3b3c 0fdb d23b 42a7 3dbb 0000 0000
00000020: 1ee6 133c afb1 073b dd3e c73b b12a 733c
00000030: a1c6 623c bff4 6e3c b8f5 513c 4e88 5c3c
00000040: 28ba 36bc 412a 473c 87b1 803c 368b 443c
00000050: 6407 52bc ef06 1dbb ebf0 3dbc 0d7c 693c
00000060: 8e03 23bc 7894 62bb 9c24 08bb 0000 0000
00000070: 76e7 683c 7a96 533c 0000 0000 69c3 433c
00000080: 27e2 6e3c 6a76 4f3c 1a18 3c3c 2338 493c
00000090: d1fe 86b9 665c 673c 0000 0000 8234 643c
000000a0: 9959 17bc ffb5 6d3c 8120 58bc 78a7 403c
000000b0: 8166 763c 0000 0000 dfee dcba 2f6d 5e3c
000000c0: bb4d 463c 121a 5b3c 0000 0000 72a7 62bc
000000d0: 3920 263b 6d31 783c 9917 e9bb 8ba4 0bbc
000000e0: 6719 31bc 0000 0000 f5b8 413c 8c79 533c
000000f0: a4d5 323c 9595 b339 e338 313b 0000 0000
0.01568785 0.0139519675 0.0 0.01374492 0.01143816 0.006434805 -0.0028938805 0.0
0.009027032 0.0020705273 0.006080492 0.014841721 0.013841302 0.014584719 0.012814932 0.013460232
-0.011152782 0.01215607 0.015709652 0.011996081 -0.012819145 -0.0023960432 -0.011593084 0.014250767
-0.009949578 -0.0034573358 -0.0020773774 0.0 0.014215341 0.012914294 0.0 0.011948445
0.014580286 0.012662509 0.011480356 0.01228145 -0.00025748325 0.014121151 0.0 0.013928534
-0.00923767 0.014508723 -0.013191343 0.011758678 0.015039087 0.0 -0.0016855857 0.013575836
0.012103493 0.013372915 0.0 -0.013833867 0.0025348796 0.015148503 -0.0071134088 -0.008523117
-0.010809279 0.0 0.011823882 0.012907397 0.010915194 0.00034252988 0.0027041964 0.0

conv2.bias f4 [32]
00000000: 8a86 59bc b10d 5abc b89a 7ebc e7d2 603c
00000010: 1f9f 1dbc 9897 ccbb ccae 42bc 54ee 77bc
00000020: a1a2 7c3c 9d54 52bc 1f17 5cbc d060 373c
00000030: fab8 573c 7744 693c dea8 6f3c 3072 b1bb
00000040: d14b b63b 2764 6ebc 8609 4a3c d85c af3a
00000050: 3c21 19bc bdfc 283c 6081 56bc 6c6f 473c
00000060: 7dc8 6bbc e793 69bc 56fc 513c a674 6c3c
00000070: 9b7f 323c 53bf 0c3c 2d98 383c 816a 4abc
-0.0132767055 -0.013308928 -0.0155398175 0.013722158 -0.009620457 -0.0062436573 -0.011882495 -0.015132505
0.015419633 -0.012837556 -0.013433247 0.0111925155 0.01316666 0.014237515 0.014627663 -0.0054152235
0.0055632372 -0.014550245 0.012331372 0.001337911 -0.009346303 0.010314164 -0.013092369 0.012172561
-0.014391062 -0.014256454 0.012816509 0.014432108 0.010894681 0.008590537 0.01126675 -0.012354494

conv2.lin.weight f4 [32, 64]
00000000: c47f 253e 9f01 823d 6253 343e 94b6 a63c
00000010: 54da 0fbe 0de5 40bd c316 4d3e 5884 18bd
00000020: 7447 2c3e 7b56 2abe f25d d4bd 77cb 4e3d
00000030: 0f2c 7dbe 69e7 00be 43ed 863b 0943 c03d
00000040: 0911 94bd 1613 45be b6ec 7c3c 861a 74be
00000050: b73a c83d dd2b c93d f070 923d 9477 3f3c
00000060: 4dad cabd 7453 cd3d c7cb f23c a47d b23d
00000070: f625 15be 60b8 d0bc 5c0b 9cbd 1987 1d3e
00000080: 6ac8 3fbe 3258 64be 5f2b 4cbc f3f9 43be
00000090: 3f2e 163e 47cb 183d c233 643e 6eaf 08be
000000a0: df72 313e 3968 7cbe 64aa 703e f620 73be
000000b0: a972 55be 8019 5cbb b9ec 3cbe 2a2e 3c3e
000000c0: eafe 70be 0ded 4e3e 4062 fa3c 82be aabd
000000d0: 7bc6 ecbd 9d6f bd3c ef7e 33be 9dc9 2ebb
000000e0: 1600 4b3e 3843 673d ccd0 ccbd fa81 e7bd
000000f0: 36f8 4c3d fd9a f8bd a7f6 bbbd a8fc 523e
00000100: 4763 803c a744 493e 00bd 743e 13bd d53d
00000110: aea7 903d 12ef cbbd 41a4 e43d 604f 13bd
00000120: e481 0ebe d7c4 5abe 013b 33be 4e86 2bbe
00000130: b797 75be caeb d23d 9815 52be 9ba4 143e
00000140: c2a0 273e 0daa 4cbe b3fc 73be 5590 22be
00000150: 34c0 af3c 2a15 6a3b d78b 2fbe e104 68bd
00000160: bbb9 17be 51db 6bbe ecce d63d d87e c33d
00000170: 1656 223e 6585 d5bb 3437 ac3d 78b1 4bbd
00000180: ffd4 013d ba41 273d 09a8 b7bd 09bd 6f3c
00000190: f5e4 12be e06b c6bd 44fe 92bd 6de9 31be
000001a0: c6e9 3f3c ae14 ee3d d595 503e ecb5 1c3d
000001b0: 2491 85be 80d6 ed3b bcd0 0d3e 8e34 333d
000001c0: 8bbe 5dbe f6b8 9fbc 78e5 623d 0264 18bc
000001d0: facb 1fbe 5f33 843d 8dfc 123e 5c5f 3ebd
000001e0: e5fd f9bd 365c 6b3e 534f 5dbe 532e dcbb
000001f0: f18b 76bd 2155 963d 7121 913d e009 123c
00000200: 3d35 f3bd 6e8a 47be 0621 53be 9e08 03bd
00000210: df50 df3d e373 c2bd 42c2 26be 685a 7fbd
00000220: 9829 b63d 7edf debd a3d9 243e d885 d93d
00000230: a151 aa3d b973 73be ce5c c4bd 6148 3cbe
00000240: a9bf 03be 108b 21be 0ed3 9b3c 411f b1bd
00000250: dde9 8e3d a134 443d 6123 dbbd 97dc 633e
00000260: dbeb 213e 2ad5 03be 2d70 59be 0402 49be
00000270: 7f05 fd3b ce2a 6c3e 305c b23d ebf6 043d
00000280: 9f50 febd 58e5 37bd dd77 873d 7ffc 203e
00000290: 7928 a5bd 1d12 6b3e 7033 393d 6dbf 523e
000002a0: 0e1f 6ebe 3a1d 103e 281d e0bd 7ece dc3d
000002b0: d48f 523e 562c 29be baed 7cbe 0f03 b0bd
000002c0: bc09 3abe e6f8 afbd 066c 4abe f7ac 7fbd
000002d0: be33 30be 921d 0ebe ff14 243e 560e 54be
000002e0: 69ab d9bd 083c afbd 12cb b5bd f21e 0c3e
000002f0: e601 97bd 2200 63bb 11df 74be a670 5dbe
00000300: 351e 733e 0424 2dbe b8ec 5b3d 8e75 f0bd
00000310: d2e0 fd3d 1c2e 12be 00ec edbd d037 27be
00000320: 6d1f 823e d3fc 4c3d 3bdc 16bd 1345 273e
00000330: 4721 f73d 8827 68ba d0e2 363e 7437 4abe
00000340: d2a2 263e 9ba6 74bc ec1e 50be e6fc a13c
00000350: 6610 10be 03c3 f0ba a486 e53c 96e7 9f3d
00000360: 2061 893c 39fb 443e c150 403e 601c 40bd
00000370: 8569 ba3d 810d 4e3e 5c6e e53d 716a 8f3c
00000380: 3b0a ff3b 5630 7e3c 4b0c 0c3e 6e2e d63d
00000390: 43d8 54bd 53e3 013e c8b8 a0bd 1a15 e0bd
000003a0: 2374 bf3d 1fab 023e df98 2ebe f2fc 9abd
000003b0: b11f 7abc 8008 2fbd 3965 77be b051 193e
000003c0: 33bb 03be 2d2e 833e 203e ce3c 42d9 0abe
000003d0: e063 8b3d b041 02bd 0118 8cbd 7947 95bd
000003e0: 60fb c63d 10f3 6cbe 6a67 723e f024 c2bd
000003f0: a410 b23c 39bd e7bd 7bb4 04be 5094 58be
0.1616202 0.063479654 0.17609933 0.020350732 -0.1404813 -0.04709344 0.20028214 -0.037235588
0.16824132 -0.16634552 -0.10369481 0.050487008 -0.24723838 -0.12588276 0.0041176393 0.09387786
-0.07229812 -0.19245562 0.015437296 -0.23838243 0.09776824 0.098228194 0.07150447 0.0116862245
-0.09896336 0.10025683 0.029638184 0.0871537 -0.14565262 -0.025478542 -0.07619354 0.15383567
-0.18728796 -0.22299269 -0.012461512 -0.19138317 0.14666079 0.037303235 0.22285369 -0.13348171
0.17328976 -0.24649133 0.23502499 -0.23743042 -0.2084452 -0.0033584535 -0.18449678 0.18376985
-0.23534742 0.20207615 0.030564427 -0.08337118 -0.11561295 0.02312451 -0.1752889 -0.0026670464
0.19824252 0.05646059 -0.10000762 -0.11304088 0.0500414 -0.12138937 -0.091779046 0.20604193
0.01567234 0.19655095 0.23900223 0.10436454 0.07063232 -0.099577084 0.111641414 -0.03596437
-0.13916737 -0.21364151 -0.17502977 -0.16750452 -0.23983656 0.102988794 -0.2051605 0.14515917
0.16369918 -0.19986744 -0.23826866 -0.15875371 0.021453954 0.0035718181 -0.17143188 -0.056645278
-0.14816944 -0.23032881 0.10488686 0.09545678 0.15853152 -0.006516146 0.08408967 -0.049729794
0.03169727 0.040834166 -0.08967597 0.014632472 -0.14345153 -0.09688544 -0.071774036 -0.17374201
0.011713451 0.11625038 0.20369656 0.03825943 -0.26087296 0.0072582364 0.13849157 0.043751292
-0.21654718 -0.019497376 0.05539462 -0.0093011875 -0.15605155 0.06455111 0.14354153 -0.04647766
-0.1220663 0.22984394 -0.21612291 -0.0067193895 -0.060192052 0.07340456 0.070864566 0.008913487
-0.11875389 -0.194864 -0.20618066 -0.03199064 0.10904097 -0.0949476 -0.16285041 -0.062342077
0.08894652 -0.108824715 0.16098647 0.10621232 0.08316351 -0.23774613 -0.095880136 -0.18386985
-0.12866081 -0.15775704 0.019021537 -0.08648539 0.069782 0.047901753 -0.10700107 0.22252117
0.15812628 -0.12874284 -0.21234198 -0.19629675 0.0077216025 0.23063204 0.087089896 0.03246204
-0.12417721 -0.044896454 0.06614659 0.1572132 -0.0806436 0.22956128 0.04521507 0.20580836
-0.23254034 0.14073649 -0.10943061 0.10781573 0.20562679 -0.16520819 -0.2470006 -0.085943334
-0.18167776 -0.085923955 -0.1976777 -0.06242081 -0.17207238 -0.13878468 0.16023634 -0.20708594
-0.10628397 -0.08556372 -0.08876623 0.1368368 -0.07373409 -0.003463753 -0.23913218 -0.21625003
0.23741992 -0.1690827 0.05369255 -0.11741172 0.12396397 -0.14275402 -0.11617279 -0.16329885
0.254146 0.0500458 -0.036831122 0.16334943 0.12066894 -0.0008855988 0.1785996 -0.19747716
0.16273049 -0.0149323 -0.20324296 0.019773912 -0.14068756 -0.0018368665 0.028018303 0.078078434
0.016769946 0.19236459 0.18780805 -0.04690206 0.091021575 0.20122339 0.1120269 0.01750681
0.007783202 0.015514454 0.13676564 0.104580745 -0.051964056 0.12684374 -0.07847744 -0.10941525
0.09348323 0.1276059 -0.17050503 -0.07567777 -0.015266345 -0.042732716 -0.24159707 0.14972568
-0.1286438 0.25621167 0.025176108 -0.1355944 0.06806159 -0.031800926 -0.06840516 -0.07289023
0.09715915 -0.23139596 0.23672262 -0.094797015 0.02173645 -0.11315388 -0.12959473 -0.21150327
