src/models/trained_hybrid_model.pth_gnn.pth (torch, 12024 bytes, 4 tensors)

conv1.bias f4 [64]
0.0 0.011579977 0.014362913 -0.0053607947 0.064256094 -0.026351554 0.00997121 -0.0048807217
0.01660459 0.009398423 -0.021523207 0.0 -0.011201652 0.0069470904 0.0 -0.007843979
0.004795905 -0.017768372 -0.012566986 -0.00056349183 0.030737454 -0.004200542 0.0018796228 0.024794621
0.0 -0.023128051 0.01577412 0.007051087 0.028595584 -0.013647966 -0.005216992 -0.010997006
0.0043645552 0.0 0.0 -0.01095253 0.0 -0.012924217 0.0 -0.0065293065
0.0 0.0 0.0 0.057505514 0.024606109 -0.00034350634 -0.016945574 0.0
-0.004019322 0.01402237 0.009864832 -0.0012189004 -0.014653009 -0.0096194055 -0.004848403 -0.006505774
0.01730576 -0.026459225 0.009215224 0.0 0.015780197 -0.015456908 0.005297685 0.0
00000000: 0000 0000 f2b9 3d3c 6c52 6b3c 9ba9 afbb
00000010: b398 833d 37df d7bc 495e 233c 76ee 9fbb
00000020: 5906 883c d8fb 193c 7051 b0bc 0000 0000
00000030: 2287 37bc 6ba4 e33b 0000 0000 0884 00bc
00000040: f826 9d3b fa8e 91bc c2e5 4dbc 4cb7 13ba
00000050: 1dcd fb3c b3a4 89bb ad5d f63a 171e cb3c
00000060: 0000 0000 0a77 bdbc ba38 813c ce0c e73b
00000070: 4941 ea3c b89b 5fbc 4df3 aabb c92c 34bc
00000080: 8b04 8f3b 0000 0000 0000 0000 3e72 33bc
00000090: 0000 0000 18c0 53bc 0000 0000 cbf3 d5bb
000000a0: 0000 0000 0000 0000 0000 0000 e78a 6b3d
000000b0: c092 c93c a418 b4b9 72d1 8abc 0000 0000
000000c0: 84b4 83bb 15be 653c 1ba0 213c 83c3 9fba
000000d0: 2d13 70bc b69a 1dbc 5adf 9ebb 632e d5bb
000000e0: cfc4 8d3c 04c1 d8bc 73fb 163c 0000 0000
000000f0: 7945 813c f93e 7dbc 3498 ad3b 0000 0000

conv1.lin.weight f4 [64, 4]
0.22116393 -0.15692684 -0.043192387 -0.13234517 0.054602303 -0.067305945 0.28600314 0.24290745
-0.2669582 0.21695553 0.10169392 0.27309218 0.0787443 0.255176 0.1133172 0.03545253
0.009066165 -0.17909716 0.1932307 0.1583553 -0.32187214 -0.026707847 -0.21212937 0.095239535
0.26479217 0.04070882 0.058197178 -0.17923592 -0.22568326 -0.0017689152 -0.119491704 0.030847799
0.23693208 0.018936494 0.19407108 -0.06206556 0.18274775 -0.048240528 0.014123496 0.13777149
0.007596665 -0.122747645 -0.056699753 0.23105326 -0.04800862 -0.24931197 -0.10551396 -0.12942444
0.18989986 0.24634835 0.18555048 0.26856157 -0.23854242 0.240404 0.0596692 0.02371346
-0.18715435 -0.27065927 -0.25714654 0.040488333 -0.19263926 0.06659407 0.2841843 0.030984009
0.28247842 0.28254429 0.21770412 -0.07603439 -0.2664587 -0.012190356 -0.25938398 0.18857802
-0.20973338 0.22794728 0.016892312 0.18567598 -0.0015668537 0.01978055 -0.1539353 -0.017939033
0.3023147 0.03713908 -0.04379127 0.1315447 -0.058256194 0.07785 -0.28177008 -0.038748175
0.26996192 -0.28332293 0.29535872 0.20395343 0.0038597418 0.051759493 -0.10589248 0.000101087026
-0.23446381 -0.11474897 -0.061772972 0.05209908 -0.19571412 0.24168952 0.12524354 0.108022064
-0.24412882 0.19206883 0.12761591 -0.0813873 -0.2005244 -0.105521046 -0.24303947 0.22938032
0.078127325 0.042302832 -0.12229776 0.21984199 -0.26378796 0.021464286 0.16254823 0.1944296
0.10662795 -0.06085831 -0.19083354 -0.16594319 0.07331962 0.004322464 0.18094903 0.0707075
-0.29306805 0.19175059 -0.18469879 -0.08569967 -0.28030962 -0.18550774 -0.02417028 -0.20671725
-0.1787454 -0.20095564 -0.29082856 -0.25651503 0.11927911 -0.057103615 0.109310895 0.072009966
-0.07345998 -0.179842 0.18954965 -0.12346497 -0.0066587827 0.2081783 -0.11194342 -0.038727023
0.009076834 -0.058656678 -0.18929255 -0.27092788 -0.06556859 0.18949038 -0.052224353 -0.1583464
-0.059549943 -0.27093935 -0.17056867 0.059209317 -0.11839281 -0.020125002 -0.2761588 0.014770478
-0.21705043 -0.05280496 -0.28497496 -0.17707634 -0.15243575 -0.07168331 -0.017237166 0.12455117
-0.17531599 -0.08225529 -0.015965879 0.28772834 0.2667742 -0.024826964 -0.13260078 0.08671099
0.18315156 0.074223 -0.03119436 0.27829444 -0.23587143 -0.08335443 -0.0106163025 -0.1086178
-0.13977484 -0.0029199556 0.09817911 0.26934746 0.28729138 0.09920796 0.29109254 -0.19530702
-0.13674393 0.13550423 -0.13084291 -0.080791906 -0.20835689 0.009548932 0.24852484 -0.16808955
-0.19920047 -0.27423277 0.24239781 0.2165926 0.18834841 0.0616539 0.07076599 -0.29326513
-0.105232105 0.2372158 0.14772105 -0.2142456 0.23203228 -0.20920011 0.034894943 0.116444245
0.1085381 0.25307694 0.2133053 -0.015522322 0.21921283 -0.081506036 0.028784089 -0.03870928
0.010427971 0.029914005 0.12859891 -0.10854758 -0.2453337 -0.10393703 -0.28533047 -0.0018219054
0.26997766 0.2959326 0.10244566 0.30939692 0.277768 -0.0093935 0.23696864 -0.06213823
0.22756727 0.124559246 -0.16049197 0.11227027 -0.1648493 -0.24065967 -0.296704 -0.15056281
00000000: cc78 623e 6eb1 20be 80ea 30bd 7e85 07be
00000010: aaa6 5f3d b3d7 89bd 016f 923e bbbc 783e
00000020: bfae 88be 9729 5e3e e744 d03d bdd2 8b3e
00000030: b144 a13d 6ea6 823e d912 e83d ac36 113d
00000040: 418a 143c 3f65 37be 45de 453e e427 223e
00000050: 6dcc a4be 6aca dabc 7138 59be f20c c33d
00000060: d792 873e 4bbe 263d 2a60 6e3d 9f89 37be
00000070: 8319 67be f2da e7ba 11b8 f4bd 86b4 fc3c
00000080: 539e 723e b520 9b3c 92ba 463e 7538 7ebd
00000090: 3a22 3b3e dc97 45bd 3c66 673c f813 0d3e
000000a0: 72ed f83b 1e63 fbbd 003e 68bd 3a99 6c3e
000000b0: b0a4 44bd a34b 7fbe b417 d8bd d787 04be
000000c0: 1c75 423e be42 7c3e f200 3e3e e780 893e
000000d0: 7744 74be 772c 763e b167 743d bb42 c23c
000000e0: 64a5 3fbe da93 8abe b6a8 83be 18d7 253d
000000f0: 3a43 45be 7962 883d 9b80 913e 2dd2 fd3c
00000100: 03a1 903e a5a9 903e d4ed 5e3e ebb7 9bbd
00000110: 466d 88be 0fba 47bc facd 84be 991a 413e
00000120: 59c4 56be 036b 693e bf61 8a3c d821 3e3e
00000130: e35e cdba d20a a23c 37a1 1dbe e1f4 92bc
00000140: fec8 9a3e 261f 183d 7a5e 33bd a7b3 063e
00000150: 0c9e 6ebd d26f 9f3d 2b44 90be 68b6 1ebd
00000160: 7338 8a3e b40f 91be 4239 973e 2bd9 503e
00000170: b9f3 7c3b c301 543d 28de d8bd affe d338
00000180: 4817 70be 8201 ebbd a805 7dbd d865 553d
00000190: 4869 48be 757d 773e d83f 003e ac3a dd3d
000001a0: e8fc 79be b1ad 443e bfad 023e 62ae a6bd
000001b0: 4556 4dbe 6b1b d8bd 57df 78be ade2 6a3e
000001c0: 3801 a03d bc45 2d3d 3f77 fabd 421e 613e
000001d0: 370f 87be dfd5 af3c 0b73 263e 8e18 473e
000001e0: c15f da3d 9046 79bd de69 43be 03ed 29be
000001f0: 9928 963d 75a3 8d3b b44a 393e 18cf 903d
00000200: 040d 96be 445a 443e ae21 3dbe 4f83 afbd
00000210: be84 8fbe bef5 3dbe c000 c6bc b0ad 53be
00000220: 0909 37be 51c7 4dbe 7be7 94be f055 83be
00000230: 9b48 f43d 7be5 69bd 64de df3d f679 933d
00000240: 3072 96bd 8028 38be 4e19 423e 34db fcbd
00000250: eb31 dabb b12c 553e 9742 e5bd 3aa0 1ebd
00000260: 00b7 143c fc41 70bd e8d5 41be 0fb7 8abe
00000270: d348 86bd c409 423e 34e9 55bd 8f25 22be
00000280: a4ea 73bd 90b8 8abe 8ea9 2ebe 7885 723d
00000290: ee77 f2bd 30dd a4bc b064 8dbe e0ff 713c
000002a0: 7842 5ebe 044a 58bd 3de8 91be 8053 35be
000002b0: 1e18 1cbe b3ce 92bd f534 8dbc af14 ff3d
000002c0: 0986 33be 7675 a8bd e0ca 82bc 2151 933e
000002d0: a196 883e eb61 cbbc 80c8 07be 8895 b13d
000002e0: 158c 3b3e 3a02 983d 518b ffbc 9c7c 8e3e
000002f0: 4888 71be bab5 aabd 00f0 2dbc 0273 debd
00000300: 2321 0fbe ba5c 3fbb 2112 c93d e9e7 893e
00000310: db17 933e 8b2d cb3d 150a 953e 90fe 47be
00000320: 9a06 0cbe 9fc1 0a3e affb 05be 3a76 a5bd
00000330: 825b 55be 2073 1c3c 4c7d 7e3e ab1f 2cbe
00000340: 35fb 4bbe 3d68 8cbe 2237 783e 73ca 5d3e
00000350: 68de 403e cd88 7c3d c2ed 903d d926 96be
00000360: ee83 d7bd b3e8 723e 3044 173e 3363 5bbe
00000370: df99 6d3e 8e38 56be 00ee 0e3d 527a ee3d
00000380: 3949 de3d 4d93 813e b46c 5a3e 5651 7ebc
00000390: 5479 603e a3ec a6bd 9ccc eb3c 9f8d 1ebd
000003a0: 15da 2a3c 370e f53c 6faf 033e 324e debd
000003b0: c238 7bbe f0dc d4bd d616 92be 00cd eeba
000003c0: 833a 8a3e 7a84 973e 08cf d13d 4669 9e3e
000003d0: 9b37 8e3e 32e7 19bc e8a7 723e a884 7ebd
000003e0: 6507 693e eb18 ff3d 0258 24be f5ed e53d
000003f0: 41ce 28be 7d6f 76be 96e9 97be 232d 1abe

conv2.bias f4 [32]
0.010159001 0.0010440303 0.018798376 -0.024235599 -0.008301672 -0.012257969 -0.018848732 0.0041496465
-0.006257952 0.0021518772 0.012302512 0.015237006 -0.026111092 -0.024333885 0.005806024 -0.009490378
0.019011738 0.01962185 0.020919282 0.020911356 0.010654467 0.008602797 0.015376358 0.010386674
-0.027138475 0.011813334 0.008058905 0.015352093 0.019883046 -0.008988914 -0.016112339 -0.011256647
00000000: f071 263c d8d7 883a 0dff 993c bc89 c6bc
00000010: bc03 08bc a6d5 48bc a868 9abc c2f9 873b
00000020: 820f cdbb 8206 0d3b 7a90 493c a3a4 793c
00000030: eee6 d5bc db57 c7bc 7640 be3b 887d 1bbc
00000040: 81be 9b3c 01be a03c ea5e ab3c 4b4e ab3c
00000050: 1390 2e3c bff2 0c3c 1fed 7b3c de2c 2a3c
00000060: 8251 debc b78c 413c 7f09 043c 5887 7b3c
00000070: c5e1 a23c 3d46 13bc 06fe 83bc cd6d 38bc

conv2.lin.weight f4 [32, 64]
0.1545926 0.011854662 -0.04365747 0.23684692 0.20839608 -0.06871857 0.14850967 0.00556233
-0.180293 0.21409073 -0.1527751 0.14520553 -0.006610825 0.24996062 -0.07874808 -0.19926657
-0.084052764 0.021551684 0.04195422 -0.080181144 0.1687023 -0.030579057 0.17739815 -0.13050027
-0.24059203 -0.20511761 -0.07419757 -0.21697079 0.12509379 -0.01176492 0.11315834 -0.2298025
-0.18245558 -0.14713931 0.09330946 -0.1702307 -0.16939306 0.05628274 0.24852666 0.23879716
0.24723938 -0.040948004 -0.13862348 0.11040491 -0.21755877 -0.10321988 -0.14736706 -0.21692777
-0.15403074 0.034362867 0.14584292 0.22833303 0.20726463 0.13560894 0.17777203 0.14651166
-0.22299351 0.24500728 0.010884319 0.22555828 -0.23169906 0.17791675 -0.16804343 -0.13186777
-0.0027106106 -0.1836261 0.22363204 -0.10840229 0.124792986 -0.17411056 0.120458566 -0.2366451
-0.15124339 0.09843368 0.12619838 -0.06830767 -0.08629441 -0.13888493 -0.100316346 0.12109661
0.15554409 0.121664055 -0.118321925 0.13289216 0.17939213 -0.23750252 -0.20719378 -0.089295626
0.1541017 -0.09598975 -0.15108845 -0.17791297 -0.18065573 0.2489595 0.1356187 -0.18916352
0.16796966 -0.070443064 0.14966324 0.17853345 -0.1992436 -0.1806211 0.23327264 0.012116521
-0.103829384 -0.009307325 0.19447726 0.2240433 -0.16691571 0.235698 0.055611033 -0.2139673
0.23108438 -0.15586495 0.009462029 -0.110281244 -0.026796315 0.039898913 0.07111116 0.23781984
0.21930891 0.054129574 0.20527868 0.00045779347 0.1333481 -0.11017485 0.23629326 0.10509071
0.18157178 0.24402107 0.25856483 0.24283612 0.1544513 0.14916053 0.15808688 0.020932665
-0.040681858 0.15832278 -0.110125795 -0.0693869 -0.060440317 -0.20367187 0.23009363 -0.13199249
-0.20184146 -0.058115046 0.0205355 0.021238757 -0.087629855 0.17869258 -0.0012326239 0.13299267
0.083860606 0.07549588 0.1592776 0.21691932 0.084419355 -0.15076366 0.19524892 -0.20067362
-0.07213044 -0.19327405 -0.17726073 -0.0051334566 0.1477089 0.15602133 -0.050152123 0.06851617
-0.018929422 0.021616489 -0.012315154 -0.10215574 -0.16333851 -0.116040565 -0.18634912 0.14837494
0.005042919 -0.035899166 0.10650674 -0.18245 -0.13606425 -0.15924715 0.1607395 0.16835915
-0.14809401 -0.00942445 0.038004734 -0.22656855 -0.09104281 0.17829248 -0.15645833 -0.24414682
0.12871778 0.10181895 0.077795304 -0.27084446 0.12326751 -0.004186647 0.14448747 0.14940786
-0.10054283 -0.1971176 0.17734781 -0.0013930798 -0.030118307 -0.16777427 -0.23466522 0.022573616
-0.03419614 -0.009820038 0.11953806 -0.021111114 -0.2216371 -0.066811234 -0.021856502 0.0146089
0.09527305 0.10251484 -0.10830933 -0.020487044 -0.2654547 0.027655283 -0.22569492 -0.14370689
0.13999945 -0.22845551 0.14320612 0.12949893 -0.23065388 0.040009048 0.02131185 -0.22197518
0.19270277 -0.038356513 0.17613411 -0.077344336 -0.036866345 0.046539642 -0.058685172 -0.17686954
-0.05660525 -0.2608553 -0.14256483 0.16613442 0.11954372 -0.18711774 0.18933985 0.08104564
-0.14768015 0.055669907 0.04435294 -0.17076084 -0.11925633 0.15700394 -0.20912546 -0.17212445
00000000: 864d 1e3e 0e3a 423c 2dd2 32bd 0088 723e
00000010: c865 553e 52bc 8cbd eb12 183e 3544 b63b
00000020: ba9e 38be 9a3a 5b3e 1371 1cbe c2b0 143e
00000030: 9f9f d8bb adf5 7f3e ac46 a1bd 890c 4cbe
00000040: db23 acbd 288d b03c 30d8 2b3d 0336 a4bd
00000050: 4cc0 2c3e ee80 fabc dca7 353e dda1 05be
00000060: c25d 76be 5a0a 52be e5f4 97bd 972d 5ebe
00000070: 9618 003e a7c1 40bc 8fbf e73d 5951 6bbe
00000080: a3d5 3abe b0ab 16be 0819 bf3d f550 2ebe
00000090: 6075 2dbe bb88 663d c67d 7e3e 3e87 743e
000000a0: 522c 7d3e 18b9 27bd 50f3 0dbe f81b e23d
000000b0: bac7 5ebe f264 d3bd 64e7 16be 5022 5ebe
000000c0: 3cba 1dbe 14c0 0c3d d957 153e 22d0 693e
000000d0: 2e3d 543e 12dd 0a3e df09 363e 2707 163e
000000e0: 6958 64be 30e3 7a3e 2554 323c c0f8 663e
000000f0: 8542 6dbe cf2f 363e 9413 2cbe 5808 07be
00000100: 80a4 31bb 7b08 3cbe ccff 643e 0502 debd
00000110: 7793 ff3d 0a4a 32be fbb2 f63d 1853 72be
00000120: 8cdf 1abe 9997 c93d 263a 013e e4e4 8bbd
00000130: 20bb b0bd da37 0ebe a872 cdbd 8001 f83d
00000140: f346 1f3e 012b f93d c452 f2bd e214 083e
00000150: 92b2 373e dc33 73be 9b2a 54be a0e0 b6bd
00000160: d6cc 1d3e 4696 c4bd eeb6 1abe d12e 36be
00000170: d1fd 38be 3def 7e3e a1df 0a3e 15b4 41be
00000180: 3d00 2c3e 7444 90bd 5241 193e 79d1 363e
00000190: 8406 4cbe bdf4 38be 06df 6e3e 5f84 463c
000001a0: 80a4 d4bd c07d 18bc 0c25 473e 9b6b 653e
000001b0: f4eb 2abe d15a 713e 65c8 633d 3e1a 5bbe
000001c0: 62a1 6c3e 109b 1fbe a006 1b3c 22db e1bd
000001d0: f283 dbbc 0b6d 233d baa2 913d 0b87 733e
000001e0: 8492 603e f9b6 5d3d 9334 523e 0004 f039
000001f0: 688c 083e 5aa3 e1bd dcf6 713e cc39 d73d
00000200: f4ed 393e a9e0 793e 9c62 843e 08aa 783e
00000210: 7b28 1e3e 8abd 183e 87e1 213e fb7a ab3c
00000220: 05a2 26bd 5e1f 223e a289 e1bd b81a 8ebd
00000230: 4490 77bd 5c8f 50be aa9d 6b3e 0a29 07be
00000240: 87af 4ebe 0b0a 6ebd 113a a83c e7fc ad3c
00000250: 4877 b3bd 30fb 363e ff8f a1ba 3b2f 083e
00000260: 1cbf ab3d 959d 9a3d ab19 233e 1920 5e3e
00000270: 0ee4 ac3d ca61 1abe 55ef 473e 637d 4dbe
00000280: 20b9 93bd a2e9 45be d683 35be 8e36 a8bb
00000290: 0041 173e 0ec4 1f3e 506c 4dbd 3552 8c3d
000002a0: e011 9bbc 1015 b13c 80c5 49bc 0737 d1bd
000002b0: 3642 27be ada6 edbd 4ed2 3ebe 9aef 173e
000002c0: 123f a53b 010b 13bd 3520 da3d 2cd4 3abe
000002d0: 6d54 0bbe af11 23be e598 243e 5766 2c3e
000002e0: f5a5 17be 0269 1abc daaa 1b3d 9601 68be
000002f0: a774 babd 4e92 363e 9d36 20be a001 7abe
00000300: 98ce 033e 7486 d03d 2553 9f3d 20ac 8abe
00000310: ad73 fc3d 2430 89bb 86f4 133e 60fe 183e
00000320: 66e9 cdbd 32d9 49be aa9a 353e 0098 b6ba
00000330: abba f6bc 05cd 2bbe 144c 70be 4eec b83c
00000340: 4011 0cbd 3ae4 20bc 5fd0 f43d 37f1 acbc
00000350: d6f4 62be 54d4 88bd 680c b3bc 2b5a 6f3c
00000360: 841e c33d 4df3 d13d 48d1 ddbd 72d4 a7bc
00000370: aee9 87be 558d e23c 921c 67be e627 13be
00000380: 045c 0f3e 3ef0 69be a0a4 123e 5e9b 043e
00000390: 8830 6cbe 87e0 233d 3096 ae3c 764d 63be
000003a0: e053 453e b81b 1dbd 805c 343e b566 9ebd
000003b0: 2a01 17bd 5aa0 3e3d dd5f 70bd 4a1d 35be
000003c0: e8da 67bd d38e 85be 84fc 11be 241f 2a3e
000003d0: 56d3 f43d cb9b 3fbe 4ee2 413e 42fb a53d
000003e0: 7739 17be 2106 643d 6eab 353d eedb 2ebe
000003f0: aa3c f4bd a4c5 203e fc24 56be 6441 30be
