src/models/trained_hybrid_model.pth_lstm.pth (torch, 237804 bytes, 9 tensors)

lstm.weight_ih_l0 f4 [256, 32]
0	0x3da833ea	0.08213027
1	0x3c82f58a	0.015986223
2	0x3cef7b98	0.029233739
3	0xbdd4c584	-0.103892356
4	0x3d44609f	0.047943708
5	0xbd1d8e2a	-0.038465656
6	0xbc3d08a3	-0.011537704
7	0xbccf4913	-0.0253034
8	0xbd608f18	-0.054823965
9	0xbd1d9dc9	-0.038480554
10	0xbd1e253c	-0.03860973
11	0xbd716c04	-0.058940902
12	0xbc9e1fe5	-0.019302318
13	0xbce52728	-0.027972773
14	0xbcf3a985	-0.02974392
15	0x3db0eb16	0.08638589
16	0xbe06c624	-0.13161522
17	0xbc89ce9b	-0.01682215
18	0xbd81e934	-0.06343308
19	0x3c284de3	0.010272476
20	0x3e13e3f2	0.14442423
21	0xbd8bef89	-0.06832797
22	0x3d641061	0.055679683
23	0xbd899971	-0.0671872
24	0xbdf8d883	-0.12150671
25	0x3c67a28c	0.014137875
26	0x3db9c031	0.09069861
27	0xbcc165d5	-0.023608128
28	0x3dedb8ad	0.1160749
29	0x3db62bb2	0.08895053
30	0xbddcfbe1	-0.107902296
31	0x3dba07d3	0.090835236
32	0xbd8c848a	-0.06861217
33	0x3c2fec1e	0.010737447
34	0xbdf0c26e	-0.117558345
35	0xbd1fc041	-0.039001707
36	0xbd30df2e	-0.04318159
37	0x3abe3426	0.0014511391
38	0x3db0567f	0.08610248
39	0x3d153d83	0.036435615
40	0xbd18c3e0	-0.037296176
41	0xbd056db2	-0.032575317
42	0x3dad8bd1	0.084739335
43	0x3da1087c	0.078629464
44	0xbd5fa9de	-0.054605357
45	0x3dd0dd2b	0.101984344
46	0xbd5a0c6b	-0.0532345
47	0x3dd97be8	0.10619336
48	0x3cdb2f20	0.02675587
49	0x3dd8c7a3	0.10584953
50	0xbd98f68a	-0.074688986
51	0x3dd3a3f6	0.103340074
52	0xbceb133d	-0.028695697
53	0xbd03a05c	-0.032135352
54	0xbd540f0c	-0.051772162
55	0xbce6539c	-0.02811604
56	0xbe0eeb90	-0.13957047
57	0x3db2c145	0.087282695
58	0x3e04aee6	0.12957343
59	0xbcbdd66f	-0.023173539
60	0x3dd79035	0.10525552
61	0xbd05bdb3	-0.032651614
62	0xbda691c6	-0.08133273
63	0xbc9b3a1c	-0.018948607
64	0xbd66d0ee	-0.056351595
65	0xbd204ad0	-0.039133847
66	0xbb5f0968	-0.0034032706
67	0xbdd1b91c	-0.10240385
68	0x3d3e027b	0.046389084
69	0xbdd47b00	-0.10375023
70	0x3d9e50fd	0.07730291
71	0x3daccdbe	0.0843768
72	0x3cfd2c74	0.030904986
73	0x3d2e8e05	0.04261591
74	0x3cc48c6d	0.023992741
75	0xbd9dd8c0	-0.077073574
76	0xbdba9af9	-0.0911159
77	0x3b820869	0.0039682877
78	0x3db4857e	0.08814524
79	0x3d7209dc	0.059091434
80	0xbe04e638	-0.12978446
81	0xbdc2f315	-0.095190205
82	0xbd2b6a3f	-0.04184937
83	0xbb840bc8	-0.0040297247
84	0x3de0b080	0.10971165
85	0xbd8b1d3e	-0.06792687
86	0x3e0abc72	0.13548449
87	0x3b7b09ab	0.0038305323
88	0xbdf22987	-0.11824327
89	0xbd9db3a6	-0.07700281
90	0xbd4b3b2f	-0.04961699
91	0xbdc99c37	-0.09844249
92	0x3d1627e7	0.036659148
93	0xbcc8c70b	-0.024508974
94	0x3d887e41	0.06664706
95	0x3d36beb6	0.04461547
96	0x3d640ab9	0.05567429
97	0x3e03d5e6	0.12874565
98	0xbd962aa6	-0.07332353
99	0x3dc9ff38	0.09863132
100	0xbdb518f3	-0.08842649
101	0x3cfc40ab	0.030792555
102	0x3cc39258	0.023873493
103	0xbdc4bd1d	-0.09606383
104	0x3b31af9b	0.0027112726
105	0x3b65e831	0.0035081024
106	0xbc540932	-0.012941645
107	0x3ce3d59f	0.027811823
108	0x3da0d411	0.078529485
109	0x3c6729ef	0.014109119
110	0xbdb4e001	-0.08831788
111	0x3da231c3	0.079196475
112	0xbd09fe41	-0.03368974
113	0xbc03ed2c	-0.008052152
114	0x3d36f5f9	0.04466817
115	0x3d963dc6	0.07336001
116	0xbce095a6	-0.027415108
117	0x3d897704	0.067121536
118	0x3e10991f	0.14120911
119	0x3d7de725	0.061988015
120	0x3c177499	0.009244108
121	0x3da2c964	0.079485685
122	0x3d99040d	0.07471476
123	0xbd162af6	-0.036662064
124	0x3d9b043f	0.07569169
125	0xbd9b2d1b	-0.075769626
126	0xbce4fc37	-0.027952297
127	0x3d8eb747	0.06968551
128	0xbdb77185	-0.08957199
129	0xbd5f6079	-0.054535363
130	0x3d5b1835	0.053489882
131	0x3d1276b6	0.035757743
132	0xbc9c67b2	-0.019092415
133	0x3d97f36c	0.07419476
134	0x3e008a9d	0.12552877
135	0x3d736b7d	0.05942868
136	0x3d2959aa	0.041345276
137	0x3c91f4d5	0.01781694
138	0xbc889ddd	-0.016676838
139	0x3c1537c1	0.009107531
140	0xbe0fa2cd	-0.14026947
141	0x3d84f42f	0.06491887
142	0xbd0089e2	-0.031381495
143	0xbd892120	-0.06695771
144	0x3da67fd6	0.081298515
145	0xbd8f30a4	-0.06991699
146	0x3e135e97	0.14391552
147	0xbd7ca7e0	-0.061683536
148	0x3ca1c2b8	0.01974617
149	0x3e1d4092	0.15356663
150	0x3b93967c	0.004504023
151	0xbd556ea8	-0.052107483
152	0xbdb35cf2	-0.08757962
153	0xbc021933	-0.007940578
154	0x3deb77c0	0.1149745
155	0x3d2df6b9	0.04247162
156	0xbd105039	-0.035232756
157	0xbc52c666	-0.012864685
158	0xbb3cf319	-0.002883142
159	0x3d10f835	0.03539296
160	0x3d8bddc2	0.06829406
161	0x3a855a83	0.0010174069
162	0xbd3ac685	-0.04559948
163	0xbd6ef3c8	-0.058337957
164	0xbd35b79c	-0.044364557
165	0x3d77c20c	0.060487792
166	0x3c5958f1	0.013265834
167	0x3bd86651	0.006603994
168	0x3cff960d	0.03119948
169	0xbde1477c	-0.10999963
170	0xbdedc6ee	-0.116102085
171	0x3c1c7044	0.009548251
172	0xbd8f2d34	-0.06991044
173	0xbd054236	-0.032533847
174	0xbda07e5e	-0.07836603
175	0xbcc5003b	-0.024047961
176	0xbd8c5be7	-0.068534665
177	0x3cadae5c	0.021201305
178	0x3de3968a	0.111126974
179	0x3ddb5e15	0.10711304
180	0x3d3f99e0	0.046777606
181	0x3da696ca	0.081342295
182	0xbdaa609f	-0.0831921
183	0xbd9ef3c5	-0.07761339
184	0xbdbce84a	-0.09223993
185	0xbc7330a7	-0.014843143
186	0xbd65973e	-0.05605244
187	0xbdab4863	-0.08363416
188	0xbbeda861	-0.0072527383
189	0xbdbd210c	-0.09234819
190	0x3d88069f	0.06641888
191	0x3bb8f109	0.005643968
192	0x3d7a638d	0.061130095
193	0xbc8a2106	-0.01686145
194	0xbe00d134	-0.12579805
195	0x3da1110e	0.07864581
196	0xbd9c5d5a	-0.07634993
197	0x3d19366e	0.037405424
198	0x3da0bedd	0.07848904
199	0xbd5d33ad	-0.05400436
200	0x3cd70667	0.02624817
201	0xbdce8c3f	-0.100853436
202	0xbdb22ed6	-0.087003395
203	0x3cdf04f2	0.027224038
204	0xbd90ef1a	-0.07076855
205	0xbdf61d2f	-0.12017285
206	0x3d1ffca1	0.039059285
207	0x3dcf60b8	0.101258695
208	0x3db778d1	0.08958591
209	0x3d6fcc43	0.05854441
210	0xbd1faf4a	-0.038985528
211	0x3d407690	0.04698807
212	0xbd8bcf60	-0.06826663
213	0x3c887f43	0.016662246
214	0x3e0a93e1	0.13532974
215	0xbda238a4	-0.079209596
216	0xbe023b9d	-0.12718053
217	0x3cf4420a	0.029816646
218	0x3a905fa1	0.0011014828
219	0x3d2cce97	0.042189207
220	0x3d957050	0.072968125
221	0x3d216648	0.039404184
222	0xbde37ca6	-0.11107759
223	0x3c0e2c55	0.008677562
224	0x3db769bf	0.08955716
225	0x3d4718b1	0.048607532
226	0xbd7aebb1	-0.06125993
227	0x3d718bb8	0.058971137
228	0xbd0831ec	-0.033250734
229	0x3c19c695	0.009385725
230	0x3dbb883c	0.09156844
231	0x3cc79fe9	0.024368243
232	0x3cf5bb19	0.029996442
233	0x3d3b83db	0.045780044
234	0xbdf7fe48	-0.12109047
235	0x3d22e6fc	0.039771065
236	0x3d7efecf	0.062254723
237	0xbdd3d91d	-0.103441454
238	0x3d2881fa	0.04113958
239	0x3d76c058	0.060242027
240	0x3d9ffdd0	0.07812083
241	0xbd36d970	-0.04464096
242	0x3d767c19	0.060176942
243	0x3d645e26	0.05575385
244	0x3a69cdbe	0.00089189026
245	0x3d06e301	0.03293133
246	0x3df88b40	0.12135935
247	0x3d3dad5b	0.046307903
248	0xbe046296	-0.12928233
249	0x3dbd7d24	0.09252384
250	0xbcef4f4a	-0.029212613
251	0xbdd8dd55	-0.10589091
252	0xbd634fee	-0.05549615
253	0xbd0de367	-0.034640696
254	0xbddd1936	-0.10795824
255	0xbce26cb4	-0.027639724

lstm.weight_hh_l0 f4 [256, 64]
0	0xbc7fb38b	-0.015606771
1	0x3cdcbc65	0.026945302
2	0xbc01219f	-0.007881551
3	0x3de8bd4e	0.11364232
4	0xbd8ab5a1	-0.06772924
5	0xbd6d488d	-0.057930518
6	0xbda01498	-0.07816428
7	0xbcfee04b	-0.03111281
8	0xbd826c5f	-0.063683264
9	0xbd97db4b	-0.07414874
10	0x3cd5ec90	0.026113778
11	0x3c8c116e	0.017098155
12	0x3dfeaba6	0.12435083
13	0x3d1c5e0a	0.03817562
14	0x3ddbac09	0.107261725
15	0xbc21a46a	-0.0098658595
16	0xbdee907b	-0.11648651
17	0xbb91ce11	-0.004449614
18	0xbdab3fd6	-0.08361785
19	0x3dd8efce	0.10592614
20	0x3c934892	0.01797894
21	0x3bada5b1	0.005299293
22	0xbd227a93	-0.039667677
23	0x3da0158a	0.07816608
24	0xbd80ae69	-0.06283266
25	0xbbad2297	-0.0052836644
26	0x3d9bc4f2	0.07605924
27	0x3b7432e7	0.0037261785
28	0xbde2d9da	-0.11076708
29	0xbd80b7f1	-0.06285084
30	0x3cc7b99a	0.024380494
31	0xbdc16beb	-0.09444412
32	0xbd5c2dbc	-0.053754553
33	0x3d4a4c36	0.049389087
34	0xbda58ce5	-0.08083514
35	0xbd914295	-0.07092778
36	0xbe03482f	-0.12820505
37	0xbdc7f688	-0.09763819
38	0xbdcc15a4	-0.09965065
39	0x3df4b268	0.11948091
40	0xbdaf5ced	-0.08562646
41	0x3d8c66ab	0.0685552
42	0x3d9a9492	0.07547869
43	0x3b637a5e	0.0034710388
44	0xbdf5fbff	-0.12010955
45	0xbd5b5ffb	-0.05355833
46	0x3d411e54	0.047148064
47	0xbd9d88cd	-0.07692108
48	0xbd8da71b	-0.069166385
49	0x3c99a034	0.018753149
50	0xbd53e867	-0.051735308
51	0xbddbdb7e	-0.10735224
52	0xbdd3c79e	-0.10340808
53	0x3d1ef4c9	0.038807664
54	0x3e0b6283	0.13611798
55	0x3de90776	0.11378376
56	0xbdc44afd	-0.095846154
57	0xbd4911f7	-0.0490894
58	0x3d890808	0.06690985
59	0x3d7373f7	0.059436765
60	0xba8eb5a5	-0.0010887875
61	0x3c97b7a0	0.018520176
62	0x3dd58ef4	0.10427657
63	0x3d552409	0.05203632
64	0x3de261ae	0.11053787
65	0x3cef6435	0.029222587
66	0xbe0f2d32	-0.13982084
67	0xbd64cb1d	-0.055857766
68	0xbcd747df	-0.026279388
69	0x3dc67498	0.09690207
70	0x3d895566	0.067057416
71	0xbd3e1acc	-0.046412274
72	0xbd362701	-0.04447079
73	0xbcdfaaf4	-0.027303196
74	0x3dcf6df6	0.10128395
75	0xbd5a5993	-0.05330808
76	0x3dc32690	0.095288396
77	0xbdc7f25e	-0.09763025
78	0x3df1a143	0.11798336
79	0x3c3341e5	0.010941003
80	0xbcfd0771	-0.030887337
81	0xbdc38526	-0.095468804
82	0x3dc72f30	0.09725797
83	0x3d4f07c6	0.050544523
84	0x3d64b1ff	0.055833813
85	0xbd71a93a	-0.058999278
86	0x3ddcf491	0.10788835
87	0x3db09798	0.08622664
88	0xbd762b9b	-0.06010018
89	0xbd9de9e2	-0.07710625
90	0xbd417779	-0.04723308
91	0x3e09c617	0.13454472
92	0xbcdb24cd	-0.026750946
93	0xbbecfd37	-0.007232334
94	0x3b36c4c4	0.0027888278
95	0xbc286829	-0.01027874
96	0xbdbdf686	-0.09275536
97	0xbd6d6ead	-0.057966877
98	0x3d11ff97	0.03564414
99	0xbd026067	-0.031830218
100	0xbca8875a	-0.020572353
101	0x3aaffa78	0.0013426086
102	0xbc16c435	-0.009202053
103	0x3dd06800	0.101760864
104	0x3db61bed	0.08892045
105	0x3e0dd08b	0.13849084
106	0xbc5f67a6	-0.013635552
107	0xbd808427	-0.06275206
108	0x3d9bcc07	0.076072745
109	0xbd393130	-0.045212924
110	0xbcea4d6f	-0.028601376
111	0xbdc806f2	-0.0976695
112	0x3c931fa2	0.01795942
113	0x3d4d6aef	0.050150808
114	0x3de1f646	0.11033301
115	0x3d7eed1e	0.06223785
116	0xbdb173ec	-0.086646885
117	0x3d24f20e	0.040269904
118	0x3df5b791	0.11997903
119	0xbdd88c86	-0.10573678
120	0xbe02cece	-0.12774202
121	0xbd7362d3	-0.059420418
122	0x3dcec033	0.10095253
123	0xbc3adce8	-0.011405207
124	0x3dd76d61	0.10518909
125	0xbc8f70df	-0.017509876
126	0x3d06ef95	0.032943327
127	0x3c0c44e0	0.008561343
128	0xbcaf0995	-0.021366874
129	0x3cdb380d	0.026760126
130	0xbd8803fb	-0.06641384
131	0xbd4144a1	-0.04718459
132	0x3d9cde40	0.07659578
133	0x3dd676bd	0.10471866
134	0x3e0d7001	0.13812257
135	0xbcf24262	-0.02957267
136	0xbde46dec	-0.111537784
137	0x3d99e9b3	0.07515278
138	0xbde62f8a	-0.11239536
139	0xbd8e7806	-0.069564864
140	0x3dba61d6	0.09100692
141	0x3deaadc3	0.11458924
142	0x3d6238fb	0.055230122
143	0xbb914199	-0.0044328687
144	0xbc86f908	-0.01647617
145	0xbd3d787c	-0.04625748
146	0xbc3d2694	-0.011544842
147	0x3c98b527	0.018641068
148	0x3c7ef199	0.015560531
149	0x3dd5a8bb	0.104325734
150	0x3d9dfcee	0.07714258
151	0x3d839df5	0.06426612
152	0xbe099d48	-0.13438904
153	0xbc448761	-0.0119951675
154	0x3d696e45	0.056989927
155	0xbcec0f39	-0.028815852
156	0x3d75d3f6	0.060016595
157	0xbd8dbebc	-0.06921145
158	0x3e08ca3f	0.13358401
159	0xbd58d697	-0.052939024
160	0x3b38dcdb	0.0028207812
161	0xbd40b4f6	-0.047047578
162	0xbe0ad512	-0.13557842
163	0x3dde8064	0.10864332
164	0xbcc4411d	-0.02395683
165	0xbdac8a05	-0.08424763
166	0xbd8752dd	-0.06607602
167	0xbd69b107	-0.057053592
168	0xbdc217f0	-0.09477222
169	0xbd197cb7	-0.037472453
170	0x3db173a2	0.08664633
171	0x3dae5b66	0.085135266
172	0x3d6d96b9	0.05800507
173	0xbd72a4d1	-0.059239212
174	0xb9db9d3e	-0.0004188809
175	0x3d3e54ff	0.046467777
176	0x3d9a51bf	0.07535123
177	0x3d13f916	0.03612622
178	0xbd915b41	-0.070974834
179	0xbd80eb0b	-0.06294831
180	0x3d1ab644	0.03777148
181	0x3dc25676	0.09489147
182	0x3bfb21f2	0.0076639587
183	0xbc4e7069	-0.012600043
184	0x3d8b9612	0.06815733
185	0x3e0060bd	0.12536903
186	0xbd8b482d	-0.06800876
187	0x3de8422e	0.11340748
188	0x3ba954a1	0.0051675593
189	0x3da55849	0.0807348
190	0x3dbf45ec	0.093395084
191	0xbdae5a36	-0.085133
192	0xbd901a5b	-0.07036277
193	0xbd9889f6	-0.07448189
194	0xbdba6d38	-0.09102863
195	0xbd818cb3	-0.06325664
196	0x3d1cdf65	0.038298983
197	0x3d04c369	0.03241292
198	0xbdc44e5c	-0.09585258
199	0xbcdd175c	-0.026988678
200	0xbcfeaab0	-0.03108725
201	0x3df1aef0	0.11800945
202	0xbd1e7fc0	-0.03869605
203	0x3b681583	0.0035413213
204	0x3def9175	0.116976656
205	0xbd9b91f9	-0.075962014
206	0x3d6ae1c0	0.0573442
207	0x3e0f8ffc	0.1401977
208	0xbd996a55	-0.07490984
209	0x3d1b2f13	0.03788669
210	0x3dfa0839	0.122085996
211	0x3c020f1d	0.007938174
212	0x3d90fd27	0.07079535
213	0x3d3b959e	0.045796983
214	0xbd8a8393	-0.06763377
215	0xbceba309	-0.028764265
216	0x3df54e12	0.11977781
217	0xbd96d03e	-0.07363938
218	0xbc392628	-0.011300601
219	0x3d846b28	0.06465751
220	0x3d86c990	0.06581414
221	0x3d68b0bf	0.056809183
222	0x3d6bdc82	0.05758334
223	0xbdad7394	-0.084693104
224	0x3dbcf656	0.09226672
225	0x3e020952	0.12698868
226	0x3da25cf8	0.07927889
227	0xbd1e7aa1	-0.038691167
228	0xbd9ebe90	-0.07751191
229	0xbdb08184	-0.08618453
230	0xbb91d8bc	-0.0044508856
231	0x3d5fddc2	0.054654844
232	0x3ddcdabe	0.10783909
233	0x3cb0daa1	0.021588625
234	0xbd67d43a	-0.05659888
235	0xbe06ea29	-0.13175263
236	0xbda24562	-0.0792339
237	0xbce53e95	-0.027983943
238	0x3d82c089	0.063843794
239	0x3d2b4550	0.04181415
240	0xbce78791	-0.028262885
241	0xbde7d1a9	-0.113192864
242	0xbd79883c	-0.06092094
243	0x3d511a62	0.05105055
244	0xbca7f901	-0.020504477
245	0x3bdbef19	0.0067118523
246	0xbd95b5e0	-0.073100805
247	0x3d63690b	0.0555201
248	0x3c016433	0.0078974245
249	0x3d829a76	0.06377117
250	0x3dca5cb4	0.09880963
251	0xbd414a60	-0.04719007
252	0x3d21d5cd	0.039510537
253	0x3d7b9ceb	0.061428946
254	0xbb77a17a	-0.0037785457
255	0xbdaca0c7	-0.08429103

lstm.bias_ih_l0 f4 [256]
0	0xbcbd10ed	-0.02307936
1	0xbd28374c	-0.04106836
2	0xbcac0dc3	-0.021002656
3	0x3dc3ce2f	0.09560811
4	0x3df0c140	0.117556095
5	0xbb8ffa1e	-0.00439383
6	0x3d4ab10c	0.04948525
7	0xbdbe6fce	-0.09298669
8	0x3dfa5cba	0.122247174
9	0x3d4709b1	0.048593227
10	0x3d362740	0.044471025
11	0x3da38e28	0.079860985
12	0x3c0ce592	0.008599656
13	0x3dc06df7	0.09395974
14	0xbcaf532b	-0.021401962
15	0x3d9202ce	0.07129441
16	0x3b1dd280	0.0024081767
17	0xbdf69ca8	-0.120415986
18	0x3cc77a91	0.024350436
19	0x3cf69fe0	0.030105531
20	0xbcdd4417	-0.027010007
21	0xbdc8c0e9	-0.0980242
22	0x3dac9bce	0.08428155
23	0x3de8d3b5	0.11368505
24	0xbd9de271	-0.07709206
25	0xbd0bd684	-0.034140125
26	0x3daa3740	0.08311319
27	0x3aa43791	0.0012528767
28	0xbd6171b1	-0.055040065
29	0x3e128628	0.14308989
30	0x3d2725b0	0.040807426
31	0x3e0a3d2f	0.13499902
32	0x3bd8c986	0.0066158203
33	0xbadebfe1	-0.001699444
34	0x3e12541f	0.14289902
35	0xbc07e348	-0.008293934
36	0xbc741898	-0.014898442
37	0xbd2cb841	-0.042167906
38	0x3d8e4a20	0.06947732
39	0xbdd00d69	-0.10158808
40	0xbde773d9	-0.11301393
41	0xbda1c2d8	-0.078984916
42	0xbda1b15e	-0.07895158
43	0x3e0bc872	0.13650683
44	0x3d8e757c	0.06956002
45	0xbd7793d3	-0.06044371
46	0xbdc58b79	-0.09645743
47	0x3e10f851	0.14157225
48	0x3d1cdd61	0.03829706
49	0xbd7fac7e	-0.06242036
50	0x3d30a7c9	0.043128762
51	0x3db51393	0.08841624
52	0x3bdffdc1	0.0068356697
53	0xbd5411cb	-0.05177478
54	0x3e19f982	0.15036586
55	0x3db900a3	0.090333246
56	0x3c9de755	0.019275347
57	0x3dffcf6b	0.12490734
58	0x3c909ca2	0.017652813
59	0xbdc08c12	-0.09401716
60	0xbcd73a23	-0.026272839
61	0x3dee0643	0.11622288
62	0xbe150c83	-0.14555554
63	0x3d292a59	0.04130015
64	0x3cedc916	0.02902655
65	0xbd44ad65	-0.048016924
66	0x3db82668	0.089917004
67	0xbd577159	-0.05259833
68	0xbda115ff	-0.078655235
69	0xbdba7c39	-0.09105725
70	0x3bcaf965	0.006194281
71	0xbd6a0d50	-0.057141602
72	0x3d93c938	0.07216114
73	0x3da334d7	0.07969063
74	0x3e07c03b	0.13256924
75	0xbd3b0c9b	-0.04566632
76	0xbd4dabf1	-0.050212804
77	0x3d12e2fe	0.035861008
78	0x3d85cc79	0.06533141
79	0xbd708046	-0.05871608
80	0xbdc3887e	-0.09547518
81	0x3d83575a	0.06413145
82	0x3db8b326	0.09018545
83	0x3e09b00c	0.13446063
84	0x3d654cd8	0.055981487
85	0xbd14eb1f	-0.03635704
86	0x3dfe271b	0.124098025
87	0xbdc9644c	-0.09833583
88	0xbd985ce3	-0.07439592
89	0xbd6997fb	-0.057029705
90	0xbcbcbff7	-0.023040755
91	0xbd88400c	-0.06652841
92	0xbc918a7c	-0.01776623
93	0x3e079588	0.13240635
94	0xbd0eda13	-0.03487594
95	0x3d8e2b00	0.06941795
96	0x3d20703b	0.03916953
97	0xbd2ebdb6	-0.04266139
98	0x3d4306ec	0.047614023
99	0x3dbc4a4f	0.09193861
100	0x3dc8749a	0.09787865
101	0x3c96b05b	0.01839464
102	0x3d7919bb	0.060815554
103	0xbd2a64f7	-0.041600194
104	0xbda66087	-0.0812388
105	0xbc9c49bc	-0.019078128
106	0x3d337168	0.043809325
107	0xbd9243c5	-0.07141832
108	0x3dc1d9c3	0.09465363
109	0x3de71312	0.11282934
110	0x3c0352a2	0.008015307
111	0xbc57d606	-0.013173586
112	0xbde75505	-0.11295513
113	0x3bf57a8c	0.0074914154
114	0xbc0644bf	-0.008195101
115	0x3dafa0f4	0.08575621
116	0x3da0e06c	0.07855305
117	0x3d82a84e	0.06379758
118	0xbd070814	-0.03296669
119	0x3dead895	0.11467091
120	0xbc8e3458	-0.017358944
121	0x3bc8b481	0.0061250334
122	0xbc86a1f3	-0.016434645
123	0xbd2890f6	-0.04115387
124	0x3dfb587b	0.12272736
125	0x3dc1f7b6	0.09471075
126	0x3ca9c4f3	0.020723796
127	0xbd9bbff7	-0.07604974
128	0x3defc209	0.11706931
129	0xbd8e0459	-0.06934423
130	0xb921b9c0	-0.00015423354
131	0x3b9183dc	0.0044407677
132	0xbd9ce79f	-0.07661366
133	0x3e0077eb	0.12545745
134	0xbcd3d07d	-0.02585625
135	0x3dbf3029	0.09335358
136	0xbd9b12b2	-0.07571925
137	0xbd095ba6	-0.03353467
138	0xbd723305	-0.059130687
139	0x3b8da658	0.0043228082
140	0x3c57942d	0.013157886
141	0xbdc5568e	-0.096356496
142	0x3d93c972	0.07216157
143	0xbcf451fa	-0.029824246
144	0xbe023220	-0.12714434
145	0xbd62e98a	-0.0553985
146	0x3e1dd97c	0.15414995
147	0xbd17d86a	-0.037071623
148	0x3cce5817	0.025188489
149	0x3d30d05e	0.043167464
150	0x3cc6b37f	0.024255512
151	0xbd8408fb	-0.064470254
152	0xbdb57c7b	-0.088616334
153	0xbe221767	-0.1582924
154	0xbd60b1c6	-0.054857038
155	0x3d5217a8	0.05129209
156	0x3bc5dc55	0.0060382285
157	0xbca994fb	-0.020700922
158	0x3e1a0921	0.15042545
159	0xbdab1f7d	-0.08355615
160	0xbd0b3eb8	-0.03399536
161	0x3e1bac59	0.15202464
162	0xbd3a4425	-0.045475144
163	0xbd501fd4	-0.050811604
164	0x3d61f3b7	0.055164065
165	0xbd730c34	-0.05933781
166	0xbd756a5a	-0.059915878
167	0x3b640ba6	0.0034796982
168	0xbe07e22d	-0.13269873
169	0x3deb9e53	0.11504807
170	0x3d24b0cb	0.040207665
171	0x3d93552c	0.071939796
172	0xbd9199d5	-0.07109419
173	0xbd78e0a9	-0.060761128
174	0xbe0c3240	-0.13691044
175	0x3db0c8ad	0.08632026
176	0xbd061294	-0.03273256
177	0xbd1307b7	-0.03589603
178	0x3d93f37a	0.07224174
179	0xbc698352	-0.014252501
180	0x3dbcb03b	0.09213301
181	0x3af01eac	0.0018319688
182	0x3db4050f	0.08790027
183	0x3d708364	0.058719054
184	0x3c1b8213	0.009491461
185	0x3cdcc9c4	0.026951678
186	0x3d938008	0.072021544
187	0x3cca4716	0.0246921
188	0x3d559100	0.052140236
189	0xbdc86c66	-0.097863
190	0xbdedef05	-0.11617855
191	0xbc9baebc	-0.019004218
192	0x3e0acd69	0.1355492
193	0x3decc15e	0.11560319
194	0x3d5528ae	0.05204075
195	0xbbc6249e	-0.0060468456
196	0x3d3bb2fb	0.045824986
197	0x3da99e1e	0.082821116
198	0xbd2bfe16	-0.041990362
199	0x3ddb091a	0.10695095
200	0x3df4688d	0.11934004
201	0x3d86927c	0.065709084
202	0x3de85e20	0.11346078
203	0x3d16174c	0.03664331
204	0x3d5ff1c5	0.05467393
205	0x3d5f51f7	0.054521527
206	0xbd556cae	-0.0521056
207	0x3cf607b6	0.030032974
208	0x3cafc144	0.02145446
209	0x3d7c5984	0.061608806
210	0x3db44b0d	0.08803377
211	0xbd18600d	-0.037200976
212	0xbd48cf02	-0.049025543
213	0xbd98d4e6	-0.07462482
214	0xbcc13b72	-0.023587916
215	0x3da50989	0.08058459
216	0x3d0bb1e6	0.034105204
217	0xbbd21ef5	-0.006412382
218	0x3e0b6036	0.1361092
219	0x3d5b3f76	0.053527318
220	0x3dfa47f1	0.12220753
221	0x3d3fe620	0.046850324
222	0x3d807992	0.06273188
223	0x3dfce51e	0.12348388
224	0xbc07f99a	-0.008299256
225	0x3c4b7653	0.012418347
226	0xbcf6d3f1	-0.030130358
227	0x3e0903ef	0.13380407
228	0xbdadd9b9	-0.08488793
229	0x3d70b65b	0.058767658
230	0x3dad777a	0.08470054
231	0x3d52d217	0.05146989
232	0xbcce548a	-0.025186796
233	0x3d490cd7	0.04908451
234	0x3db6842d	0.08911929
235	0xbd4651e4	-0.04841794
236	0x3de6593d	0.112474896
237	0xbb9b3dfb	-0.0047376133
238	0xbd8abc3a	-0.067741826
239	0x3d4a4e24	0.049390927
240	0xbd881f64	-0.06646612
241	0xbd9c49f0	-0.0763129
242	0x3d37fd52	0.04491932
243	0xbd381e5e	-0.044950835
244	0xbbaa7ddc	-0.005202992
245	0x3d9d486e	0.076798305
246	0xbcfaf19e	-0.03063279
247	0x3de47f14	0.11157051
248	0xbd72a4aa	-0.059239067
249	0x3e0f5387	0.13996707
250	0xbd0fe898	-0.035133928
251	0x3d871bb3	0.0659708
252	0x3d9cf2bd	0.07663486
253	0xbc944983	-0.01810146
254	0xbcffc87f	-0.031223534
255	0x3d192630	0.037389934

lstm.bias_hh_l0 f4 [256]
0	0xbdd3ae1f	-0.10335945
1	0xbda9b9fc	-0.08287427
2	0x3dba4fd9	0.09097261
3	0x3cf6b896	0.030117314
4	0xbcc980d3	-0.024597561
5	0x3d585b74	0.05282159
6	0x3dc6adba	0.097011045
7	0x3e056c83	0.13029675
8	0xbd3cd0fd	-0.046097744
9	0xbcda778b	-0.02666833
10	0xbd77398d	-0.06035762
11	0x3df7aef6	0.12093918
12	0x3cf05f1a	0.029342223
13	0xbe0a2b35	-0.13493045
14	0x3d03c2a7	0.032168057
15	0x3dabfcbd	0.083978154
16	0xbca30fd6	-0.019905012
17	0xbde6fdd4	-0.112788826
18	0x3e0e1b13	0.13877515
19	0x3d41e705	0.047339458
20	0x3dc60c27	0.096702866
21	0xbdd758cf	-0.10514986
22	0xbdca7dc2	-0.09887268
23	0xbd1f9a05	-0.038965244
24	0x3dec8b67	0.115500264
25	0x3d221358	0.03956923
26	0xbd78ecf4	-0.06077285
27	0x3ce0638f	0.027391223
28	0xbddf08e4	-0.108903676
29	0x3dfb9e47	0.122860484
30	0x3d646b83	0.055766594
31	0xbb295eae	-0.0025843787
32	0xbc2c528a	-0.010517726
33	0x3df99422	0.12186457
34	0xbcf3e6ee	-0.029773202
35	0xbc21c47c	-0.009873506
36	0xbd45335a	-0.048144676
37	0x3d02a9d6	0.03190025
38	0xbd5808a0	-0.0527426
39	0xbd281c9d	-0.041042913
40	0xbd84afa1	-0.06478811
41	0xbda279ee	-0.079334125
42	0x3dcb9a68	0.0994156
43	0x3e004068	0.12524569
44	0xbd8a4445	-0.06751303
45	0x3d4ed626	0.050497197
46	0x3d42941a	0.047504522
47	0x3e0c1e49	0.13683428
48	0xbd7e3cec	-0.06206982
49	0x3d96c334	0.07361451
50	0xbda7588d	-0.081711866
51	0x3d41bbbf	0.04729819
52	0x3e071948	0.13193238
53	0xbd5deba9	-0.05417982
54	0x3e20a94c	0.15689582
55	0x3da404b1	0.08008707
56	0x3dce76bd	0.10081241
57	0x3c307f96	0.010772606
58	0xbd2eb9b6	-0.042657577
59	0xbd26d95c	-0.040734634
60	0xbc917662	-0.017756645
61	0x3d7a8d97	0.061170187
62	0x3dcfb66e	0.101422176
63	0x3cab7591	0.020930083
64	0x3d9ee516	0.077585384
65	0x3daf6d82	0.08565809
66	0xbd80692a	-0.062700585
67	0x3d87d07e	0.066315636
68	0x3cdc3209	0.026879327
69	0x3dd0ec6b	0.10201343
70	0x3dbeb71b	0.09312268
71	0xbc817574	-0.015803076
72	0x3cd585fe	0.026064869
73	0x3d2d1e40	0.042265177
74	0x3d1837e0	0.03716266
75	0x3dc7235d	0.09723542
76	0xbcdf279f	-0.027240572
77	0x3cf98f04	0.030463703
78	0xbd06350d	-0.032765437
79	0xbd3ab5aa	-0.045583405
80	0x3e0e8090	0.1391623
81	0xbd9e7dc6	-0.07738833
82	0xbdab7a0a	-0.083728865
83	0x3dac3cb1	0.084100135
84	0xbe056445	-0.13026531
85	0x3d4c57e5	0.04988851
86	0xbd96380d	-0.073349096
87	0x3d263cee	0.04058545
88	0x3cd01b31	0.02540359
89	0x3df06ef5	0.117399134
90	0x3d96ae6a	0.073574856
91	0x3dc22b8c	0.09480962
92	0x3de17a52	0.11009659
93	0x3cf93711	0.030421766
94	0xbcc94fcf	-0.024574189
95	0x3d04eee1	0.032454375
96	0xbe07137b	-0.13191025
97	0xbd929a55	-0.07158343
98	0xbd929f33	-0.07159271
99	0xbcd90105	-0.026489744
100	0x3e170abe	0.14750192
101	0xbd8859db	-0.066577636
102	0xbdc91a24	-0.09819439
103	0xbdc4a792	-0.09602274
104	0x3da160b7	0.07879775
105	0xbd5e1562	-0.05421961
106	0x3d9ea33e	0.0774598
107	0xbc8551f6	-0.016274434
108	0xbd4d2794	-0.050086573
109	0x3d6e4d4f	0.058179196
110	0x3d3bb956	0.045831047
111	0xbdabf10b	-0.08395585
112	0xbdafb405	-0.08579258
113	0xbd22f138	-0.039780825
114	0x3e0f44b3	0.1399105
115	0x3d7a3d76	0.06109377
116	0x3d40728d	0.046984244
117	0xbd3506f4	-0.044196084
118	0x3e115497	0.14192425
119	0x3d7db61f	0.061941262
120	0x3b9dffc8	0.0048217513
121	0xbd99e304	-0.07514003
122	0x3e091940	0.13388538
123	0xbd703b4b	-0.058650296
124	0xbda4552f	-0.0802406
125	0xbc8459bd	-0.016156072
126	0x3d370f8b	0.044692557
127	0x3e1e62dd	0.15467401
128	0x3dfab393	0.12241282
129	0x3d5e4efe	0.05427455
130	0xbc71d5c5	-0.014760439
131	0x3e1878a7	0.14889775
132	0x3d8c3808	0.068466246
133	0x3d02e936	0.03196069
134	0x3d72bf7b	0.05926464
135	0x3c3d85fe	0.011567591
136	0xbc183bcf	-0.009291603
137	0xbdfdfe8a	-0.12402065
138	0xbda37028	-0.079803765
139	0xbceba11c	-0.028763346
140	0x3e1bacff	0.15202712
141	0x3d97cdf0	0.07412326
142	0xbd9bf5d2	-0.07615246
143	0x3d70ce2e	0.05879038
144	0xbca38b88	-0.019963995
145	0x3db70d63	0.089381
146	0x3c9fa8be	0.019489642
147	0xbd4df0d3	-0.050278496
148	0x3ce51d56	0.02796809
149	0x3d7bff6d	0.06152289
150	0x3d7b43b1	0.061343852
151	0xbc440319	-0.011963629
152	0xbd7f1c5b	-0.0622829
153	0xbde6c217	-0.112674884
154	0x3d966155	0.07342783
155	0xbd477a76	-0.048700772
156	0x3c9ee16f	0.019394604
157	0x3d9d16b6	0.076703474
158	0x3e1c4135	0.1525925
159	0x3c9ba6d6	0.019000452
160	0xbd72e5a6	-0.05930104
161	0x3d335bed	0.04378884
162	0xbdb7d190	-0.08975518
163	0x3dd11e3f	0.10210847
164	0xbd6dae85	-0.058027763
165	0xbdeee286	-0.116643
166	0x3d65c465	0.0560955
167	0x3cbaf645	0.022822509
168	0xbc86d5d4	-0.016459383
169	0x3dabfdc5	0.08398012
170	0x3d05ce9a	0.032667734
171	0xbd2b79aa	-0.041864075
172	0x3d85fe7d	0.065426804
173	0x3d1d07ee	0.03833764
174	0x3b23bce7	0.002498442
175	0xbd06d0e8	-0.032914072
176	0x3dcabaa9	0.09898884
177	0x3db86163	0.0900295
178	0xbd2363c7	-0.039890077
179	0x3d8307e9	0.06397993
180	0xbd54814b	-0.051881116
181	0xbda408b6	-0.08009474
182	0xbc9795aa	-0.018503983
183	0xbdb89c30	-0.090141654
184	0xbde825a5	-0.11335305
185	0x3e1ee687	0.15517627
186	0x3cd0de34	0.02549658
187	0xbc40398c	-0.01173247
188	0xbcfbd6b6	-0.03074203
189	0x3d422a9d	0.04740392
190	0xbddcdb0f	-0.107839696
191	0x3d024b78	0.031810254
192	0x3dd58aad	0.10426841
193	0xbdf4caa1	-0.11952711
194	0xbcf514e5	-0.02991719
195	0x3d2f6687	0.042822387
196	0x3da922b9	0.08258576
197	0x3d3b36ab	0.045706432
198	0x3d24f5d8	0.040273517
199	0x3cb5eadf	0.022206722
200	0x3d03b634	0.032156184
201	0x3cc64640	0.02420342
202	0x3c9841a6	0.018585991
203	0x3cd39ef1	0.025832625
204	0xbc13e9cd	-0.00902791
205	0x3d14c4af	0.036320385
206	0x3d6f5fa8	0.058440834
207	0xbd85f57d	-0.06540964
208	0xbda0c6a5	-0.078503884
209	0xbe0488e4	-0.12942845
210	0x3e0c73f8	0.13716114
211	0xbdcc22b2	-0.09967555
212	0xbdd4c563	-0.10389211
213	0xbd3a1981	-0.04543448
214	0x3d1b2945	0.037881155
215	0xbc140658	-0.009034716
216	0x3dc3cd3c	0.0956063
217	0xbd9dc2f3	-0.07703199
218	0xbd8cde4b	-0.068783365
219	0x3d51dfc2	0.051238783
220	0x3d192f4b	0.037398618
221	0xbd38c4cf	-0.045109566
222	0x3d863dd0	0.065547585
223	0xbc57cab8	-0.0131708905
224	0x3db6592a	0.089037254
225	0x3d8c9bca	0.06865652
226	0xbd2d4b2e	-0.042308025
227	0x3dd8d8b7	0.1058821
228	0x3dd863c3	0.10565903
229	0x3dc708b5	0.097184576
230	0xbd1e3814	-0.0386277
231	0xbd951633	-0.07279625
232	0xbd2906b7	-0.04126617
233	0xbd745a36	-0.059656344
234	0xbb018fcc	-0.0019769548
235	0x3db9ba41	0.09068728
236	0x3c11656d	0.008874279
237	0x3ce5b5a8	0.028040722
238	0xbd281069	-0.041031275
239	0x3d6cc0e8	0.057801157
240	0x3dd18a36	0.1023144
241	0xbdde4788	-0.10853487
242	0xbd628756	-0.055304848
243	0xbd6f4463	-0.058414828
244	0x3df7e37c	0.12103936
245	0xbcacfd33	-0.021116829
246	0x3d53859e	0.0516411
247	0x3dd240c2	0.10266258
248	0xbdcb78f0	-0.09935176
249	0xbd47bc23	-0.048763406
250	0x3dede788	0.11616427
251	0x3de4833a	0.11157842
252	0x3d143a3c	0.03618835
253	0xbc813031	-0.01577005
254	0xbd6524c4	-0.055943266
255	0xbda63f16	-0.081175014

lstm.weight_ih_l1 f4 [256, 64]
0	0x3d00b63c	0.031423792
1	0x3d4b1931	0.04958457
2	0xbdfc33a6	-0.12314539
3	0xbd47ec09	-0.048809085
4	0xbdb0dd10	-0.08635914
5	0x3dfc7aee	0.123281345
6	0xbd39f2be	-0.045397513
7	0x3daf1d4c	0.0855051
8	0xbd09bdac	-0.03362815
9	0xbcbd7c19	-0.023130463
10	0xbe0a7484	-0.1352101
11	0x3e072d44	0.13200861
12	0x3c9e5cbc	0.019331329
13	0xbd547588	-0.0518699
14	0xbd024fd9	-0.03181443
15	0x3df8f6d0	0.12156451
16	0x3ce5802e	0.028015222
17	0xbde81c5a	-0.11333533
18	0xbd8cc1a9	-0.06872875
19	0x3e003e52	0.12523773
20	0x3d96c38b	0.073615156
21	0x3c02b113	0.007976788
22	0xbd737b18	-0.059443563
23	0xbd26997b	-0.040673714
24	0x3d0d26ae	0.034460716
25	0xbdc661b1	-0.09686602
26	0x3b557ede	0.003257684
27	0x3ddf39ad	0.10899673
28	0x3d5e7f25	0.054320473
29	0xbe4c176a	-0.19930807
30	0xbd82b6b8	-0.06382507
31	0xbd3df2f5	-0.04637428
32	0x3db050b9	0.086091466
33	0x3f2300c9	0.63673073
34	0x3da1da1c	0.07902929
35	0x3c903f23	0.017608231
36	0xbe21b43f	-0.15791415
37	0x3d83d0e2	0.064363256
38	0xbd7042b5	-0.058657367
39	0x3e0efc7e	0.13963506
40	0x3c9a1806	0.018810283
41	0xbba8c80a	-0.0051507996
42	0xbbdd7b47	-0.0067590806
43	0xbe2148f4	-0.15750486
44	0xbe1774be	-0.14790627
45	0x3e08aa88	0.13346303
46	0xbe056f41	-0.13030721
47	0x3dd7d270	0.10538185
48	0x3ce81f70	0.028335303
49	0x3d843587	0.06455522
50	0xbdbaba28	-0.09117538
51	0x3ddedfb6	0.10882513
52	0xbddd0f9a	-0.107939914
53	0x3e5c253b	0.21498577
54	0xbcad9bbf	-0.02119243
55	0x3d807c6a	0.0627373
56	0xbd132fc8	-0.03593424
57	0x3e0b65e9	0.13613094
58	0x3db21b46	0.08696608
59	0x3d003b34	0.03130646
60	0x3d54c653	0.05194695
61	0x3c5bbe6a	0.0134120975
62	0x3d470856	0.048591934
63	0x3d5eba60	0.05437696
64	0x3d931e90	0.07183564
65	0xbd8f8193	-0.07007136
66	0xbd0b4313	-0.033999514
67	0x3cc85c9b	0.02445822
68	0xbe180e5b	-0.14849226
69	0xbbf2a729	-0.007405181
70	0xbd7a4beb	-0.061107557
71	0xbc7b965e	-0.015355675
72	0x3d0aa069	0.033844385
73	0x3dcb0230	0.099125266
74	0xbe09f9dd	-0.13474222
75	0x3ad3e787	0.0016167023
76	0xbd062cbd	-0.03275751
77	0x3d49e171	0.049287263
78	0xbd9ef6d1	-0.0776192
79	0x3c6ceec8	0.014461227
80	0xbdd82350	-0.1055361
81	0xbdbec8b9	-0.093156286
82	0x3dd7ac88	0.105309546
83	0x3c46a7c2	0.0121249575
84	0x3e0da18c	0.13831156
85	0x3cd52cfa	0.026022423
86	0xbc981287	-0.018563522
87	0x3bda0d47	0.006654415
88	0xbb82edc0	-0.003995627
89	0xbd8b8df5	-0.068141855
90	0xbd925cd2	-0.0714661
91	0x3cba228e	0.022721555
92	0xbcee6ed9	-0.02910559
93	0xbdd0d015	-0.101959385
94	0x3d869201	0.06570817
95	0x3d6f3532	0.05840034
96	0xbe0f21a9	-0.13977684
97	0x3f234d00	0.6378937
98	0x3d380d62	0.044934638
99	0xbd406f8b	-0.046981376
100	0xbc713832	-0.014722871
101	0xbdf237d4	-0.118270546
102	0x3dd15364	0.102209836
103	0x3dbd5f1d	0.09246657
104	0xbd8782d7	-0.066167526
105	0x3dcbb4df	0.09946608
106	0x3e196925	0.14981516
107	0xbbcd2374	-0.00626033
108	0xbda509b1	-0.08058489
109	0xbd9ce184	-0.07660201
110	0xbd95043a	-0.07276197
111	0xbd73800a	-0.05944828
112	0x3dae322c	0.08505663
113	0xbae08ae9	-0.0017131242
114	0xbde805f7	-0.11329263
115	0x3e074f74	0.13213903
116	0xbe6825ac	-0.2267062
117	0x3d9067ea	0.0705107
118	0x3d8b5e14	0.06805053
119	0x3dd0a51b	0.10187741
120	0xbe1757be	-0.14779565
121	0x3e1503e8	0.14552271
122	0xbda937b5	-0.082625784
123	0xbd421d6c	-0.04739134
124	0x3df8fb76	0.12157337
125	0xbde480f9	-0.11157412
126	0xbdaed3be	-0.0853648
127	0xbd85f5c7	-0.06541019
128	0x3caba50b	0.020952722
129	0xbdf5deba	-0.12005372
130	0x3d4432d3	0.047900032
131	0x3df0d2f6	0.117589876
132	0xbd8d303c	-0.068939656
133	0xbdf32b69	-0.11873514
134	0x3de05c80	0.10955143
135	0x3dc5bf1f	0.09655594
136	0xbe83eb2d	-0.25765362
137	0xbdacd728	-0.08439475
138	0xbd444b4e	-0.04792338
139	0x3d817e15	0.06322876
140	0x3d43bb0a	0.047785796
141	0x3c17d791	0.009267704
142	0xbb2581bb	-0.0025254327
143	0x3d8ebad6	0.0696923
144	0xbde9a935	-0.11409227
145	0x3d2e86e9	0.04260913
146	0xbc0b57d0	-0.008504823
147	0x3de13329	0.10996086
148	0x3d6f8490	0.05847603
149	0x3c659ebd	0.014014897
150	0xbd4ce590	-0.050023615
151	0x3d7065f4	0.05869098
152	0xbdd5e028	-0.10443145
153	0xbdca67d5	-0.09883086
154	0x3daa8d5f	0.08327746
155	0xbd9df63f	-0.07712983
156	0xbdc2b0aa	-0.09506352
157	0xbd6a9459	-0.05727038
158	0x3e1dcdb3	0.154105
159	0x3c3c0ea3	0.011478099
160	0xbdd6b666	-0.104840085
161	0x3f8f0567	1.1173524
162	0xbbef7c40	-0.007308513
163	0x3d578463	0.05261649
164	0xbd782901	-0.06058598
165	0xbd8bae36	-0.068203375
166	0xbdc7243f	-0.0972371
167	0x3c9b3f25	0.018951008
168	0xbde42fb2	-0.1114191
169	0xbbe15f10	-0.0068777874
170	0x3bf51acb	0.0074800006
171	0x3c05978e	0.008153809
172	0xbd628c16	-0.055309378
173	0xbd07059a	-0.032964326
174	0xbe0f6a06	-0.14005288
175	0xbd810c11	-0.063011296
176	0xbcd8dc57	-0.026472254
177	0x3db20dfa	0.08694072
178	0x3cd1dcb8	0.025617942
179	0x3dc3aaee	0.095540866
180	0xbde8966c	-0.11356816
181	0x3d3b2424	0.045688763
182	0x3ddfab31	0.10921324
183	0x3b2e248c	0.0026572077
184	0xbde105df	-0.10987448
185	0xbcdaf7de	-0.02672952
186	0xbd1d7d0e	-0.03844934
187	0x3d4794bd	0.048725832
188	0xbbc8ebe7	-0.0061316374
189	0xbdbb5dd6	-0.09148757
190	0xbd723da4	-0.059140816
191	0xbd3e0ff6	-0.04640194
192	0x3e710a01	0.23538972
193	0x3ce68f4a	0.028144497
194	0xbdd3dc07	-0.10344701
195	0x3c1978a9	0.0093671465
196	0xbb818bb1	-0.00395342
197	0x3de4515f	0.11148333
198	0x3dcef660	0.10105586
199	0x3dccc864	0.09999159
200	0xbe2def77	-0.1698588
201	0x3dc716ff	0.09721183
202	0xbd28f9e0	-0.041253924
203	0x3d86e39c	0.06586382
204	0xbc9566b6	-0.018237453
205	0x3b9674fe	0.0045915833
206	0x3d33f272	0.043932386
207	0x3da8e4b7	0.08246749
208	0x3d70780c	0.058708236
209	0x3dbb2e54	0.09139696
210	0x3e13d390	0.14436173
211	0x3e297603	0.16548924
212	0x3cbe8517	0.023256822
213	0xbd4ebfed	-0.050476003
214	0x3d32c9d6	0.043649517
215	0x3db70da7	0.08938151
216	0xbdf642e3	-0.120244764
217	0xbd86e0f1	-0.06585873
218	0xbd3b6c14	-0.04575737
219	0x3c9714fc	0.018442623
220	0x3d4779ea	0.04870025
221	0xbe4075c0	-0.18794918
222	0x3d010967	0.031503107
223	0xbd7c3c4e	-0.06158095
224	0xbe0ac146	-0.1355029
225	0x3f1bfca1	0.60932356
226	0xbd1e2f7a	-0.038619496
227	0xbb0cb005	-0.002146722
228	0xbc899da3	-0.0167988
229	0x3ca5ed9f	0.020254908
230	0xbb863b7b	-0.004096446
231	0xbb8feaa3	-0.0043919845
232	0x3dba49d7	0.09096115
233	0x3de450a0	0.111481905
234	0x3d70a413	0.058750223
235	0x3d39f7e7	0.045402434
236	0x3c43154c	0.011906933
237	0xbaf079f2	-0.0018346889
238	0xbdaf5aae	-0.08562218
239	0x3e05206a	0.13000646
240	0xbd72d95f	-0.059289332
241	0x3d65b2b4	0.056078628
242	0xbdb9317f	-0.09042644
243	0xbc514f87	-0.012775308
244	0xbdccdfda	-0.10003634
245	0x3e4242b0	0.18970752
246	0x3dd3b604	0.10337451
247	0xbcea0535	-0.028566936
248	0xbd29688a	-0.04135946
249	0x3d68433d	0.05670475
250	0xbc653602	-0.013989927
251	0x3d397da1	0.045285825
252	0x3ceddf80	0.029037237
253	0xbd89bc29	-0.06725342
254	0x3d918a43	0.071064495
255	0x3d8b2a15	0.06795136

lstm.weight_hh_l1 f4 [256, 64]
0	0xbdd4d353	-0.103918694
1	0x3dfe0705	0.124036826
2	0x3d4b26a5	0.0495974
3	0x3c94cef9	0.018165099
4	0x3dd82227	0.10553389
5	0xbcb5c5e3	-0.022189086
6	0x3cb4b7f4	0.022060372
7	0x3bf08aa1	0.0073407446
8	0xbd9236e3	-0.07139375
9	0xbd992c03	-0.07479098
10	0xbe1bf8da	-0.15231648
11	0xbca3c53c	-0.01999151
12	0x3d658935	0.056039054
13	0xbc6df8ed	-0.014524681
14	0x3e05a30d	0.1305048
15	0x3da95988	0.0826903
16	0x3d899539	0.06717915
17	0xbdb5fd81	-0.08886243
18	0xbd1a16bc	-0.037619337
19	0xbd4b362f	-0.04961222
20	0xbd738d86	-0.05946114
21	0x3dbabe37	0.09118312
22	0xbe11fb22	-0.14255956
23	0xbd45ad8f	-0.04826122
24	0x3da747cc	0.08167991
25	0xbde170ce	-0.11007844
26	0x3d28edae	0.041242294
27	0x397926b1	0.00023760904
28	0x3d8dae19	0.06917972
29	0x3db28ddf	0.08718466
30	0x3c96efcf	0.018424897
31	0x3de779c9	0.113025256
32	0xbdc2b434	-0.09507027
33	0xbe036176	-0.12830147
34	0x3c46dc59	0.012137496
35	0x3d1d6d67	0.038434412
36	0x3ca24418	0.01980786
37	0xbe0ec5bd	-0.13942619
38	0x3e00903f	0.12555026
39	0xbd00bfd5	-0.031432945
40	0x3db2f7d1	0.087386735
41	0x3c44379d	0.01197615
42	0x3c4913ab	0.012272756
43	0x3e0a5a9a	0.13511124
44	0xbd32d381	-0.043658737
45	0x3d9bd5d8	0.07609147
46	0xbdf69534	-0.12040177
47	0x3d1b628f	0.03793579
48	0x3defe46c	0.1171349
49	0xbde8f663	-0.113751195
50	0xbcb239b5	-0.021756032
51	0x3c669d7f	0.014075636
52	0x3dcb737f	0.099341385
53	0xbdf4c23d	-0.119511105
54	0x3d9e91de	0.07742666
55	0xbd909022	-0.07058741
56	0x3de0109e	0.109406695
57	0x3cfbaf86	0.030723345
58	0xbb4a409f	-0.003086127
59	0x3d6deb4f	0.058085736
60	0xbd205a07	-0.039148357
61	0xbd28e449	-0.041233335
62	0x3e18d97a	0.1492671
63	0x3d2f246d	0.042759348
64	0xbd2555ae	-0.040364914
65	0x3d176426	0.036960743
66	0xbd3e3ac2	-0.046442755
67	0xbdd14c58	-0.102196395
68	0x3dbbecec	0.09176049
69	0xbe008810	-0.12551904
70	0xbdc766df	-0.09736418
71	0xbe18a7c0	-0.14907742
72	0x3d494981	0.049142364
73	0x3d5741d6	0.05255302
74	0x3d927d5d	0.071528174
75	0x3da9609e	0.082703814
76	0xbd218930	-0.039437473
77	0x3e20d942	0.15707877
78	0x3d3803e0	0.04492557
79	0xbd61878c	-0.05506091
80	0x3dd0bee5	0.1019266
81	0x3d430e86	0.047621273
82	0x3bf5fe14	0.007507095
83	0xbe134cf8	-0.1438483
84	0xbc6e4a36	-0.01454406
85	0x3d29821b	0.041383844
86	0x3c406596	0.01174297
87	0xbe03b14f	-0.12860607
88	0x3d46b12d	0.04850881
89	0xbda72ad7	-0.08162468
90	0x3d2204ac	0.039555237
91	0x3d1f5232	0.038896747
92	0xb891d6a5	-6.9541195e-05
93	0xbd224c6d	-0.039623667
94	0xbd1fcdee	-0.03901475
95	0xbd5e36d6	-0.054251514
96	0xbd298211	-0.041383807
97	0xbd0e2d3d	-0.03471111
98	0xbe06bd66	-0.13158187
99	0xbdf4a843	-0.11946156
100	0xbdbe6b15	-0.09297768
101	0xbe01e09c	-0.12683338
102	0xbd6ef015	-0.05833443
103	0x3d9167b7	0.0709986
104	0x3c8735a0	0.016505063
105	0x3e1e0491	0.1543143
106	0x3d0591f8	0.03260991
107	0x3d70d739	0.058799002
108	0x3d9d664c	0.07685527
109	0xbd6cc35a	-0.05780349
110	0xbe0b9f1d	-0.13634916
111	0xbc7ae00b	-0.015312205
112	0x3b45a23f	0.003015652
113	0xbccd0fd7	-0.025031967
114	0x3cc8e576	0.024523478
115	0x3e2167a5	0.15762194
116	0xbcdefe6a	-0.027220923
117	0xbd7b3107	-0.061326053
118	0xbdbf721b	-0.09347936
119	0xbcdecaf4	-0.027196385
120	0xbd8ef5df	-0.0698049
121	0x3c5b2792	0.0133761335
122	0x3df6e885	0.12056068
123	0xbbfa7246	-0.007643017
124	0xbd8ce360	-0.06879306
125	0x3d53b15e	0.051682822
126	0xbc22eb24	-0.009943757
127	0x3dae78ea	0.08519156
128	0xbd17c545	-0.037053365
129	0xbd8f07aa	-0.06983884
130	0x3d0cee3d	0.03440689
131	0xbde4a4d1	-0.11164249
132	0xbd59d8ea	-0.05318538
133	0xbcfeb81b	-0.031093648
134	0x3cef5a45	0.029217849
135	0xbc5f5d2e	-0.013633056
136	0xbd6a5f24	-0.05721964
137	0x3da72acc	0.0816246
138	0xbe015a08	-0.12632
139	0x3d577968	0.052606016
140	0xbdcc32d5	-0.09970633
141	0xbcbe3808	-0.023220077
142	0x3ba6bbbe	0.0050882986
143	0x3e148e33	0.1450737
144	0xbd26f1f3	-0.040758085
145	0x3de4a430	0.11164129
146	0x3aea3001	0.001786709
147	0xbd8b9576	-0.06815617
148	0x3e183fac	0.14868039
149	0x3e1a0600	0.15041351
150	0x3d0fe5c9	0.03513125
151	0xbc68604c	-0.014183115
152	0xbd829823	-0.06376674
153	0x39e89571	0.0004436183
154	0xbdde4be3	-0.10854318
155	0x3d030608	0.031988174
156	0x3e0a5a37	0.13510977
157	0xbcf006be	-0.02930009
158	0xbd475b66	-0.04867115
159	0xbdd7d20e	-0.105381116
160	0x3dac7bc0	0.08422041
161	0xbdf9a3c5	-0.1218944
162	0xbd32f853	-0.04369385
163	0xbd1e095a	-0.038583137
164	0xbdd163c2	-0.102241054
165	0x3c31957e	0.010838864
166	0x3e0f72a6	0.14008579
167	0x3da85276	0.08218853
168	0x3d0de1d1	0.034639183
169	0xbc8bbace	-0.017056849
170	0x3c4f085d	0.012636271
171	0x3e03fce6	0.12889442
172	0x3d8d5a07	0.06901937
173	0xbd0a81a7	-0.033815052
174	0xbd9678da	-0.07347269
175	0x3ca43e8c	0.020049356
176	0xbcef7db0	-0.029234737
177	0x3d9cab9d	0.0764992
178	0x3d2e5f08	0.042571098
179	0xbda232d8	-0.07919854
180	0x3c86b312	0.01644281
181	0xbc46cec4	-0.012134258
182	0x3b677ee0	0.0035323426
183	0x3d10d3d0	0.03535825
184	0x3dea2079	0.11431975
185	0xbd8bc484	-0.06824592
186	0x3db1bbed	0.08678422
187	0x3ca675e6	0.02031989
188	0xbdd8a235	-0.105778135
189	0x3c13d139	0.009022051
190	0xbcc4382a	-0.023952562
191	0x3dadb9c3	0.08482697
192	0x3d32f772	0.043693013
193	0x3d44a520	0.048009038
194	0xbe110532	-0.14162138
195	0xbddf424a	-0.109013155
196	0xbd5389f1	-0.051645223
197	0xbdce0e93	-0.100613736
198	0x3d015cb0	0.031582534
199	0xbd39bc10	-0.045345366
200	0x3dbd97d0	0.092574716
201	0x3c4e8d3f	0.012606918
202	0x3ce3d534	0.027811624
203	0x3daf8a44	0.08571294
204	0x3c173641	0.009229244
205	0x3dd643e6	0.10462169
206	0x3daa64c7	0.08320003
207	0x3d90f90e	0.070787534
208	0xbb7fbcd5	-0.0039022465
209	0xbbee09f3	-0.0072643696
210	0x3dd70df7	0.105007105
211	0xbe167700	-0.14693832
212	0x3df8b675	0.12144176
213	0xbdac627f	-0.08417224
214	0x3c4e273e	0.012582598
215	0xbe089c4a	-0.1334087
216	0xbe1816bb	-0.14852421
217	0xbde7ce72	-0.11318673
218	0xbd5d8aae	-0.054087333
219	0x3dbf37d7	0.093368225
220	0xbac70aa3	-0.0015185665
221	0xbda91626	-0.082561776
222	0xbd2ed0e2	-0.042679675
223	0x3d4cfa33	0.050043296
224	0x3d989618	0.07450503
225	0x3c1e3674	0.009656537
226	0x3d62c2a3	0.0553614
227	0xbb29c64c	-0.0025905548
228	0x3d48c870	0.049019277
229	0xbdd4f45d	-0.10398171
230	0x3dd0eb0c	0.10201082
231	0xbdb16db6	-0.08663504
232	0x3d4e3e3a	0.050352313
233	0xbdad7c93	-0.08471026
234	0xbd387648	-0.045034677
235	0xbbb65732	-0.0055645937
236	0xbdc87d26	-0.09789495
237	0x3d6948cb	0.056954186
238	0xbe030b6e	-0.12797329
239	0x3e19485f	0.14969014
240	0xbb4ab1d0	-0.0030928738
241	0x3c0a8c0a	0.0084562395
242	0x3d66de91	0.0563646
243	0xbc119a08	-0.008886822
244	0xbc900724	-0.01758153
245	0xbc4bd592	-0.012441056
246	0x3cf801a8	0.030274227
247	0xba3ef553	-0.0007284481
248	0x3d8d4cb8	0.068993986
249	0x3cf7f2a2	0.030267064
250	0x3db27adc	0.0871484
251	0xbcd15c8f	-0.02555683
252	0xbdf7a594	-0.120921284
253	0xbd79ae98	-0.06095752
254	0xbd84a849	-0.0647741
255	0x3c69f8a3	0.014280471

lstm.bias_ih_l1 f4 [256]
0	0x3cce7152	0.02520052
1	0x3d678c47	0.056530263
2	0x3d8821e5	0.0664709
3	0x3cd9b7c1	0.026576879
4	0x3d0392f1	0.032122556
5	0x3e039904	0.1285134
6	0x3d5bac24	0.053630963
7	0xbd0a01f7	-0.03369328
8	0xbd3b70c2	-0.04576183
9	0x3dbf31c6	0.093356654
10	0x3e004c1e	0.12529036
11	0xbd8fc35d	-0.070196845
12	0x3d8882c2	0.06665565
13	0xbd76b189	-0.060227904
14	0x3d67b159	0.056565616
15	0x3dddca08	0.1082955
16	0x3c724854	0.014787752
17	0x3dd9f106	0.10641675
18	0x3d96c6d6	0.07362144
19	0x3cd58b5f	0.026067434
20	0x3d66867c	0.056280598
21	0xbd10604c	-0.035248086
22	0x3d05d23a	0.03267119
23	0x3e07d75c	0.13265747
24	0x3bfec09f	0.007774427
25	0x3c8b4300	0.016999722
26	0x3de14536	0.10999529
27	0xbd84163b	-0.064495526
28	0x3c2a0d9a	0.010379219
29	0xbd7d19e7	-0.06179228
30	0x3e1420a8	0.14465582
31	0xbda071c1	-0.07834197
32	0x3c9b03e8	0.018922761
33	0x3ce4182a	0.027843554
34	0x3dc7cc96	0.097558185
35	0xbda06564	-0.07831839
36	0x3d78c5a8	0.060735375
37	0xbd3319c1	-0.043725733
38	0x3dbeada6	0.093104646
39	0x3dd78d7e	0.10525034
40	0x3d94f965	0.07274131
41	0x3dc89752	0.09794487
42	0x3e19499b	0.14969485
43	0xbd93b425	-0.07212094
44	0xbd605616	-0.054769598
45	0x3d008b07	0.031382587
46	0x3dafd3a0	0.08585286
47	0x3d8c7f60	0.06860232
48	0x3dbfef8c	0.09371862
49	0x3d04aaf9	0.032389615
50	0xbd50fc8e	-0.051022105
51	0xbba9ed30	-0.0051857457
52	0x3e174b84	0.147749
53	0xbdca42c4	-0.09876016
54	0xbda8ca09	-0.0824166
55	0x3e1deb64	0.15421826
56	0xbdac1cdd	-0.08403943
57	0x3d866b95	0.065634884
58	0x3c2de51f	0.010613709
59	0xbd524301	-0.05133343
60	0x3d27f76f	0.041007455
61	0xbdaa733c	-0.083227605
62	0x3d953b8a	0.07286747
63	0xbd6fe97e	-0.058572285
64	0x3ceb1974	0.02869866
65	0x3d093225	0.033495087
66	0xbb28a5a0	-0.0025733486
67	0xbdb1feed	-0.08691201
68	0xbcc86f77	-0.024467213
69	0x3dc79e28	0.09746963
70	0x3d3f2a19	0.046671007
71	0x3de0a46b	0.1096886
72	0x3e06e0c7	0.13171683
73	0xbc500fe2	-0.012699099
74	0x3d3b0207	0.04565623
75	0x3dc8fa5a	0.09813376
76	0x3debd385	0.115149535
77	0x3dd1287b	0.10212799
78	0x3e103a51	0.14084746
79	0x3de4960d	0.111614324
80	0x3b94eb93	0.004544684
81	0x3c23e04b	0.010002206
82	0x39b4ea89	0.00034507018
83	0xbc8c59d4	-0.017132677
84	0xbd974c76	-0.07387631
85	0x3dab25fe	0.08356856
86	0x3dde2ce6	0.108484074
87	0x3ccbc92b	0.024876198
88	0xbd56943d	-0.052387465
89	0x3dfff5e3	0.12498071
90	0xbd1e838c	-0.03869967
91	0xbd469264	-0.048479453
92	0x3d802050	0.06256163
93	0x3e0bfc9c	0.13670582
94	0x3dda606a	0.10662921
95	0xbd8ab3f5	-0.06772605
96	0xbd8143b2	-0.0631174
97	0x3dc1424d	0.09436474
98	0x3d2b8cf6	0.041882478
99	0x3d80d306	0.062902495
100	0xbd6fd1a1	-0.058549527
101	0x3de0a06d	0.10968099
102	0xbdb07410	-0.08615887
103	0x3d276fb6	0.04087802
104	0x3da45926	0.08024816
105	0x3c8b28bb	0.016987195
106	0x3df504f9	0.11963839
107	0x3ca70ba6	0.020391297
108	0x3d930534	0.07178727
109	0xbd95cad4	-0.07314077
110	0x3dfaa667	0.1223877
111	0xbd80653a	-0.062693074
112	0x3b81a0a0	0.0039559156
113	0x3d2ec595	0.042668898
114	0xbd50bebb	-0.050963145
115	0xbd2f7685	-0.04283764
116	0x3d6a8ae5	0.057261366
117	0xbe003f72	-0.12524202
118	0x3da11e27	0.07867079
119	0x3db039b6	0.086047575
120	0xbcd5aae1	-0.026082458
121	0x3dbbcc69	0.091698475
122	0x3cdd2dc1	0.026999356
123	0xbcfec774	-0.031100966
124	0xbd0eec6c	-0.03489344
125	0xbcc15ffc	-0.02360534
126	0x3da292a6	0.07938127
127	0x3d3d6a3e	0.0462439
128	0xbe035bf7	-0.1282805
129	0xbd48b4c1	-0.049000505
130	0xbc9a5117	-0.018837495
131	0x3d2373f5	0.039905507
132	0x3dc7aa03	0.09749224
133	0xbe09864a	-0.13430133
134	0xbd8c04f7	-0.068368845
135	0x3d3eb3ef	0.046558317
136	0x3e17f03c	0.14837736
137	0xbe08bd6e	-0.13353512
138	0x3db73cd1	0.08947147
139	0xbcbe3940	-0.023220658
140	0x3d730ff9	0.059341405
141	0xbd66d5d1	-0.056356255
142	0xbd10ae5d	-0.035322536
143	0x3e0d1ecd	0.13781281
144	0x3d172f48	0.036910325
145	0x3e1470f8	0.14496219
146	0x3c1a9e64	0.009437177
147	0xbd46d339	-0.04854128
148	0x3d94ab72	0.07259263
149	0x3dec7932	0.11546554
150	0xbd8d0204	-0.0688515
151	0xbdcbd47c	-0.099526376
152	0xbd646154	-0.05575688
153	0xbdf98b36	-0.121847555
154	0x3b76a490	0.0037634708
155	0xbd6d6575	-0.057958085
156	0x3e156920	0.14590883
157	0xbd3b10e2	-0.045670398
158	0x3db64511	0.08899892
159	0xbdd2a5f3	-0.102855586
160	0xbd3a2341	-0.045443777
161	0xbdd0675f	-0.101759665
162	0xbd0a84c1	-0.03381801
163	0x3c503d84	0.012709979
164	0xbd6189f3	-0.0550632
165	0x3d939bc1	0.07207442
166	0x3e09b3fa	0.13447562
167	0x3e0924f5	0.13393004
168	0x3dd27378	0.1027593
169	0xbd6e021c	-0.05810748
170	0xbdd686e6	-0.104749486
171	0x3e167c4b	0.14695852
172	0x3d93f357	0.07224148
173	0x3d48fc90	0.049068987
174	0x3c993bac	0.018705212
175	0xbd170c3b	-0.0368769
176	0xbdc7d784	-0.09757903
177	0xbdcddd20	-0.10051942
178	0x3ded2ab1	0.11580408
179	0x3d2d3571	0.042287294
180	0x3e08e9b7	0.13370405
181	0xbd332c8e	-0.043743663
182	0x3be6aef4	0.007039899
183	0x3d12fd4b	0.03588609
184	0x3da7e90f	0.08198749
185	0xbdcddd80	-0.100520134
186	0x3db181fd	0.086673714
187	0xbd08a15f	-0.03335702
188	0xbc37bfc7	-0.011215157
189	0xbdd3494f	-0.10316717
190	0x3de192ae	0.11014305
191	0x3d8f1f2c	0.069883674
192	0xbd989e81	-0.07452107
193	0x3e1813c6	0.14851293
194	0xbdc2d441	-0.095131405
195	0x3ce8b07e	0.02840447
196	0xbced008e	-0.028930929
197	0x3d17a800	0.03702545
198	0xbd8043aa	-0.06262906
199	0x3d211d2e	0.03933447
200	0xbcf23e0b	-0.0295706
201	0x3d21a379	0.03946254
202	0x3e158adc	0.14603752
203	0x3de02098	0.10943717
204	0xbda73305	-0.08164028
205	0x3d08d331	0.033404533
206	0x3d85c402	0.06531526
207	0xbcbfbf5b	-0.023406675
208	0x3e1b86de	0.15188166
209	0x3c307b74	0.010771621
210	0xbdf40f35	-0.11916963
211	0xbc8317db	-0.016002586
212	0x3dd58fe8	0.104278386
213	0xbd42f2e7	-0.04759493
214	0xbd10c45b	-0.03534351
215	0xbce59044	-0.028022893
216	0x3de4e0ac	0.11175665
217	0x3dd6a9e0	0.1048162
218	0x3dd522c5	0.104070224
219	0xbdb9c7ef	-0.090713374
220	0xbd9aeb6c	-0.075644344
221	0x3d915510	0.070963025
222	0x3e10f0d2	0.14154366
223	0x3c53a420	0.012917548
224	0x3ddab2af	0.106786124
225	0x3ded73f0	0.11594379
226	0xbd83ab20	-0.06429124
227	0xbd30201e	-0.04299938
228	0x3d00d734	0.031455234
229	0x3e233025	0.15936334
230	0x3e0fa273	0.14026813
231	0xbd7c5ef7	-0.061614003
232	0x3b8d357b	0.004309354
233	0x3db26cb4	0.0871214
234	0xbcb57b26	-0.022153448
235	0xbd417497	-0.04723033
236	0xbd2e4954	-0.0425504
237	0x3de2b232	0.11069144
238	0x3d1e9bd3	0.038722824
239	0x3dd264c1	0.102731235
240	0xbc54b9e3	-0.012983772
241	0x3ded3d65	0.11583976
242	0xbd9589b5	-0.07301656
243	0xbdb7fa31	-0.08983267
244	0xbb191d02	-0.0023363237
245	0x3d52f172	0.05149979
246	0x3da30f56	0.079619095
247	0x3d995df3	0.074886225
248	0x3e1272be	0.14301583
249	0x3d92365e	0.07139276
250	0xbd5caecf	-0.053877648
251	0xbcfa15f6	-0.03052805
252	0xbd0488f1	-0.03235716
253	0x3e081175	0.1328791
254	0xbd8627a2	-0.06550528
255	0xbd64128b	-0.055681746
