src/models/trained_hybrid_model(1).pth_lstm.pth (torch, 237846 bytes, 9 tensors)

lstm.weight_ih_l0 f4 [256, 32]
0	0x3d01424d	0.03155737
1	0x3d687289	0.056749854
2	0x3d4706a8	0.048590332
3	0x3e0660f7	0.13122927
4	0xbdaebd04	-0.085321456
5	0xbd63b0e2	-0.05558861
6	0xbcece0f0	-0.028915852
7	0x3e18514b	0.14874761
8	0xbdae6d4c	-0.085169405
9	0xbdaaf651	-0.083477624
10	0xbd9b257a	-0.075755075
11	0xbd8cd458	-0.06876439
12	0xbcbede20	-0.023299277
13	0x3da235b2	0.07920398
14	0xbd28e018	-0.041229337
15	0x3d9eadbd	0.07747982
16	0x3e0a194c	0.13486212
17	0xbd70fe96	-0.058836542
18	0xbd326786	-0.04355576
19	0xbdb0ee8a	-0.08639248
20	0xbd29632a	-0.041354336
21	0xbd58e7c6	-0.05295541
22	0xbca3c1f6	-0.019989949
23	0x3dea6f80	0.11447048
24	0xbd9ba1ff	-0.07599258
25	0x3dc2f2f8	0.09518999
26	0xbc3742c2	-0.01118535
27	0xbd054050	-0.032532036
28	0x3e1906d1	0.14944007
29	0xbc7de06f	-0.015495404
30	0xbd2953f5	-0.041339833
31	0xbd3cf923	-0.046136033
32	0xbb0e452b	-0.0021708708
33	0x3dd21370	0.10257614
34	0xbce8df9f	-0.028426943
35	0xbb80f309	-0.003935222
36	0xbdd5e979	-0.10444922
37	0x3df4bc9a	0.119500354
38	0xbcd4d3a6	-0.025979828
39	0xbdaff93f	-0.08592462
40	0xbba90e26	-0.0051591573
41	0x3e1a35cd	0.15059586
42	0xbda25c15	-0.079277195
43	0xbd972b0f	-0.0738126
44	0x3a870cfe	0.0010303555
45	0x3c37de67	0.011222458
46	0xbdeea827	-0.11653166
47	0x3dace2ce	0.08441697
48	0x3df425cc	0.11921272
49	0x3c75c144	0.014999691
50	0x3cf1d9cb	0.029522797
51	0x3db6000b	0.08886727
52	0xbcef71e7	-0.029229118
53	0xbdaaa1af	-0.0833162
54	0xbdd302e2	-0.10303284
55	0x3e06398e	0.13107893
56	0x3d8887f9	0.0666656
57	0xbd02a386	-0.03189423
58	0x3d404e35	0.046949584
59	0xbce4989c	-0.027904801
60	0x3de5f429	0.112282105
61	0xbc7ed432	-0.015553521
62	0xbdb4f944	-0.08836606
63	0xbc92fd4d	-0.017943049
64	0x3e0c03bc	0.136733
65	0xbd76d58c	-0.060262248
66	0x3ca7141c	0.020395331
67	0x3e021498	0.12703168
68	0xbcea2530	-0.028582186
69	0x3cc1e895	0.023670474
70	0xbe1a4758	-0.15066278
71	0xbb869f12	-0.004108318
72	0xbd8e4da6	-0.06948404
73	0x3cde24b7	0.027117116
74	0x3d2b096c	0.041757032
75	0xbd02296e	-0.03177779
76	0x3dba3810	0.09092724
77	0xbd4b6e3f	-0.049665686
78	0xbd9a7b56	-0.07543056
79	0xbd06c081	-0.03289843
80	0xbd652378	-0.05594203
81	0xbca63365	-0.020288179
82	0x3e0f44db	0.1399111
83	0x3dd9fecb	0.10644301
84	0xbd5d1147	-0.053971555
85	0xbdfa4c84	-0.122216254
86	0xbb845512	-0.0040384615
87	0x3e12d759	0.14339961
88	0xbb4efe23	-0.0031584583
89	0x3db6750e	0.08909045
90	0xbd68cd75	-0.056836564
91	0x3da21d09	0.07915694
92	0xbccdf63b	-0.025141826
93	0xbd4f3457	-0.050587025
94	0xbb4c4bd5	-0.003117313
95	0xbd253a33	-0.040338706
96	0x3e151586	0.14558992
97	0x3c32a1af	0.010902806
98	0xbd88ada2	-0.06673743
99	0x3b97b3dd	0.0046295957
100	0xbdf6cf3d	-0.12051246
101	0xbd8e43ee	-0.0694655
102	0xbd4b1f9f	-0.049590703
103	0xbd3c04af	-0.045902904
104	0xbdfb4937	-0.12269824
105	0x3aa704cf	0.0012742522
106	0xbd9c0121	-0.07617403
107	0xbce0c9a7	-0.027439905
108	0x3d9a9242	0.07547428
109	0xbd98729d	-0.07443736
110	0x3c96ec87	0.018423332
111	0x3d5d74e9	0.054066572
112	0x3d336bc9	0.043803964
113	0x3ddae85c	0.1068885
114	0xbda3ba49	-0.079945154
115	0x3adcd2ca	0.0016847488
116	0x3cb2facf	0.02184811
117	0x3dc391f7	0.09549325
118	0x3d4be617	0.049779978
119	0xbb9284f7	-0.004471417
120	0xbcd43e0c	-0.025908493
121	0x3e0ac8df	0.13553189
122	0xbd2480b4	-0.040161803
123	0xbd0c95ca	-0.034322537
124	0x3d3d1ee1	0.046172027
125	0xbdcd3c8e	-0.100213155
126	0xbdd2080d	-0.10255442
127	0x3dd95119	0.10611171
128	0xbe04130a	-0.12897888
129	0x3c049cff	0.008094071
130	0x3de55ebe	0.11199711
131	0x3d13096e	0.035897665
132	0x3de8383e	0.11338852
133	0xbe0b7fe6	-0.13623008
134	0x3c85f849	0.016353743
135	0xbceafc41	-0.028684737
136	0xbda60b55	-0.0810763
137	0x3dc55fb4	0.096373945
138	0xbda99db3	-0.08282032
139	0x3cc3436a	0.023835856
140	0xbdd6b398	-0.104834735
141	0x3c598df7	0.013278476
142	0xbd3e794f	-0.046502408
143	0xbd3f5e4e	-0.046720795
144	0x3d9de34b	0.07709368
145	0xbd8dc955	-0.06923167
146	0xbd958767	-0.073012166
147	0xbd9fd1c8	-0.078036845
148	0xbc40417f	-0.0117343655
149	0xbd30ab80	-0.043132305
150	0x3df5f0f6	0.1200885
151	0x3bd83711	0.0065983613
152	0x3d2f7bdc	0.04284273
153	0x3dba6980	0.09102154
154	0x3df653e0	0.12027717
155	0x3d0c9e02	0.034330375
156	0xbab8dad3	-0.0014103301
157	0x3d815511	0.06315053
158	0x3d99815b	0.07495376
159	0xbd9e8bf5	-0.077415384
160	0x3c878f72	0.016547892
161	0x3e140397	0.14454494
162	0x3d5f3042	0.05448938
163	0x3e1ff06d	0.15619059
164	0x3a35d364	0.00069361017
165	0xbd2de207	-0.042451885
166	0xbddae948	-0.10689026
167	0x3d5f0562	0.054448493
168	0x3da69347	0.0813356
169	0x3de26624	0.11054638
170	0xbd993df1	-0.074825175
171	0x3c93417e	0.017975565
172	0xbd9989e6	-0.07497005
173	0x3d1f77ed	0.03893273
174	0x3d8049be	0.06264065
175	0xbd90aca5	-0.07064179
176	0x3e23860d	0.15969105
177	0x3c2e23be	0.010628639
178	0x3d988e67	0.07449036
179	0xbd339b42	-0.043849237
180	0xbd0b3db5	-0.033994395
181	0xbdff1b21	-0.12456346
182	0x3bb0ba5f	0.005393311
183	0x3dffadcc	0.12484321
184	0xbd69acaa	-0.05704943
185	0xbd1f124d	-0.038835812
186	0x3da3c029	0.07995636
187	0xbcccb7e4	-0.02499003
188	0xbdaff1b6	-0.085910246
189	0x3d96379e	0.07334827
190	0xbd3ebf9a	-0.046569444
191	0xbc8f7f07	-0.017516626
192	0x3cff5106	0.031166565
193	0x3de5ee68	0.11227113
194	0x3c87a0bf	0.016556142
195	0x3cb7c65d	0.022433454
196	0x3d0654d3	0.03279574
197	0xbd55249d	-0.05203687
198	0xbcec409e	-0.028839406
199	0x3e080d78	0.13286388
200	0x3c62d85c	0.013845529
201	0xbca0a54a	-0.019610066
202	0xbda0dbd5	-0.0785443
203	0x3e125c4b	0.1429302
204	0xbd673939	-0.056451056
205	0xbd322966	-0.043496512
206	0x3c99da5a	0.018780876
207	0xbcf26069	-0.029586988
208	0x3d0afcb4	0.033932403
209	0x3e03af2c	0.12859792
210	0x3e03165e	0.12801501
211	0x3d1f674e	0.03891688
212	0xbc2abbe1	-0.01042077
213	0x3db6392e	0.08897625
214	0xbdddad88	-0.10824114
215	0x3c80dcb7	0.015730245
216	0xbd39e177	-0.045381036
217	0x3d67685a	0.056496
218	0xbdb5fe19	-0.08886356
219	0x3cd11e6c	0.025527202
220	0x3dfbaf74	0.122893244
221	0xbc662d7c	-0.01404893
222	0xbdc1598a	-0.09440906
223	0xbd55bcae	-0.052181892
224	0xbd8ff360	-0.07028842
225	0x3e040e4d	0.1289608
226	0x3dbc6817	0.09199541
227	0x3ddb9e91	0.107236035
228	0xbdf650b3	-0.12027111
229	0xbdb2c5bd	-0.08729122
230	0xbdbb7da0	-0.091548204
231	0xbdb73750	-0.08946097
232	0xbe09cb59	-0.13456477
233	0x3dc0a59e	0.09406589
234	0xbd4effb4	-0.050536826
235	0xbdc39e2e	-0.09551655
236	0x3d2dfe52	0.042478867
237	0xbd5ff7d6	-0.054679714
238	0xbdc8ef6e	-0.098112926
239	0x3d6f9b9a	0.058498003
240	0x3e078907	0.13235866
241	0xbda23d7b	-0.07921883
242	0x3e28466e	0.16433117
243	0xbca3d52b	-0.019999107
244	0x3d977655	0.07395617
245	0x3c8923f0	0.01674077
246	0xbd242b42	-0.040080316
247	0xbdb20be9	-0.08693678
248	0x3c789b1c	0.0151737
249	0x3d26782b	0.040641945
250	0xbd83cba8	-0.06435329
251	0xbd79d905	-0.06099798
252	0x3e26d32d	0.16291495
253	0x3d763552	0.060109444
254	0xbdd4d57c	-0.103922814
255	0xbd5873f9	-0.052844975

lstm.weight_hh_l0 f4 [256, 64]
0	0x3d184242	0.037172563
1	0x3b9adfb6	0.0047263755
2	0x3dcc5a26	0.09978132
3	0x3a95f4e8	0.0011440786
4	0x3c562fba	0.013072902
5	0xbb1fbc7a	-0.0024373815
6	0xbdb903d0	-0.0903393
7	0x3dd02b62	0.101645246
8	0x3d290965	0.041268725
9	0x3e0b345d	0.13594194
10	0xbdade3ef	-0.084907405
11	0xbbce6f9d	-0.0062999264
12	0xbd93f977	-0.07225316
13	0x3bfbb6de	0.0076817116
14	0x3bd67f0e	0.006545908
15	0x3cd5ac56	0.026083153
16	0xbc5fe09d	-0.013664392
17	0x3cfce6e1	0.03087181
18	0x3db75942	0.089525715
19	0xbd4bb8d9	-0.04973683
20	0xbd279dfa	-0.040922143
21	0xbe18caa3	-0.1492105
22	0x3df2a3a6	0.1184762
23	0x3bd3de4d	0.0064657093
24	0xbdb09b43	-0.08623364
25	0x3d25d4e8	0.040486246
26	0x3dbcb589	0.092143126
27	0xbd65a502	-0.056065567
28	0xbd0e6c55	-0.034771282
29	0x3d2c24b2	0.042027183
30	0x3c7c74f8	0.015408747
31	0xbd35963b	-0.044332724
32	0x3e0641f3	0.13111095
33	0xbbc88ff5	-0.0061206766
34	0xbde4922b	-0.11160692
35	0x3d84115d	0.06448624
36	0xbd786490	-0.06064278
37	0x3d60f3f0	0.054920137
38	0xbc9e2224	-0.019303389
39	0xbd0ca05c	-0.034332618
40	0xbd349920	-0.044091344
41	0x3d8afeb0	0.06786859
42	0x3dd0284c	0.10163936
43	0x3d553692	0.052053995
44	0x3e01dc8a	0.12681785
45	0x3e098264	0.13428646
46	0xbdad9e9b	-0.08477517
47	0xbd8f6873	-0.07002344
48	0x3cb68365	0.02227945
49	0x3e0ac989	0.13553442
50	0xbc8a01cb	-0.016846558
51	0x3d1cdf14	0.03829868
52	0xbe0c945f	-0.13728474
53	0x3d64b910	0.05584055
54	0xbd7ab527	-0.061207917
55	0x3dabe920	0.083940744
56	0x3dd85359	0.10562772
57	0xbce73518	-0.02822356
58	0xbd8cbc3f	-0.068718426
59	0xbdb466a7	-0.08808642
60	0xbdb6731c	-0.08908674
61	0xbd4b01c4	-0.04956223
62	0xbde9ccf1	-0.114160426
63	0x3e1c00e0	0.15234709
64	0xbd38b3dc	-0.045093402
65	0xbd1d30d8	-0.03837666
66	0xbba6ae8d	-0.005086726
67	0xbd5ed5b2	-0.054403014
68	0x3dd942f2	0.10608472
69	0x3e0f851b	0.1401562
70	0x3a8f1fdc	0.0010919529
71	0x3cb02568	0.021502212
72	0xbdb13978	-0.086535394
73	0xbd80eb36	-0.06294863
74	0xbd2a18df	-0.041527625
75	0xbda3f7e3	-0.08006265
76	0xbe02ec4f	-0.12785457
77	0x3d2532f3	0.040331792
78	0x3dc54cd2	0.09633793
79	0x3d0dd402	0.034626015
80	0xbc2f1880	-0.010686994
81	0x3da74331	0.081671126
82	0x3d1ce44e	0.038303666
83	0x3d904a48	0.07045418
84	0xbe164f84	-0.1467877
85	0x3d49bd90	0.049253047
86	0xbdaedc30	-0.08538091
87	0xbd0755a9	-0.033040676
88	0xbe0d2b63	-0.13786082
89	0x3d7e232c	0.06204526
90	0x3c7436d3	0.014905649
91	0x3d9adcaa	0.075616196
92	0xbe055525	-0.13020761
93	0xbc75aaae	-0.0149943065
94	0xbc99ff4d	-0.018798495
95	0xbdb305bd	-0.08741329
96	0x3d65aec2	0.056074865
97	0xbda2f0f2	-0.07956113
98	0x3d49a2a8	0.049227387
99	0x3dc59a71	0.09648598
100	0x3d58a168	0.052888304
101	0x3cb2c3f7	0.021821959
102	0x3de8a5c7	0.113597445
103	0xbcf52774	-0.02992604
104	0xbb5ece0b	-0.0033997323
105	0x3d999fd5	0.07501189
106	0x3d419f99	0.047271345
107	0x3d83cc8a	0.06435497
108	0x3b7900ec	0.0037994934
109	0x3d673f4a	0.05645684
110	0xbddb80b9	-0.10717911
111	0x3bd92ebe	0.0066278866
112	0xbd8e9e89	-0.06963832
113	0xbd9a3f2b	-0.075315796
114	0xbc752df9	-0.014964574
115	0x3c9d5063	0.01920337
116	0xbd1c348f	-0.03813606
117	0xbdb3542c	-0.08756289
118	0x3d8f87c0	0.07008314
119	0xbdaba8a6	-0.083817765
120	0xbe1186a6	-0.1421152
121	0xbd4f1b59	-0.05056319
122	0x3db97f18	0.09057444
123	0xbdf37710	-0.11887944
124	0x3da1a72c	0.07893214
125	0x3dd9e791	0.10639871
126	0x3dd7e6c0	0.10542059
127	0x3dc8d0fa	0.09805484
128	0x3cfe0d25	0.031012127
129	0x3d4af5b9	0.049550746
130	0x3db0eac8	0.08638531
131	0x3e10d14f	0.14142345
132	0xbde6e9a0	-0.11275029
133	0x3c415088	0.011798985
134	0xbd95d3a8	-0.07315761
135	0x3e1c7c60	0.1528182
136	0x3c0bf3b8	0.008541994
137	0x3d4d3931	0.05010337
138	0xbe0e7f16	-0.13915667
139	0xb7f723b4	-2.946132e-05
140	0x3d69d373	0.05708642
141	0xbdeb2ffd	-0.114837624
142	0x3dfdb9a1	0.123889215
143	0x3db03801	0.08604432
144	0xbddc67a2	-0.10761954
145	0x3c6ae4f8	0.014336817
146	0x3daa07bc	0.083022565
147	0x3d6c07e8	0.057624727
148	0x3c439edf	0.011939733
149	0xbc53ff4d	-0.012939286
150	0x3de1b4ba	0.11020799
151	0x3be3eb68	0.006955553
152	0x3d5598ae	0.05214756
153	0xbde65842	-0.112473026
154	0x3d5e7f19	0.05432043
155	0x3e163387	0.14668094
156	0x3d8a9dca	0.06768377
157	0xbda22afa	-0.079183534
158	0x3b373c26	0.0027959435
159	0x3dd7678d	0.105177976
160	0xbd342b1c	-0.043986425
161	0xbe1e6b83	-0.154707
162	0xbd99dba6	-0.07512598
163	0xbdaf813b	-0.08569571
164	0x3da37f3c	0.079832524
165	0xbd9d3d2c	-0.07677683
166	0xbc0510d0	-0.008121684
167	0xbd8609ce	-0.06544839
168	0xbe134529	-0.14381851
169	0xbdb43108	-0.087984145
170	0x3ddaf0f8	0.106904924
171	0xbdf4d8d3	-0.119554184
172	0xbcdc7a0d	-0.026913667
173	0xbd5ba3c7	-0.053622987
174	0xbd99d876	-0.0751199
175	0x3df9b95f	0.1219356
176	0x3ddb8354	0.10718408
177	0x3d755f10	0.05990511
178	0x3dc31b65	0.095267095
179	0x3c68fa34	0.014219809
180	0xbd4a8e7d	-0.049452294
181	0xbd07ba9a	-0.03313694
182	0xbd4178c3	-0.047234308
183	0x3d1ee861	0.038795833
184	0xbd91eab6	-0.07124846
185	0x3d37ec98	0.044903368
186	0x3d4569af	0.04819649
187	0x3c02b952	0.007978754
188	0x3dde1ba5	0.108451165
189	0x3e17e6dd	0.14834161
190	0x3d3b28f8	0.045693368
191	0xbd37d0f0	-0.044876993
192	0xbd145e2e	-0.03622263
193	0xbd8966ae	-0.06709038
194	0xbdc417d4	-0.09574857
195	0x3e196041	0.14978124
196	0xbd76905f	-0.060196277
197	0x3d3a4b2f	0.045481857
198	0xbdc3b283	-0.09555533
199	0x3e135e93	0.14391546
200	0x3cbb78ba	0.022884715
201	0xbcd4a676	-0.025958281
202	0xbd1bdefd	-0.038054455
203	0x3d0e3c6c	0.03472559
204	0xbe1895a3	-0.14900832
205	0xbe1726d7	-0.1476091
206	0x3d523bdd	0.05132662
207	0x3d482b35	0.04886933
208	0xbdc9067e	-0.098156914
209	0xbe1e70eb	-0.15472762
210	0xbd833100	-0.064058304
211	0xbd555a52	-0.05208809
212	0xbe046116	-0.1292766
213	0x3c9185ff	0.01776409
214	0xbd86fe01	-0.06591416
215	0xbda41598	-0.08011931
216	0xbda86d7f	-0.0822401
217	0x3d1fa533	0.038975906
218	0x3d960a13	0.0732614
219	0xbd9a6e6d	-0.07540593
220	0xbe089552	-0.13338211
221	0xbcb12948	-0.02162613
222	0x3cbd60df	0.02311748
223	0xbcedbf0b	-0.02902176
224	0xbdafa0d2	-0.08575596
225	0xbdd7f12d	-0.105440475
226	0xbaeb62d2	-0.0017958528
227	0x3e01b8f5	0.12668212
228	0xbd9f7fa1	-0.07788015
229	0xbc370188	-0.011169799
230	0x3dcb4b42	0.09926464
231	0xbd48f2d0	-0.04905969
232	0xbe0d7316	-0.13813433
233	0xbcbfd6e0	-0.02341789
234	0x3dd3df84	0.103453666
235	0xbdd45792	-0.10368265
236	0x3dd2e2ae	0.10297142
237	0xbda4ab79	-0.08040518
238	0xbd280d13	-0.041028094
239	0x3c812599	0.015764998
240	0x3e1d43ab	0.15357845
241	0xbd9a6e92	-0.07540621
242	0x3db25ebe	0.08709477
243	0xbd91a3da	-0.0711133
244	0xbddccbdd	-0.10781071
245	0xbcc0b4ff	-0.023523806
246	0xbdb340ff	-0.087526314
247	0xbb98a5a4	-0.004658418
248	0x3dd1a219	0.10235996
249	0x3bfcf9a1	0.007720188
250	0xbd8745ee	-0.06605135
251	0xbe11fef3	-0.14257412
252	0x3d8081b9	0.06274743
253	0xbda584c6	-0.08081965
254	0xbe017a14	-0.12644225
255	0x3e0c217c	0.13684648

lstm.bias_ih_l0 f4 [256]
0	0x3de77d7c	0.11303231
1	0x3e1a5922	0.15073064
2	0xbd5c3abd	-0.053766955
3	0x3d20d571	0.039266054
4	0xbe0740a6	-0.13208255
5	0xbdaaf3a8	-0.08347255
6	0x3dcda1c6	0.100406215
7	0xbdb002ce	-0.08594285
8	0xbd80769d	-0.06272624
9	0x3ce35623	0.027751034
10	0xbc9020df	-0.0175938
11	0x3dd2b6b2	0.102887526
12	0xbb61cb89	-0.0034453592
13	0x3d8661ba	0.065616086
14	0x3c905cdf	0.01762241
15	0xbc7600c9	-0.015014836
16	0x3db5fe0b	0.088863455
17	0x3e202a55	0.15641148
18	0x3c1719d5	0.009222467
19	0x3e00fe60	0.12597036
20	0x3dfa39b9	0.12218041
21	0x3e0023bc	0.12513632
22	0xbde78179	-0.11303992
23	0xbd398bdc	-0.045299396
24	0x3db4ae87	0.08822351
25	0x3b45e6ab	0.0030197303
26	0x3da8ec90	0.08248246
27	0xbda586ef	-0.08082377
28	0x3e0e4d41	0.13896658
29	0x3dc2f760	0.09519839
30	0x3e0f926a	0.14020696
31	0x3d428ac8	0.047495633
32	0xbddf2f7b	-0.10897728
33	0xbd0a5415	-0.033771593
34	0xbda71743	-0.08158734
35	0xbc8fcb82	-0.017553095
36	0x3ddc6931	0.10762251
37	0x3dee9327	0.11649161
38	0x3e016914	0.1263774
39	0xbd63fea0	-0.05566275
40	0x3d8a3784	0.0674887
41	0x3db422ef	0.087957256
42	0xbdbf8fdd	-0.093536116
43	0xbd91a79d	-0.07112048
44	0x3dc0c17a	0.09411903
45	0x3ca5de0a	0.020247478
46	0xbc849dc5	-0.016188512
47	0x3e10405a	0.14087048
48	0x3c3f2bab	0.011668126
49	0xbd37bf18	-0.044859976
50	0x3e0f69c7	0.14005195
51	0x3cab9731	0.020946117
52	0x3c81b882	0.01583505
53	0x3d2bb63c	0.04192184
54	0x3c02e4cc	0.00798912
55	0xbd5c5167	-0.05378857
56	0xbd2297f4	-0.039695695
57	0x3df5a1cc	0.11993751
58	0x3da14f5a	0.07876463
59	0x3e078a29	0.13236298
60	0x3ca04fcf	0.019569306
61	0x3dda3d59	0.106562324
62	0x3d8372d0	0.06418383
63	0xbaaf63cf	-0.0013381186
64	0xbd33b62d	-0.04387491
65	0x3e03a2a1	0.12855007
66	0x3e0c6793	0.13711385
67	0x3c41f462	0.011838051
68	0xbe0141d4	-0.12622768
69	0xbd9748ce	-0.07386933
70	0x3de4c3f7	0.1117019
71	0x3de6a56d	0.11262021
72	0x3d9dbf40	0.07702494
73	0x3e02c65e	0.12770984
74	0x3ceb04ec	0.02868887
75	0xbdbf8702	-0.093519226
76	0xbb8b2a6b	-0.004247
77	0x3db93c34	0.09044686
78	0xbd912a95	-0.070882
79	0x3e06a183	0.1314755
80	0xbdafc1f0	-0.085819125
81	0xbda63905	-0.08116344
82	0xbe0c5737	-0.13705145
83	0x3dd6e3f4	0.10492697
84	0x3def6136	0.116884634
85	0xbdb4bc3a	-0.08824964
86	0xbd6fe2ed	-0.058566023
87	0x3ddddaa5	0.10832719
88	0x3e0954d1	0.13411261
89	0xbd9339b7	-0.071887426
90	0x3d10fa59	0.035395
91	0x3e120482	0.14259532
92	0xbd1b3cb8	-0.037899703
93	0x3d021438	0.031757563
94	0x3d9e84a5	0.07740144
95	0xbd3f678d	-0.046729613
96	0x3ddf4b55	0.1090304
97	0xbd68a635	-0.056799132
98	0xbd0540ee	-0.032532625
99	0xbd9b2570	-0.075755
100	0x3de7077f	0.11280727
101	0xbd289db7	-0.041166034
102	0x3cf77807	0.0302086
103	0xbda4c09a	-0.08044548
104	0xbdc13b14	-0.094350964
105	0xbd8f0c01	-0.069847114
106	0xbdb1238f	-0.086493604
107	0xbd4ca2dc	-0.049960002
108	0xbb733f2f	-0.0037116518
109	0x3b405795	0.0029349078
110	0x3e0858f3	0.13315181
111	0x3c15368a	0.009107241
112	0x3df260e8	0.1183489
113	0x3e1905a3	0.14943556
114	0xbd25c738	-0.040473193
115	0xbd78265c	-0.060583457
116	0xbd9f7743	-0.07786419
117	0x3dfa8fe5	0.12234477
118	0x3dcb7947	0.09935241
119	0xbdb5cb57	-0.088766746
120	0xbc99edea	-0.018790204
121	0xbd9bf00f	-0.07614147
122	0x3d40746b	0.046986025
123	0xbd325acb	-0.04354362
124	0x3d831430	0.06400335
125	0xbd820927	-0.06349402
126	0x3d5b2fbf	0.05351233
127	0xbd9831ea	-0.07431395
128	0xbd55a902	-0.05216313
129	0x3d4fea82	0.050760753
130	0x3dd7bad3	0.10533681
131	0xbc90313e	-0.017601606
132	0xbdc09f29	-0.094053574
133	0xbdbb4bc5	-0.09145311
134	0xbd4c376f	-0.049857553
135	0xbd0ae125	-0.03390612
136	0x3c56126f	0.013065918
137	0x3d0e53c6	0.03474786
138	0xbd768c99	-0.060192678
139	0x3dbb6a41	0.09151126
140	0xbd850bf4	-0.064964205
141	0xbdfe9da9	-0.12432415
142	0x3d1606a7	0.036627438
143	0xbd8d365d	-0.068951346
144	0xbd9384e9	-0.07203085
145	0x3d245b11	0.04012591
146	0xbd977697	-0.07395666
147	0xbbf7c4fd	-0.0075613246
148	0xbcff04af	-0.031130163
149	0xbe04c729	-0.12966599
150	0xbd5102e4	-0.051028147
151	0xbd56ce37	-0.052442756
152	0xbda03425	-0.07822446
153	0x3d43b754	0.047782257
154	0xbb202206	-0.0024434342
155	0xbcb0e7eb	-0.021594962
156	0xbdc8b2b2	-0.097997084
157	0xbdb6507f	-0.08902072
158	0x3ddc19b3	0.10747089
159	0x3da4178f	0.08012306
160	0xbba4e810	-0.005032547
161	0xbdbe615a	-0.09295912
162	0xbe09ced7	-0.1345781
163	0xbdba1cab	-0.09087499
164	0xbd8c7328	-0.06857902
165	0x3c7c71d9	0.015408003
166	0x3d0805a0	0.03320849
167	0x3d043016	0.03227242
168	0xbd98e28c	-0.074650854
169	0xbdefea93	-0.11714663
170	0x3d88e3b9	0.0668406
171	0x3d8afeba	0.067868665
172	0x3d85f7f3	0.06541433
173	0x3b0331ba	0.0020018653
174	0x3d31ad05	0.043377895
175	0x3df81615	0.12113587
176	0x3dd43602	0.10361864
177	0xbd3f9487	-0.046772506
178	0xbd059298	-0.032610506
179	0x3e12f3b0	0.14350772
180	0x3dd303a5	0.103034295
181	0x3db66d1e	0.08907531
182	0x3db674b4	0.08908978
183	0x3d10eb68	0.03538075
184	0xbd3b30bf	-0.045700785
185	0x3e029527	0.1275221
186	0x3d903cb9	0.07042832
187	0xbdb9d253	-0.09073319
188	0x3db61c38	0.08892101
189	0x3dbd7e2b	0.0925258
190	0xbe0d8503	-0.13820271
191	0x3a52c107	0.00080396276
192	0x3db62dfa	0.08895488
193	0x3e0fc4d8	0.14039934
194	0x3de12c6b	0.109948
195	0x3d2dd0bc	0.042435393
196	0x3d54718d	0.051866103
197	0xbd386b48	-0.045024186
198	0x3d71f6d6	0.05907329
199	0xbd67edb2	-0.05662317
200	0x3cd17000	0.025566101
201	0xbdded62f	-0.10880696
202	0xbc9647a6	-0.018344712
203	0x3d9f61bb	0.077823125
204	0xbcb24631	-0.021761985
205	0xbd9a2eca	-0.075284556
206	0xbdb614d0	-0.088906884
207	0x3e0ed104	0.1394692
208	0x3cb7c87e	0.02243447
209	0x3e25634a	0.16151157
210	0x3cefa3bf	0.029252885
211	0xbc7c3462	-0.015393348
212	0x3dce3805	0.10069279
213	0xbdae8424	-0.085212976
214	0x3d734b0f	0.059397753
215	0xbda1c514	-0.07898918
216	0xbda17c54	-0.07885042
217	0x3c464346	0.012101
218	0x3de49319	0.11160869
219	0x3d4f23de	0.050571315
220	0xbd56fee8	-0.05248919
221	0x3cd2366c	0.025660716
222	0x3dcb2fd4	0.09921232
223	0x3d50c421	0.050968293
224	0xbda86c39	-0.08223767
225	0x3dfedb02	0.12444116
226	0x3ddaebde	0.10689519
227	0xbe00cfef	-0.1257932
228	0x3cfce961	0.030873002
229	0xbc115b72	-0.0088719
230	0x3c202fd9	0.009777033
231	0xbd397602	-0.045278557
232	0xbdfc30fc	-0.123140305
233	0x3cb44643	0.02200616
234	0xbdd1e156	-0.102480575
235	0x3d3551b0	0.044267356
236	0x3d8ebed9	0.06969995
237	0xbda69d8c	-0.081355184
238	0x3e015f93	0.12634115
239	0x3dbe0a83	0.09279349
240	0x3b6c7dae	0.0036085653
241	0x3d78272c	0.060584232
242	0x3dd11484	0.10208991
243	0xbd0b3666	-0.033987425
244	0xbde78a3b	-0.11305662
245	0xbd782bb2	-0.060588546
246	0xbd25cd1a	-0.040478803
247	0x3cf7da77	0.03025554
248	0x3dd41641	0.10355807
249	0xbc8c9c67	-0.017164422
250	0xbad55c8a	-0.0016278189
251	0x3d6339c7	0.055475023
252	0xbd5db6e6	-0.054129504
253	0x3da8b431	0.08237494
254	0xbd611224	-0.05494894
255	0x3e09b526	0.13448009

lstm.bias_hh_l0 f4 [256]
0	0xbb0d44f3	-0.002155599
1	0xbd61b757	-0.055106487
2	0x3df8cd7b	0.12148567
3	0xbd9e5208	-0.0773049
4	0xbddfcee6	-0.109281346
5	0x3dd40c42	0.103539005
6	0xbbef2282	-0.007297815
7	0x3d2d99ec	0.04238312
8	0x3e048b62	0.12943795
9	0x3e0ada9e	0.13559958
10	0xbd8156bd	-0.06315372
11	0xbd5d9463	-0.05409659
12	0x3dff495a	0.124651626
13	0xbdd1aaa2	-0.10237624
14	0xbd5e2981	-0.0542388
15	0x3da88eac	0.082303375
16	0x3d4cffc1	0.050048593
17	0x3d976b78	0.07393545
18	0x3dc31b14	0.09526649
19	0xbcafa6eb	-0.021441897
20	0x3d8fb79d	0.07017443
21	0xbd05f90d	-0.032708216
22	0xbcbd0342	-0.023072843
23	0xbd50c483	-0.05096866
24	0xbc436070	-0.011924848
25	0xbd401765	-0.04689731
26	0x3da45cd0	0.08025515
27	0x3dca994b	0.098925196
28	0xbd7e544e	-0.062092118
29	0x3e07bb5b	0.13255064
30	0xbdaf072a	-0.08546288
31	0xbd1057c0	-0.035239935
32	0x3dcb8ddd	0.09939168
33	0x3d400405	0.046878833
34	0x3d6cfccd	0.057858277
35	0x3d3d3194	0.04618986
36	0x3d4b8b15	0.049693186
37	0xbdc124db	-0.09430858
38	0xbcb78068	-0.022400096
39	0x3cbf8f93	0.023383891
40	0x3d8ea5f4	0.06965247
41	0x3c6273e6	0.013821578
42	0xbe026556	-0.12733969
43	0x3de2e5dd	0.11078999
44	0x3db170dd	0.08664105
45	0xbd25c7d7	-0.040473785
46	0x3d995ae5	0.0748804
47	0xba9db5ba	-0.0012032308
48	0x3c8ccf7e	0.017188784
49	0x3df2826d	0.11841283
50	0xbd5016c8	-0.050802976
51	0xbd4c2a96	-0.0498453
52	0x3cd2213f	0.025650619
53	0xbd8e53b8	-0.06949562
54	0xbc5df002	-0.013545992
55	0xbe05d8cc	-0.13070983
56	0xbdee3afc	-0.11632344
57	0xbcc856e2	-0.024455491
58	0xbc505fc6	-0.012718147
59	0xbd82124d	-0.06351147
60	0xbd63888b	-0.05555014
61	0x3daa63c3	0.08319809
62	0xbd133945	-0.03594329
63	0xbcbf09bf	-0.023320077
64	0x3d11e2bd	0.035616625
65	0x3c6144ee	0.013749344
66	0x3d7b80bc	0.061402068
67	0x3e03a077	0.12854181
68	0xbdaca8a9	-0.08430607
69	0xbc846a9f	-0.016164122
70	0xbced5725	-0.028972218
71	0x3ddad025	0.10684232
72	0x3b0aa4aa	0.0021155276
73	0x3da94119	0.082643695
74	0xbd9186cf	-0.07105791
75	0x3dc1dfd0	0.09466517
76	0xbdb317ee	-0.087447986
77	0xbcc9a668	-0.024615481
78	0xbce46de6	-0.027884435
79	0x3e158994	0.14603263
80	0x3e063867	0.13107453
81	0xbda89ba3	-0.0823281
82	0x3d05ffac	0.03271453
83	0xbd2b7816	-0.04186257
84	0xbd601bc3	-0.054713976
85	0x3e0c64e3	0.1371036
86	0xbae08529	-0.0017129529
87	0x3d9f3a63	0.07774808
88	0xbd62dbf8	-0.05538556
89	0x3b98a8ca	0.004658793
90	0xbd3a5794	-0.045493677
91	0xbd61555d	-0.05501305
92	0x3d4ad31c	0.049517736
93	0x3db0440f	0.08606731
94	0x3dd3837a	0.103278115
95	0x3d597321	0.05308831
96	0x3d141ea5	0.036162037
97	0x3e1bc07f	0.1521015
98	0x3dc8cd40	0.09804773
99	0x3dc3b66a	0.09556277
100	0xbce5c009	-0.028045671
101	0xbdb9d11c	-0.090730876
102	0xbdb67637	-0.089092664
103	0x3db2d390	0.087317586
104	0x3dc90592	0.098155156
105	0x3dce5c07	0.100761466
106	0x3d7e522a	0.062090077
107	0x3c4a7684	0.012357358
108	0xbdbd3cfe	-0.09240149
109	0x3db37afe	0.08763693
110	0xbd9fd35b	-0.07803985
111	0x3e106529	0.1410109
112	0xbd884976	-0.066546366
113	0x3d3a9fbb	0.045562487
114	0x3dbc06b2	0.091809645
115	0x3db53b6d	0.08849225
116	0x3dd68c7f	0.10476016
117	0x3d152023	0.0364076
118	0x3b12d0a1	0.0022402185
119	0xbdae5f53	-0.085142754
120	0xbe100e34	-0.14067918
121	0x3d6a7b09	0.05724624
122	0x3db9806d	0.090576984
123	0x3d118c52	0.03553421
124	0xbdae0437	-0.08496898
125	0x3d9cfe67	0.07665711
126	0x3dd4545a	0.10367651
127	0xbd8b84fc	-0.06812474
128	0x3e0b4461	0.13600303
129	0xbd1e5b07	-0.03866103
130	0x3e03e95b	0.12881987
131	0x3cf62ddb	0.030051162
132	0xbdc901c5	-0.09814791
133	0x3c6f10bb	0.014591391
134	0xbdb0ad51	-0.086268075
135	0x3c9093b0	0.017648548
136	0xbd7fd623	-0.062460076
137	0x3e11f86c	0.14254922
138	0xbd1770e6	-0.036972903
139	0x3e0a1251	0.1348355
140	0xbd550064	-0.052002326
141	0x3de0ce9b	0.10976907
142	0x3d9614ed	0.0732821
143	0xbb647b27	-0.0034863444
144	0x3cbf1183	0.02332378
145	0xbd8f8c80	-0.0700922
146	0x3d955284	0.07291129
147	0xbdb51823	-0.08842494
148	0xbdd05aca	-0.10173567
149	0xbdd26f56	-0.10275142
150	0xbd90b8bf	-0.070664875
151	0xbd465f27	-0.048430588
152	0x3db78da6	0.08962564
153	0x3db035e0	0.08604026
154	0xbdc26b40	-0.094931126
155	0x3d4f4bc5	0.05060937
156	0x3c935f3f	0.017989753
157	0x3d2fa3f7	0.04288098
158	0x3c946a9b	0.01811724
159	0x3da261ab	0.07928785
160	0x3d63e316	0.055636488
161	0xbd93e681	-0.072216995
162	0xbd80e02c	-0.062927574
163	0xbd814997	-0.06312864
164	0x3da17ef2	0.07885541
165	0x3d42a71e	0.047522657
166	0xbc499907	-0.012304551
167	0x3d61a245	0.055086393
168	0xbdc831fe	-0.0977516
169	0xbc1ba509	-0.009499797
170	0x3c75cf46	0.015003031
171	0x3d9d02f4	0.07666579
172	0x3dbaf0e2	0.09127976
173	0xbcacf7b9	-0.021114217
174	0x3dbce2d9	0.09222955
175	0xbd85dbbd	-0.065360524
176	0x3cc5ae3b	0.024130931
177	0xbda41371	-0.08011521
178	0xbd0fe03b	-0.035125952
179	0xbccc638d	-0.024949813
180	0x3cf8b535	0.030359844
181	0xbd9fa9f4	-0.07796088
182	0x3db87888	0.090073645
183	0x3d556260	0.05209577
184	0xbc62f16f	-0.013851508
185	0x3d91e91d	0.07124541
186	0xbdd1599b	-0.10222169
187	0xbda09d03	-0.078424476
188	0x3d825144	0.063631564
189	0xbdcfd231	-0.10147513
190	0xbd3ab8a9	-0.045586262
191	0x3d6e7b4e	0.05822306
192	0x3c8cde10	0.017195731
193	0x3d84c8b8	0.064835966
194	0x3da59f37	0.080870084
195	0x3e13dd21	0.14439823
196	0xbd8b0783	-0.06788542
197	0xbd387bf8	-0.0450401
198	0xbdabaf11	-0.08383001
199	0x3df4c627	0.11951857
200	0x3d9ae850	0.07563841
201	0xbd4f65cc	-0.05063419
202	0x3c05d2fc	0.008167978
203	0x3d6df225	0.058092255
204	0x3dca676b	0.09883007
205	0xbd7ab0ae	-0.06120365
206	0xbdd17080	-0.10226536
207	0x3de841fa	0.11340709
208	0x3dc7e7bd	0.097609974
209	0xbc86ca15	-0.016453782
210	0xbe0479b4	-0.12937051
211	0x3daef31e	0.08542465
212	0x3e0c73b8	0.13716018
213	0x3d7c3853	0.061577152
214	0xbd268a71	-0.04065937
215	0xbda5fed6	-0.08105247
216	0x3bdd06d9	0.006745201
217	0xbd8f67c2	-0.07002212
218	0x3dc63cf5	0.096795954
219	0x3d83bb8b	0.06432255
220	0x3cb8a89c	0.022541337
221	0x37a54b2f	1.9704543e-05
222	0x3d64d504	0.05586721
223	0x3da9773e	0.08274697
224	0x3dcfe0e1	0.10150314
225	0xbd1eabc9	-0.038738046
226	0xbd608643	-0.054815542
227	0xbe010870	-0.12600875
228	0x3dc0eb31	0.09419859
229	0x3d2db7ec	0.04241173
230	0xbd94ab0e	-0.072591886
231	0x3dc254f1	0.094888575
232	0x3d306be0	0.043071628
233	0x3dd8a5f8	0.10578531
234	0x3d958dc2	0.07302429
235	0xbd010ae4	-0.031504527
236	0xbd3e6149	-0.046479497
237	0x3d2a0c3a	0.041515566
238	0x3df3c98d	0.11903677
239	0x3e159de7	0.14611016
240	0xbda90700	-0.08253288
241	0xbd033a4a	-0.03203801
242	0xbd651e0b	-0.055936854
243	0x3e088cad	0.13334914
244	0xbd55a97f	-0.052163597
245	0x3c99f9dc	0.0187959
246	0x3cb68416	0.02227978
247	0x3cd75f3d	0.02629053
248	0x3d36e56d	0.04465239
249	0xbd169b29	-0.036769066
250	0x3d5c6026	0.05380263
251	0xbd3f3247	-0.046678808
252	0xbd39b84d	-0.04534178
253	0xbd109e18	-0.03530702
254	0xbd8a2fe8	-0.06747419
255	0xbc47b6da	-0.012189591

lstm.weight_ih_l1 f4 [256, 64]
0	0xbc647e7b	-0.013946171
1	0x3d8aae27	0.06771498
2	0x3e102bff	0.14079283
3	0x3dae6f98	0.085173786
4	0xbde1d7cb	-0.11027487
5	0x3c9ec0e9	0.019379096
6	0xbd91d832	-0.07121314
7	0xbd878ae2	-0.06618287
8	0xbb5a8438	-0.0033342969
9	0xbd2f8bd2	-0.042857952
10	0x3d12ed54	0.035870865
11	0xbbd133b3	-0.006384337
12	0xbd681ad9	-0.05666623
13	0xbd164bb3	-0.036693286
14	0x3d8f43bb	0.069953404
15	0xbd672fd5	-0.0564421
16	0xbde90d95	-0.11379544
17	0xbdb8e195	-0.09027401
18	0x3dfee6f3	0.12446394
19	0x3cc84c00	0.024450302
20	0xbe07cc6f	-0.13261579
21	0xbcc374df	-0.02385944
22	0xbe0eeed3	-0.13958292
23	0xbe1a1ce9	-0.15050091
24	0x3d918a98	0.07106513
25	0x3caba202	0.020951275
26	0x3cab5472	0.02091429
27	0xbc221128	-0.009891786
28	0xbc8fc4b0	-0.017549843
29	0x3d0b77fd	0.034049977
30	0x3e135059	0.14386119
31	0xb99ff47a	-0.00030508992
32	0x3c58acb0	0.013224766
33	0x3cf314bc	0.029672973
34	0xbc916fba	-0.01775347
35	0x3df151f5	0.1178321
36	0xbbf7dd96	-0.007564257
37	0x3d9e8555	0.07740275
38	0x3e21f539	0.15816201
39	0xbe1e8045	-0.15478618
40	0x3da50def	0.08059298
41	0xbd84d95b	-0.0648677
42	0x3c7242c7	0.014786429
43	0xbde2dba8	-0.11077052
44	0x3e24fc0b	0.16111772
45	0x3d96a6b8	0.07356018
46	0xbd8e07e6	-0.069351
47	0x3da0453f	0.07825708
48	0x3b0dacc7	0.0021617876
49	0x3d37561e	0.044759862
50	0xbd5f58ee	-0.05452817
51	0x3d947b6c	0.07250103
52	0x3deff5c8	0.11716801
53	0x3df993fb	0.12186428
54	0x3c04b31c	0.008099344
55	0x3d9e9422	0.07743098
56	0x3d7fbd90	0.06243664
57	0x3e2a3cfc	0.16624826
58	0xbd952388	-0.07282168
59	0x3d00275f	0.031287547
60	0x3d032c98	0.03202495
61	0x3ddff57d	0.10935495
62	0xbd5dc030	-0.054138362
63	0x38895ef8	6.5503584e-05
64	0x3df54c05	0.1197739
65	0xbdee0911	-0.11622823
66	0x3cb6873e	0.022281285
67	0xbd464143	-0.048402082
68	0x3d5e93df	0.05434024
69	0x3e0b96d5	0.13631757
70	0xbd552a08	-0.052042037
71	0x3d9aa01e	0.07550071
72	0x3e08ded0	0.13366246
73	0x3c5c9fbd	0.013465819
74	0xbe0d6506	-0.13808069
75	0x3dd7cd61	0.1053722
76	0xbd4f0d51	-0.05054981
77	0xbd3ad9d4	-0.045617893
78	0xbd1020be	-0.035187475
79	0x3e051b93	0.129988
80	0xbc072a3d	-0.0082498165
81	0x3d7025d6	0.058629833
82	0x3d971a76	0.07378094
83	0xbc5a2804	-0.0133152045
84	0xbdca297f	-0.09871196
85	0xbcc9a181	-0.024613144
86	0xbdd1d240	-0.1024518
87	0xbc020de9	-0.007937887
88	0x3d269b77	0.040675607
89	0xbca91bc2	-0.020643119
90	0xbca59155	-0.020210901
91	0xbd17b288	-0.037035495
92	0x3bee96b3	0.0072811483
93	0x3e06985b	0.13144056
94	0xbd4bdbdb	-0.049770217
95	0xbcfb3d6c	-0.030668937
96	0xbd967825	-0.073471345
97	0x3d79dd0e	0.06100183
98	0xbc484151	-0.012222604
99	0x3dcbdac0	0.099538326
100	0xbcc2357d	-0.023707146
101	0x3dade929	0.084917374
102	0xbd982b0a	-0.07430084
103	0xbe1aeda1	-0.1512971
104	0x3cc57f7b	0.024108639
105	0x3d886576	0.06659977
106	0x3c638292	0.013886111
107	0xbc22a5fc	-0.009927269
108	0x3de7912f	0.113069884
109	0x3c8eb500	0.017420292
110	0xbdcf1fe8	-0.101135075
111	0xbd791abf	-0.060816523
112	0x3c22c05c	0.009933557
113	0x3d79e670	0.061010778
114	0x3d894bfd	0.06703947
115	0x3df7cb18	0.12099284
116	0x3cd21145	0.025643
117	0x3e0e44f7	0.13893496
118	0xbd28169b	-0.041037183
119	0xbda8ed4b	-0.08248385
120	0x39bcf226	0.0003603857
121	0x3d933138	0.07187122
122	0x3c8c62e8	0.017137006
123	0xbdf57f54	-0.119871765
124	0x3d925981	0.07145978
125	0xbd90ebb7	-0.07076209
126	0xbdcc62d3	-0.09979787
127	0x3dad14d2	0.08451237
128	0xba8a6620	-0.0010559
129	0xbde9c027	-0.11413603
130	0x3d78c15e	0.060731284
131	0x3e046326	0.12928447
132	0xbd8939a0	-0.06700444
133	0x3e181ff3	0.14855938
134	0x3d9f6bd4	0.077842385
135	0x3c95a9b8	0.018269405
136	0x3d18d176	0.037309133
137	0xbda6b9ee	-0.08140932
138	0x3cead19f	0.028664408
139	0xbdbe239b	-0.09284135
140	0x3d104bba	0.03522847
141	0x3d794347	0.060855176
142	0x3da5b473	0.080910586
143	0xbd714ae7	-0.058909323
144	0xbd953806	-0.07286076
145	0x3c54f56f	0.012997969
146	0x3e09169c	0.13387531
147	0xbd112a3e	-0.035440676
148	0xbc94f120	-0.018181384
149	0x3d8906a1	0.066907175
150	0x3d5c2e57	0.05375513
151	0xbe3f6e74	-0.18694478
152	0xbe0d7b40	-0.13816547
153	0xbc828f59	-0.015937494
154	0xbcdbfce2	-0.026853982
155	0x3d935ffe	0.071960434
156	0xbd88d954	-0.06682077
157	0x3c8ea455	0.017412344
158	0x3d74761f	0.05968296
159	0xbdae62b8	-0.08514923
160	0xbc89a1b7	-0.016800744
161	0xbc800159	-0.015625643
162	0x3d209b57	0.039210644
163	0x3de03d78	0.10949224
164	0x3e09745c	0.13423294
165	0xbdaacd75	-0.08339969
166	0x3dc47fea	0.0959471
167	0xbbdeb4de	-0.0067964634
168	0xbd1abaeb	-0.037775915
169	0xbd89133f	-0.06693124
170	0xbda35b4d	-0.079763986
171	0xbd9cd42e	-0.076576576
172	0x3def3bfd	0.11681364
173	0x3e03796e	0.1283929
174	0xbda9fb3e	-0.08299874
175	0x3c5fab89	0.013651737
176	0x3de4e758	0.11176938
177	0x3ccdb0c2	0.025108699
178	0xbc823f2d	-0.015899265
179	0xbdb1996a	-0.086718395
180	0x3e1349ce	0.14383623
181	0xbcb3013e	-0.021851178
182	0x3d380226	0.044923924
183	0xbc8fd583	-0.017557865
184	0xbd808be3	-0.06276681
185	0x3e25493c	0.16141218
186	0x3d6e1458	0.05812487
187	0x378b51dc	1.660821e-05
188	0x3c9dd3c3	0.019266015
189	0x3dc7b8af	0.097520225
190	0xbd11571c	-0.035483465
191	0x3d9e5c55	0.07732455
192	0x3ca50d28	0.020147875
193	0xbe06d199	-0.13165893
194	0x3c726084	0.014793519
195	0xbc8afa75	-0.01696513
196	0x3d9072ab	0.07053121
197	0x3db633e6	0.088966176
198	0x3c665590	0.014058486
199	0x3e0c31e3	0.13690905
200	0xbd374e38	-0.04475233
201	0xbd10898e	-0.035287432
202	0xbe04fe54	-0.12987643
203	0x3d8e9b8d	0.06963263
204	0xbd7eae90	-0.062178195
205	0xbe1a1fd5	-0.15051205
206	0xbde52b56	-0.11189906
207	0x3e08f394	0.13374168
208	0xbd709a98	-0.058741182
209	0xbdae6698	-0.08515662
210	0xbdb1262b	-0.08649858
211	0x3e143aa4	0.14475495
212	0x3d4d806c	0.0501713
213	0xbdfd1e77	-0.12359326
214	0xbc852d69	-0.016257005
215	0xbcdc02e5	-0.026856849
216	0x3d9c73f5	0.076393045
217	0x3d852880	0.065018654
218	0xbc83105d	-0.015999014
219	0x3e0d9939	0.13827981
220	0xbdd2d53f	-0.1029458
221	0x3d404edb	0.046950202
222	0x3ce4577c	0.027873747
223	0x3d1a39e6	0.037652873
224	0x3d4e4d09	0.050366435
225	0xbdb56430	-0.08857
226	0xbe208eb3	-0.15679435
227	0x3dbb20ce	0.091371164
228	0x3d659c9e	0.056057565
229	0xbda28ac5	-0.079366244
230	0xbd5f5404	-0.054523483
231	0x3daae072	0.08343591
232	0xbd945489	-0.07242686
233	0xbd75b714	-0.05998905
234	0xbd28e154	-0.041230515
235	0x3d18fb04	0.037348762
236	0xbc5e2e92	-0.013560908
237	0xbd80cc2e	-0.06288944
238	0xbd905284	-0.070469886
239	0x3d9a24d0	0.07526553
240	0x3e171416	0.14753756
241	0x3b11327e	0.002215534
242	0xbc1e80f6	-0.009674301
243	0x3d74bb3a	0.059748866
244	0x3e229a76	0.15879235
245	0x3e37d638	0.17952812
246	0x3e257473	0.16157703
247	0x3c50033f	0.012696086
248	0x3d5b68d7	0.05356678
249	0x3e2cfa11	0.16892268
250	0xbb98a81c	-0.004658712
251	0x3d8a3792	0.067488804
252	0xbd3ce6e6	-0.04611864
253	0x3d0c16ed	0.03420155
254	0xbd0ff203	-0.03514291
255	0x3e083e31	0.13304974

lstm.weight_hh_l1 f4 [256, 64]
0	0xbc927eb0	-0.017882675
1	0x3e1e2ec3	0.15447526
2	0x3d3d2116	0.04617413
3	0x3cde9fbd	0.027175779
4	0x3cd4de58	0.025984928
5	0xbc02deb7	-0.00798767
6	0x3dfee249	0.12445504
7	0x3d15e497	0.036594953
8	0xbe1477c0	-0.14498806
9	0xbdb8b986	-0.09019761
10	0xbd230edd	-0.039809097
11	0xbdee3bf2	-0.116325274
12	0xbde01a25	-0.10942487
13	0xbd4731a5	-0.04863133
14	0x3de1ff4f	0.110350244
15	0x3e01806a	0.12646642
16	0xbd7b0d3f	-0.06129193
17	0x3cedbce6	0.029020738
18	0x3cae8818	0.021305129
19	0xbc2752a4	-0.010212574
20	0x3d48264b	0.048864644
21	0xbd00fc11	-0.03149039
22	0x3e0297fb	0.12753288
23	0xbd221c03	-0.039577495
24	0xbc71114b	-0.014713596
25	0x3d4d9d13	0.050198626
26	0x3ce68b27	0.028142525
27	0x3e1d5d83	0.15367703
28	0x3da8d7c2	0.082442775
29	0x3d2f42ac	0.042788193
30	0xbd57659b	-0.052587133
31	0x3d4b7ef6	0.049681626
32	0xbd0d2c63	-0.03446616
33	0xbda24851	-0.079239495
34	0x3d95b8c9	0.073106356
35	0xbdfc3ca2	-0.12316252
36	0xbd070c4f	-0.032970723
37	0x3e24eb4f	0.16105388
38	0x3d8b4b06	0.06801419
39	0x3e1a9a1f	0.15097855
40	0x3bb388ec	0.005478969
41	0xbd940e72	-0.07229318
42	0xbc18b396	-0.00932016
43	0xbda5a915	-0.080888905
44	0xbe1004f1	-0.14064385
45	0x3cdac6be	0.026706096
46	0xbdbd743b	-0.09250685
47	0x3e19c4a4	0.15016419
48	0xbd0ae422	-0.03390897
49	0xbd81aba5	-0.06331567
50	0x3b09c07d	0.0021019273
51	0x3dd6b55b	0.104838096
52	0x3d9f71fe	0.07785414
53	0xbdbe5d38	-0.09295124
54	0x3d888c67	0.066674046
55	0xbd12dd7a	-0.035855748
56	0xbd7510a5	-0.059830327
57	0x3d8ec128	0.069704354
58	0x3d682668	0.056677252
59	0xbda26a4a	-0.07930429
60	0x3dedfe30	0.11620748
61	0x3c0e4042	0.008682312
62	0x3da5fb8f	0.081046216
63	0x3e0a14df	0.13484524
64	0x3ca935dd	0.020655567
65	0x3d71f639	0.059072707
66	0x3de32dd0	0.110927224
67	0x3ced068e	0.02893379
68	0x3db1a1d8	0.08673447
69	0x3b75c79a	0.0037503005
70	0x3da3d7d3	0.080001496
71	0xbdcf6cf3	-0.10128202
72	0xbe102b69	-0.1407906
73	0x3c91b553	0.017786657
74	0xbdf1310b	-0.11776932
75	0x3cd353cf	0.025796799
76	0x3d156f72	0.036483236
77	0x3db1c695	0.08680455
78	0xbd4c4dbd	-0.049878825
79	0xbde6ee36	-0.11275904
80	0xbcd79def	-0.026320426
81	0x3ddc15f4	0.10746375
82	0x3da7ddca	0.081966
83	0xbd53f588	-0.05174783
84	0xbd84c8bc	-0.064835995
85	0x3c4f73cc	0.0126618855
86	0x3d1356d1	0.035971466
87	0x3c792da6	0.015208637
88	0xbe14d05a	-0.14532605
89	0xbb97f67d	-0.004637538
90	0xbe0fef1c	-0.14056057
91	0x3df2ed0b	0.118616186
92	0x3d71cc75	0.059032876
93	0x3d908f67	0.07058602
94	0xbde3e457	-0.11127537
95	0xbd48ca35	-0.049020965
96	0xbd989000	-0.07449341
97	0x3dfdbc29	0.12389404
98	0xbd33b156	-0.043870293
99	0x3da20a9d	0.079121806
100	0x3db07709	0.08616454
101	0x3dd41a4d	0.10356579
102	0xbda66354	-0.08124414
103	0x3d7a6601	0.061132435
104	0xbd28aec8	-0.04118231
105	0x3d62f57d	0.055409897
106	0xbd88ffdf	-0.066894285
107	0x3cde84c5	0.027162919
108	0x3d1eb957	0.038750973
109	0x3dae5bcf	0.08513605
110	0xbd8bdab1	-0.068288215
111	0xbde48dd9	-0.11159868
112	0xbd1bbd79	-0.038022492
113	0xbda15d3a	-0.0787911
114	0xbe28db25	-0.16489847
115	0x3dadc477	0.08484738
116	0x3bdf8ea4	0.006822424
117	0xbdb9a8f8	-0.09065431
118	0x3d21a7ed	0.039466787
119	0xbd6636d8	-0.056204647
120	0xbd741f25	-0.059600014
121	0xbb945f03	-0.004527928
122	0x3d948740	0.072523594
123	0xbb285a39	-0.0025688543
124	0x3e0a9d74	0.13536626
125	0xbdb15b85	-0.08660034
126	0x3cca5f21	0.024703564
127	0x3df425ca	0.1192127
128	0xbcd4e3c8	-0.02598752
129	0x3d931779	0.071822114
130	0x3dca9f3c	0.09893653
131	0xbd6087c6	-0.054816984
132	0x3bd5c687	0.0065239104
133	0x3cc00261	0.023438634
134	0x3e18bded	0.14916201
135	0xbce04fdf	-0.027381836
136	0x3cdb35eb	0.026759109
137	0x3d40915b	0.04701362
138	0xbdc85983	-0.09782698
139	0xbe183d80	-0.1486721
140	0xbdeae693	-0.1146976
141	0x3e099ee8	0.13439524
142	0xbd5dcd01	-0.054150585
143	0x3c0b1f38	0.00849133
144	0xbe034df3	-0.12822704
145	0xbc571aaa	-0.013128916
146	0xbd827187	-0.0636931
147	0xbc80379c	-0.015651517
148	0xbb3f23f5	-0.002916572
149	0x3dcb70a3	0.09933593
150	0x3d8250e3	0.06363084
151	0x3db403f5	0.08789817
152	0x3c8677b4	0.0164145
153	0x3da9da0f	0.082935445
154	0xbe0e57df	-0.13900708
155	0x3cb498d4	0.02204553
156	0x3dbc6fb4	0.09200993
157	0x3d975918	0.0739004
158	0xbe12de0c	-0.14342517
159	0xbd1d4c9d	-0.038403142
160	0x3d2966e7	0.0413579
161	0xbd132041	-0.03591943
162	0xbe10b6b7	-0.141322
163	0x3c7d3006	0.015453344
164	0xbd210031	-0.039306823
165	0x3d547539	0.051869605
166	0x3e12ef33	0.1434906
167	0x3c00376d	0.007825715
168	0x3d93e9d6	0.07222335
169	0x3d4a11e1	0.049333457
170	0x3c988ca4	0.01862175
171	0xbd4feddb	-0.050763946
172	0xbddd23ce	-0.10797845
173	0x3e18eedb	0.14934866
174	0xbdea8315	-0.11450783
175	0x3de0c054	0.10974184
176	0x3d216cae	0.039410286
177	0x3d01f0cd	0.031723786
178	0xbdd00d73	-0.10158815
179	0xbbe11ccc	-0.006869888
180	0xbddb7fb4	-0.10717717
181	0xbd6af310	-0.05736071
182	0xbd8a6655	-0.067577995
183	0xbdef3e9f	-0.11681866
184	0xbceecb10	-0.029149562
185	0xbd3bdb9e	-0.04586374
186	0xbe26f087	-0.16302691
187	0x3d6870b6	0.056748115
188	0x3d9ee803	0.077590965
189	0x3d732d74	0.05936952
190	0x3e2b5d53	0.16734819
191	0x3dfda462	0.12384869
192	0x3d2c9009	0.04212955
193	0x3d094a3d	0.033518065
194	0x3cc94e45	0.024573455
195	0x3e104b71	0.14091279
196	0xbd8fc526	-0.07020025
197	0x3bb1fc97	0.0054317224
198	0x3c46922b	0.01211981
199	0xbccbdc2a	-0.024885256
200	0xbcd52166	-0.026016902
201	0xbd135e63	-0.035978686
202	0xbdf9f451	-0.12204803
203	0xbdaedd9b	-0.08538362
204	0xbd29920b	-0.041399043
205	0x3cd2b12c	0.025719248
206	0x3d6a1395	0.05714758
207	0xbd1a4e7f	-0.037672516
208	0xbca2b070	-0.019859523
209	0x3d6942c6	0.056948446
210	0x3e1e8c8b	0.154833
211	0x3d1da0a1	0.038483266
212	0x3d7a3efe	0.06109523
213	0x3ac70952	0.0015185273
214	0xbd9d0448	-0.07666832
215	0x3d7e6ac9	0.062113557
216	0xbd5d6723	-0.054053437
217	0x3c153e0f	0.009109034
218	0x3d082773	0.033240747
219	0xbd5dff55	-0.05419858
220	0xbc70c167	-0.014694548
221	0x3a9d100c	0.0011982932
222	0xbce24236	-0.027619462
223	0x3e21fa93	0.15818243
224	0x3cc414c4	0.023935683
225	0xbd55987a	-0.052147366
226	0xbd9a6d43	-0.07540371
227	0xbc5072a3	-0.012722644
228	0xbdea42ac	-0.11438498
229	0x3e127a2f	0.14304422
230	0xbd0c64d1	-0.034275834
231	0xbce44925	-0.02786691
232	0xbe1558bd	-0.14584632
233	0xbd071b81	-0.032985214
234	0xbd981568	-0.07425958
235	0xbd8a05d0	-0.0673939
236	0xbdab02ee	-0.08350168
237	0xbd76b841	-0.060234312
238	0xbdbee056	-0.093201324
239	0x3dccb983	0.09996321
240	0x3d15daf1	0.036585752
241	0x3d4ff51c	0.050770864
242	0xbd2fec38	-0.042949885
243	0x3d2a6991	0.041604582
244	0xbd1de8bc	-0.03855203
245	0x3d094b8c	0.033519313
246	0x3c3b92f8	0.011448614
247	0xbdbbd51a	-0.09171505
248	0x3daa3358	0.08310574
249	0x3c8bf60f	0.017085103
250	0x3b20c99f	0.0024534238
251	0xbe1e97f7	-0.15487657
252	0x3e1b3a2f	0.15158914
253	0x3d69b011	0.057052676
254	0x3da532f7	0.080663614
255	0xbd5037cd	-0.050834466

lstm.bias_ih_l1 f4 [256]
0	0xbc39fa52	-0.011351185
1	0x3ca7230c	0.020402454
2	0xbdb75bab	-0.08953031
3	0x3d875fa1	0.06610037
4	0x3d92c741	0.07166911
5	0x3d36cf85	0.0446315
6	0x3e054949	0.13016237
7	0x3e0fade7	0.14031182
8	0x3dcb1d94	0.09917751
9	0x3d88280a	0.06648262
10	0xbd998bfd	-0.07497404
11	0x3d60dde8	0.054899126
12	0xbce397c3	-0.027782327
13	0x3dfce6a0	0.12348676
14	0xbd847e7b	-0.06469437
15	0x3d11235b	0.03543411
16	0x3ccbcb11	0.024877103
17	0x3e009286	0.12555894
18	0xbda24661	-0.0792358
19	0x3de3b193	0.11117854
20	0xbd2aa39a	-0.04165993
21	0xbd8a9e4c	-0.06768474
22	0x3d914856	0.07093875
23	0x3dfe8faa	0.124297455
24	0x3e0346e9	0.12820019
25	0x3cb6878b	0.022281429
26	0x3d2688d6	0.04065784
27	0xbcd62e6b	-0.02614518
28	0x3c87479f	0.016513644
29	0xbca53952	-0.020168934
30	0xbd10f6df	-0.035391685
31	0xbd9d4021	-0.07678247
32	0xbd26ac04	-0.04069139
33	0x3dd532b3	0.10410061
34	0x3d9dbd97	0.07702177
35	0x3d786823	0.060646188
36	0xbd65ff4c	-0.056151673
37	0x3dcb316b	0.09921535
38	0xbda5e6d8	-0.081006706
39	0xbca47a23	-0.02007777
40	0x3dc35960	0.09538531
41	0xbdab2f3c	-0.083586186
42	0x3d4a1903	0.04934026
43	0xbcc14dfe	-0.02359676
44	0x3e0f6915	0.1400493
45	0xbd8bfd3e	-0.068354115
46	0x3cb242ac	0.021760307
47	0x3c5316ec	0.012883883
48	0xbd0db243	-0.03459383
49	0xbdae2d6a	-0.08504756
50	0x3de8fe73	0.11376657
51	0x3e1e0d5a	0.1543478
52	0xbc4ca08c	-0.012489449
53	0x3e20d178	0.15704906
54	0x3c87529d	0.016518885
55	0xbdf615d6	-0.120158836
56	0x3c3b2552	0.011422472
57	0x3dc44e7c	0.09585282
58	0x3d36de3d	0.044645537
59	0xbd790ebc	-0.060805067
60	0x3c90d973	0.017681813
61	0x3cb37aa8	0.021909073
62	0xbb8ba500	-0.004261613
63	0xbd64cd31	-0.05585975
64	0xbd2d4245	-0.042299528
65	0x3e1c41de	0.15259501
66	0x3d34377a	0.04399822
67	0xbd25c2fd	-0.04046916
68	0x3dcd79f6	0.10033028
69	0x3e116144	0.1419726
70	0xbd51ab0a	-0.051188506
71	0xbd8369cd	-0.06416664
72	0x3df3fd54	0.11913553
73	0x3db53b74	0.088492304
74	0x3d298d78	0.04139468
75	0xbdc39829	-0.095505066
76	0x3dd9751d	0.10618041
77	0x3deebf10	0.11657536
78	0xbcefa9ba	-0.029255737
79	0x3dd98fd2	0.10623135
80	0x3d9e4170	0.07727325
81	0x3dcbe478	0.09955686
82	0x3dd7b647	0.105328135
83	0xbd9eb3b0	-0.077491164
84	0x3cc98b0c	0.024602436
85	0xbdbc9c99	-0.09209556
86	0xbd94949c	-0.072549075
87	0xbd7fe94d	-0.062478352
88	0xbc8010f2	-0.01563308
89	0x3c5840c6	0.013199037
90	0x3e0a0acc	0.13480681
91	0xbd063010	-0.03276068
92	0x3dc95504	0.098306686
93	0x3c01287e	0.007883189
94	0x3d91821f	0.07104897
95	0x3d9332ec	0.07187447
96	0x3df00be6	0.117210194
97	0xbcac3747	-0.021022452
98	0x3d0c5b97	0.034267034
99	0x3d1dc933	0.038521957
100	0x3c925f78	0.017867789
101	0x3dab1368	0.08353311
102	0xbd3b002f	-0.045654472
103	0x3d882221	0.066471346
104	0x3e1b30ec	0.15155381
105	0xbd9b5e41	-0.07586337
106	0xbd54493e	-0.05182766
107	0xbd3241ae	-0.04351967
108	0xbdb8c357	-0.09021633
109	0x3de26370	0.110541224
110	0xbd7bb92d	-0.061455894
111	0x3dfe123c	0.12405822
112	0x3d9797fc	0.074020356
113	0xbbf31249	-0.0074179512
114	0xbb937f23	-0.00450124
115	0xbc66c506	-0.01408506
116	0xbb7f15be	-0.0038922871
117	0x3ca6f74e	0.020381596
118	0xbbc5bab6	-0.0060342206
119	0x3d93aaae	0.07210289
120	0x3df7e2c9	0.12103803
121	0xbd727b16	-0.059199415
122	0xbbbff266	-0.0058577536
123	0x3a392672	0.0007062919
124	0x3d35bec2	0.044371374
125	0x3de00892	0.10939135
126	0xbde7af03	-0.11312678
127	0x3d1a2e85	0.03764202
128	0x3d202df3	0.03910632
129	0x3e163941	0.14670278
130	0x3dd6aeec	0.104825824
131	0x3bad3169	0.005285431
132	0x3d1538a7	0.03643098
133	0x3e188508	0.14894497
134	0xbd8cf294	-0.068822056
135	0xbd6b3d64	-0.057431594
136	0xbcf6a5e5	-0.030108402
137	0xbdba668c	-0.091015905
138	0x3db85b13	0.09001746
139	0x3c8e2584	0.017351873
140	0xbe013f68	-0.12621844
141	0x3e178842	0.14798072
142	0x3d57b76f	0.05266517
143	0x3ccf4857	0.025303049
144	0x3d9ac162	0.07556416
145	0xbd5a3e00	-0.053281784
146	0x3db6d204	0.08926776
147	0xbdc61584	-0.096720725
148	0xbd8b9fcb	-0.068175875
149	0x3dca234b	0.09870013
150	0x3d9bd555	0.07609049
151	0x3e05ad66	0.13054428
152	0xbe0997d8	-0.1343683
153	0xbd014d7f	-0.031568047
154	0xbd65a7c4	-0.056068197
155	0x3e08ea23	0.13370566
156	0x3cf22a1b	0.029561093
157	0xbd35bb0f	-0.044367846
158	0xbdb93f19	-0.09045238
159	0xbdc10493	-0.094247006
160	0x3ca78033	0.020446872
161	0x3c2ec717	0.010667584
162	0xbe165336	-0.1468018
163	0xbe07aba8	-0.13249075
164	0x3d046c76	0.03233
165	0xbd7c110c	-0.061539695
166	0x3e0d2766	0.1378456
167	0x3d087229	0.033311997
168	0xbdfeeb7a	-0.12447257
169	0xbdaef3ff	-0.08542632
170	0x3d392661	0.045202617
171	0xbd799f26	-0.06094279
172	0xbd743e00	-0.05962944
173	0xbc5d2284	-0.013496999
174	0x3d7eeed4	0.062239483
175	0x3d4320ac	0.04763858
176	0x3d8c3007	0.06845098
177	0xbcaf5bb9	-0.021406041
178	0xbbeb00a7	-0.0071717086
179	0xbd290db2	-0.041272826
180	0x3d1653fc	0.036701187
181	0xbd9c8d23	-0.07644107
182	0x3cd2956e	0.02570602
183	0xbc0ce8a1	-0.008600385
184	0x3dc3bff9	0.095581
185	0x3defee62	0.1171539
186	0x3c9ebcd9	0.019377159
187	0x3d692702	0.056921966
188	0x3e10589c	0.14096302
189	0x3e16b186	0.14716157
190	0x3cf12343	0.02943576
191	0x3d873ee0	0.06603789
192	0x3d2bcc57	0.04194292
193	0x3db21c16	0.08696763
194	0xbd61143a	-0.05495093
195	0x3d965d4a	0.07342012
196	0xbd49ed2c	-0.04929845
197	0x3db11a8b	0.08647641
198	0x3dbe1026	0.09280424
199	0x3d335b24	0.04378809
200	0x3e252832	0.16128615
201	0xbb074c3d	-0.0020644807
202	0x3dcac146	0.09900145
203	0xbdb1a1e8	-0.08673459
204	0xbca0bc30	-0.019620985
205	0x3d51fad9	0.051264618
206	0x3e129440	0.14314365
207	0xbde9e9c4	-0.114215404
208	0x3cc95ce8	0.024580434
209	0x3dd6ad0f	0.10482227
210	0xbcdf0706	-0.027225029
211	0xbbeedc8d	-0.0072894753
212	0xbca9b3f3	-0.02071569
213	0xbe068064	-0.13134915
214	0x3d8ae791	0.06782449
215	0x3de73bfb	0.11290737
216	0x3d9e02c5	0.07715372
217	0x3dec3a33	0.11534538
218	0xbd57f8fc	-0.052727684
219	0x3e0b70b3	0.1361721
220	0x3ce88ce8	0.028387502
221	0x3c06858f	0.008210554
222	0x3e133fd1	0.14379813
223	0x3e0997a2	0.1343675
224	0x3d9f3cb2	0.077752486
225	0x3d7dcb69	0.061961565
226	0x3d3a1e20	0.045438886
227	0x3e28241a	0.16420022
228	0x3e0cbf34	0.13744813
229	0x3ddcc605	0.10779957
230	0xbda8a9cb	-0.082355104
231	0x3ca944e0	0.020662725
232	0xbd9799f7	-0.07402413
233	0x3df918b1	0.12162913
234	0x3d519841	0.05117059
235	0x3c9d5964	0.019207664
236	0x3d6a6e15	0.05723389
237	0x3cfa20a3	0.03053314
238	0xbd4066d4	-0.046973065
239	0x3dde75d6	0.10862319
240	0x3e1c6564	0.15273052
241	0xbd9c6fa4	-0.07638481
242	0x3d83adef	0.064296596
243	0x3db702ec	0.08936104
244	0xbd6fd76b	-0.058555048
245	0xbcf795dc	-0.030222826
246	0xbd53d8af	-0.051720317
247	0xbcac2cfc	-0.021017544
248	0x3ddc2a5d	0.10750268
249	0xbdb7e3fe	-0.08979033
250	0x3d480d0d	0.04884057
251	0x3d3d4bd7	0.046214905
252	0x3dcc6321	0.09979845
253	0x3e2619fd	0.16220851
254	0x3ca01fd3	0.019546425
255	0x3d918747	0.0710588
