models/trained_hybrid_model(1).pth_gnn.pth (torch, 13176 bytes, 6 tensors)

conv1.bias f4 [64]
000000 cf ce a7 bc 0c 72 0a 3c 52 b1 9d bb 22 39 35 3b
       -0.020484356 0.008450042 -0.004812398 0.0027652462
000010 35 d6 51 bb d0 c9 b9 3c e4 5f ae bc 9c 8a fb bc
       -0.0032018546 0.02267924 -0.021285959 -0.030705743
000020 17 07 ac 3b c7 7c fc 3a b8 3e 75 bb 65 6f 60 bc
       0.0052498686 0.0019263261 -0.0037421416 -0.0136984335
000030 2a 7a 31 bc 95 58 ce bc 1b 6c c3 3c 4c da 86 bc
       -0.010832349 -0.025188724 0.02385526 -0.016461514
000040 51 63 24 3c c5 0a 57 3c 3c 0a 1b bc 56 8f d5 3c
       0.0100334445 0.013125126 -0.009462889 0.026069324
000050 25 21 dc bc 9b 4c 49 bb c9 0d 83 3c c5 25 92 bc
       -0.026871273 -0.0030715826 0.015997784 -0.017840276
000060 cf 89 63 3c c0 05 4e 3c fc 48 80 3c c4 fd 9a bc
       0.013887837 0.012574613 0.015659802 -0.018919833
000070 ad e6 19 3b cf 04 57 3c 91 ba 99 bc 64 c4 ec bc
       0.002348344 0.013123705 -0.01876572 -0.02890224
000080 df d7 4d 3c 9c 30 b8 3b 7c 19 85 bb 1b 0f 90 bb
       0.012563675 0.005621029 -0.004061876 -0.004396332
000090 9b 16 a7 bc 4d 30 8b ba 68 37 af 3c b3 f8 c4 3b
       -0.020396521 -0.0010619253 0.021388724 0.0060110926
0000a0 5c 9b 2b bb 7f 1f 8a 3c b9 5f dc bc 02 6a 9d bc
       -0.002618513 0.016860722 -0.026901113 -0.019215588
0000b0 78 bb d6 bb c1 55 28 bc ae 24 bd bc 7b a9 ed 3a
       -0.0065531097 -0.010274352 -0.02308878 0.0018132174
0000c0 71 aa 65 3c be e5 b3 bc 14 d6 54 bb e1 9f 04 bd
       0.014017687 -0.021960136 -0.0032476233 -0.032379035
0000d0 66 20 f6 bb 54 b5 bd bc 35 aa 6b bc 00 1b c8 3c
       -0.0075111864 -0.023157753 -0.014383842 0.024426937
0000e0 34 d2 c7 bc f7 d3 55 bc 6d 3f 7f bc 94 59 8a bc
       -0.024392225 -0.013051025 -0.015579087 -0.016888417
0000f0 38 4c 24 bb a5 fb 5b 3c 21 fa 01 bd 1f 97 94 bc
       -0.0025069844 0.013426696 -0.031732682 -0.018138466

conv1.lin.weight f4 [64, 4]
000000 27 3e 74 be 50 c4 86 bd 3d 1b e2 bd 73 bf 0c be
       -0.23851834 -0.065804124 -0.110403515 -0.13744907
000010 df f0 ce 3d b7 1b 92 3e d8 43 04 3e 79 3d 97 3c
       0.10104536 0.2853677 0.12916505 0.01846193
000020 58 7c 3a 3e 9a 9f 3e be 76 c4 d9 3d 56 e4 07 be
       0.18211496 -0.1861557 0.10633175 -0.13270697
000030 ac 9d 5c 3e 6d 2a 17 be ae f3 1d bd e3 4d 75 be
       0.21544522 -0.14762278 -0.03856247 -0.23955493
000040 6e da 4f 3e 98 de 8c 3e 7d 77 3b be b8 8f 25 3e
       0.20298168 0.27513576 -0.183073 0.16168106
000050 e5 d8 22 3e d6 03 6a 3d ec a0 05 be 15 b9 9c 3e
       0.15903051 0.057132564 -0.13049668 0.30609956
000060 97 74 36 3e 5f 47 c1 bd b5 dd 38 be 67 e6 dd 3d
       0.17817913 -0.09437441 -0.18053325 0.108349614
000070 d3 49 29 3e ef ce 96 ba a0 79 99 be 88 6e c0 bd
       0.16532068 -0.0011505763 -0.29975605 -0.09396082
000080 f9 b9 34 be e2 ff 35 3e 04 d5 8b be 14 eb f7 ba
       -0.17649068 0.17773393 -0.27310956 -0.0018914663
000090 b3 8c ed 3d 08 ad 5e be b6 f4 72 3e d5 c6 dd 3d
       0.11599102 -0.21745694 0.23726162 0.1082894
0000a0 cf c7 8d be ed 27 93 3e 7f 73 89 be 80 14 f5 3d
       -0.27691504 0.28741398 -0.2684593 0.11966801
0000b0 72 e1 98 3d c8 05 09 be 58 20 1c be 01 d4 2c be
       0.07464875 -0.13381112 -0.15246713 -0.16877748
0000c0 19 1e c0 3c d9 0e 5f 3e b1 d2 60 bd 1c c6 25 3e
       0.023451852 0.21783008 -0.05488843 0.16188854
0000d0 5b 6b 7d 3e 82 38 68 3e 0e ed 38 be 2f 20 45 be
       0.24747984 0.22677806 -0.18059179 -0.19250558
0000e0 4b d0 91 3e c4 79 99 3e 55 53 64 3e 5e c4 9b 3c
       0.28479227 0.29975712 0.22297414 0.019014534
0000f0 6e bd 10 bd 79 07 a4 3d f0 33 2b be c9 52 39 be
       -0.035336904 0.08009238 -0.16719031 -0.18097986
000100 7c 6f cd 3c d4 cb ad 3d b1 49 b3 bd cc f2 8d 3e
       0.025077574 0.08486143 -0.0875429 0.27724302
000110 c6 59 3f be 5d 2f 83 3e 4a 85 55 3c e8 11 ca bd
       -0.1868659 0.25622073 0.013032267 -0.098666966
000120 11 bd c6 3b 1c 15 12 be 14 b6 25 bd 36 b7 94 3c
       0.006065019 -0.14265865 -0.040456846 0.018153768
000130 29 16 12 3c 81 36 3d 3e 13 74 30 3e 76 b7 9d 3d
       0.008916416 0.18477823 0.17231779 0.07701008
000140 41 6b 25 3c b9 d1 2c 3e 9b 16 9e be 17 df 8a be
       0.010096372 0.16876878 -0.30876622 -0.2712333
000150 b5 f9 f8 bd a6 7d c5 bd 77 da 09 3e b5 ce 6c be
       -0.12157003 -0.09643106 0.13462244 -0.23125727
000160 dd 7b 96 3e 13 85 57 3e 11 36 a6 3b 4b 8c a4 3c
       0.29391375 0.21046858 0.005072363 0.020086428
000170 f3 f5 38 be a9 f7 d8 bd 3f 39 ce bd d4 85 16 bd
       -0.18062572 -0.105941124 -0.100695126 -0.036748722
000180 07 67 b8 bd 4f 6d 01 3e a7 2c 63 3d e0 dc e8 3d
       -0.09004026 0.12639354 0.055462506 0.113702536
000190 da 5b 7d 3e 51 c0 a0 3c fa c1 40 3d 8b 13 6d be
       0.2474207 0.019622954 0.04705999 -0.23151986
0001a0 1b c0 ee 3b 03 24 1b be 3a 57 56 be bb 3d a4 bd
       0.0072860844 -0.15150456 -0.20931712 -0.08019587
0001b0 2a 3e 19 ba 2a 8c d6 bd b0 1d 3b be a9 1f 2c be
       -0.000584575 -0.10475953 -0.18273044 -0.16808952
0001c0 4b fb 25 3d 3c 6f 3d be 45 bd a3 3e a5 f8 74 be
       0.040522855 -0.18499464 0.3198034 -0.23922975
0001d0 fa f2 95 3e 4d ba 97 3e b6 15 9b 3e 5f 9e 15 3e
       0.2928694 0.29634324 0.30290002 0.14611195
0001e0 4d 77 13 3e 3c f7 24 be fc c4 92 be 72 9a bc 3d
       0.14400978 -0.16109937 -0.28665912 0.092091456
0001f0 1d a9 14 3d 44 ed ea ba 5d e0 c9 bc 4a 69 1e bd
       0.03629409 -0.0017923494 -0.024643118 -0.03867463
000200 4c d7 87 be 69 41 40 3e 1c 9e 7e be 0f 4f 60 bd
       -0.26531446 0.18774952 -0.24865001 -0.054762896
000210 53 dc d4 bc af 7c 72 be 07 31 77 be 14 43 15 bd
       -0.025983965 -0.23680376 -0.24139796 -0.036440924
000220 30 2e 29 be 45 fd 2a 3e ff 21 45 3e df a8 42 3d
       -0.16521525 0.16698177 0.1925125 0.04752433
000230 f1 1a 40 3c de a3 75 be 56 b8 e4 bc 34 98 50 3e
       0.011725173 -0.23988292 -0.02791993 0.20370561
000240 42 33 18 3e 22 95 ba bd 94 32 61 be 1b 4e 05 be
       0.14863303 -0.09110476 -0.2199195 -0.13018076
000250 73 12 7d 3d 26 8b 58 be 08 24 c0 bd 86 84 22 3d
       0.061785173 -0.21146831 -0.093818724 0.039677165
000260 bd 63 10 bd 54 3d 75 3e 75 63 82 bd 6e 95 11 be
       -0.035251368 0.23949176 -0.06366626 -0.14217159
000270 64 74 ff bd 2c 37 fb bd e8 37 af bd ab ea 85 bd
       -0.124733716 -0.122663826 -0.08555585 -0.065389
000280 d1 97 1c 3e 68 af 0f be ed ed 52 be a4 75 0f be
       0.15292288 -0.14031756 -0.20598574 -0.1400972
000290 43 2c 46 be 82 3d 49 3e d3 48 c6 3c 12 e0 cc bd
       -0.19352822 0.1965237 0.024204647 -0.100036755
0002a0 22 c4 41 3e c8 59 dd 3d 87 c0 39 bd 37 e8 05 be
       0.18922475 0.1080814 -0.045349624 -0.13076864
0002b0 00 6a 17 3d 43 b6 41 be b8 f1 34 3e 34 8e 7b 3e
       0.036966324 -0.18917184 0.17670333 0.24565965
0002c0 51 50 0e bd e2 f3 08 3d d2 82 77 be 95 47 1e 3e
       -0.034744564 0.03343571 -0.24170998 0.15456994
0002d0 28 d7 0d be 1d 2a 0b be 23 89 44 bd ff 27 a8 3d
       -0.13851607 -0.13590284 -0.047982346 0.08210754
0002e0 77 30 47 be 1c a4 28 3e a2 d9 46 3e f9 9b 81 3d
       -0.19452082 0.16468853 0.19418958 0.063285775
0002f0 d9 81 34 bd 03 3e 69 be d7 b6 e2 3b 8d 01 c8 bd
       -0.044069145 -0.22777562 0.006918769 -0.09765921
000300 7a 0d 16 3e 1c 15 54 3e 77 40 80 be e4 04 59 be
       0.14653578 0.20711178 -0.25049183 -0.21193272
000310 39 98 8f be 1d 97 3b bd 02 8f 2c 3e 48 47 5c be
       -0.28045824 -0.04579841 0.16851428 -0.21511567
000320 25 87 a2 bd 1f dd 2f be f4 8b 9b bc 6d e4 f6 3d
       -0.07935933 -0.17174195 -0.018987633 0.120552875
000330 a8 77 e0 3d c4 ed 3e 3b c5 b3 cd 3b 92 a0 55 be
       0.109603226 0.0029133419 0.0062775337 -0.20862034
000340 bf a2 41 3d bd 6a de bc f7 6e 54 3e fd 76 9e bc
       0.047274347 -0.027150506 0.20745455 -0.019343847
000350 44 d6 1a 3e 51 6e 57 bd 51 a3 f4 3d 2a 94 67 3e
       0.15120798 -0.05259544 0.11945213 0.22615114
000360 ca 87 7e bd 0a 44 12 be ca 63 70 be c6 5d 87 3e
       -0.062141217 -0.14283767 -0.23475567 0.2643873
000370 74 c9 21 3e 11 8b 91 3e 9b 70 f3 3d ca 33 56 3e
       0.15799505 0.28426412 0.11886712 0.20918193
000380 a3 81 f7 3c a7 65 56 bd 87 c5 42 3e 56 07 80 bd
       0.030213183 -0.052343037 0.19020663 -0.06251399
000390 10 89 16 3e 83 58 3d be 80 7d 5f 3e a2 97 d4 3d
       0.14700723 -0.18490796 0.21825218 0.10380484
0003a0 db ce 87 3d ec 82 0c be 83 13 0d b8 96 0b 16 be
       0.066312514 -0.13721818 -3.363519e-05 -0.14652857
0003b0 14 8e d9 3d 50 b7 16 be 12 ad f4 bd 7f 46 e8 3b
       0.106228024 -0.14718366 -0.11947073 0.007088482
0003c0 69 12 19 3e 06 4f 1c be 53 b9 e5 bd 73 8f 49 3e
       0.14948429 -0.1526452 -0.112169884 0.19683628
0003d0 05 9d 46 3d a4 2f 72 3e 3d bd 1f 3e 38 5f 73 be
       0.04848959 0.23650986 0.15599532 -0.23766792
0003e0 a2 e3 1d 3e d9 c5 80 3d bb 19 3c 3d 31 a4 20 3e
       0.15418866 0.062877364 0.045922976 0.15687634
0003f0 3d 1d 76 bc d1 bf e3 bd 60 d7 69 bd 70 8d 2e be
       -0.015021619 -0.111205705 -0.057090163 -0.17046142

bn1.weight f4 [64]
000000 00 00 80 3f 1b 92 83 3f 8e 39 7e 3f 92 14 81 3f
       1.0 1.0278963 0.9930657 1.0084403
000010 c9 b6 84 3f ee ab 84 3f d6 81 81 3f 8d 49 79 3f
       1.0368282 1.0364969 1.0117748 0.97377855
000020 59 02 84 3f e0 92 80 3f ab 8e 83 3f 00 00 80 3f
       1.0313216 1.0044823 1.0277914 1.0
000030 90 a4 84 3f 29 65 7d 3f 05 d9 84 3f 51 7b 7f 3f
       1.036272 0.98982483 1.0378729 0.9979754
000040 12 96 84 3f 47 6d 84 3f fc 2e 81 3f 0e 92 84 3f
       1.0358298 1.0345849 1.0092463 1.0357072
000050 56 ff 7e 3f 15 b1 7e 3f c6 ee 83 3f 00 00 80 3f
       0.9960836 0.99488956 1.0307243 1.0
000060 55 b1 84 3f 15 72 84 3f 94 d6 81 3f 00 00 80 3f
       1.0366617 1.0347315 1.0143609 1.0
000070 1c 3e 7f 3f 7d 8b 83 3f 93 b3 7c 3f 69 eb 79 3f
       0.99704146 1.0276943 0.9871151 0.9762483
000080 53 b7 84 3f c5 bf 7f 3f ac bb 80 3f 3e e2 78 3f
       1.0368446 0.9990199 1.0057273 0.9722022
000090 1e c9 81 3f 5c 81 7f 3f d7 78 84 3f 89 cb 81 3f
       1.0139501 0.9980676 1.0349377 1.0140239
0000a0 b4 b3 7f 3f cf 7c 83 3f a5 68 7a 3f f6 33 78 3f
       0.9988358 1.0272464 0.97815925 0.96954286
0000b0 2f fc 81 3f 2a ad 80 3f 68 22 81 3f 8a a0 7e 3f
       1.0155085 1.0052845 1.0088625 0.99463713
0000c0 0f 7b 84 3f 00 00 80 3f f5 91 83 3f fc 87 78 3f
       1.0350055 1.0 1.0278918 0.97082496
0000d0 33 55 7f 3f f5 20 82 3f 97 56 7d 3f 15 1e 84 3f
       0.9973938 1.0166308 0.9896025 1.032168
0000e0 b2 e8 7b 3f ee 40 7c 3f 00 00 80 3f 99 f0 7f 3f
       0.9840194 0.98536575 1.0 0.999765
0000f0 3f 10 84 3f c9 ea 82 3f 4e d9 7a 3f 00 00 80 3f
       1.0317458 1.0227901 0.9798783 1.0

bn1.bias f4 [64]
000000 00 00 00 00 21 9e e0 3c 6b ef 3c bc ca 27 fd 3b
       0.0 0.027419152 -0.011531691 0.0077256905
000010 71 41 17 3d 94 e8 0d 3d e5 63 9a 3c 68 f5 f2 bc
       0.036927644 0.034645632 0.018846462 -0.029658034
000020 08 40 f9 3c d2 5d c8 3b bd a4 e2 3c 00 00 00 00
       0.03042604 0.0061147 0.027666444 0.0
000030 4e 62 15 3d 35 5a 1e bc b9 26 18 3d 1b 22 8f 39
       0.036470704 -0.009665062 0.037146304 0.00027300496
000040 d8 25 06 3d e7 f0 0d 3d 98 8d 61 3c b7 04 0d 3d
       0.032750934 0.03465357 0.013766669 0.034428325
000050 73 1a 11 bb e2 b7 98 bb 64 fa f8 3c 00 00 00 00
       -0.002214101 -0.0046605924 0.030392833 0.0
000060 37 4c 0d 3d 2c dc f6 3c e2 d3 5c 3c 00 00 00 00
       0.034496512 0.030134283 0.013478251 0.0
000070 18 6e 2e bb a9 80 df 3c 62 31 62 bc 0a f1 e5 bc
       -0.0026615914 0.02728303 -0.013805719 -0.028069038
000080 b5 11 17 3d 2f b6 4a 3a 45 4f c2 3b 57 bc f2 bc
       0.03688212 0.0007732836 0.00592986 -0.029630823
000090 8c 47 91 3c e7 3d 9b 3a 2f a2 0c 3d a3 0e 15 3c
       0.017734312 0.001184401 0.034334358 0.009097728
0000a0 13 29 59 bc 24 39 da 3c 31 3f b9 bc 2f 9b 01 bd
       -0.013254422 0.026638575 -0.02261314 -0.031642135
0000b0 bc 00 8e 3c 96 8a 95 3a c9 b6 1b 3c d4 8d a0 bb
       0.017334335 0.00114091 0.009504029 -0.0048997197
0000c0 2f 21 0c 3d 00 00 00 00 ed 4c e0 3c 5e 92 05 bd
       0.034211334 0.0 0.027380431 -0.03261029
0000d0 6a 27 24 3b 9f b4 cb 3b 9c f8 42 bc 1c 4f 01 3d
       0.0025047907 0.0062166 -0.011900093 0.031569585
0000e0 03 96 78 bc 88 18 74 bc 00 00 00 00 be 9a 93 bb
       -0.015172484 -0.014898427 0.0 -0.0045045307
0000f0 e6 7b 09 3d eb 52 b9 3c 66 c0 a6 bc 00 00 00 00
       0.033565424 0.022622546 -0.020355415 0.0

conv2.bias f4 [32]
000000 5e 9a fa 3c 48 c5 01 3d 5f 6d 43 bc 50 3b 5a 3b
       0.030591186 0.031682283 -0.011927932 0.0033299513
000010 f4 98 fc bc 07 ce df 3c 6b d1 b5 bc 29 ec e5 3c
       -0.030834652 0.027319921 -0.022194585 0.028066712
000020 e6 45 56 bc aa 3b 99 3c 27 95 13 3d 44 6b fe 3c
       -0.0130781885 0.018705208 0.036030915 0.031057008
000030 8a 0d d4 bc 22 85 b9 3c b2 d4 b0 bc b1 2f b1 3c
       -0.025885362 0.02264649 -0.021585796 0.021629186
000040 0d fa dc 3c ef d7 10 3d a7 cf 04 3d 08 6e 8b bc
       0.026974702 0.03536218 0.032424595 -0.01702024
000050 eb 8f a9 3b 00 16 cf bc ed d6 f8 bc e2 1a de 3c
       0.005174627 -0.025279045 -0.030375922 0.027112428
000060 64 5f e3 3c 57 69 b1 3c 51 df 63 bc 99 13 f3 bc
       0.027755447 0.021656675 -0.013908223 -0.02967243
000070 51 fe 0c 3d 93 3a 86 3c 1c c5 a7 bc a9 1f 41 3c
       0.034422223 0.016385352 -0.020479731 0.0117873335

conv2.lin.weight f4 [32, 64]
000000 a0 5c 40 be e9 68 87 3e 33 db 7b 3e 7e f2 77 3d
       -0.18785334 0.26447228 0.24595337 0.060533993
000010 3e 20 83 3e 25 c7 c1 3d 1b de 3e 3e 08 57 38 3e
       0.25610536 0.09461812 0.18639414 0.1800195
000020 4c 05 ab 3d d2 5b ee bd 9d 5d 7b 3e 4e 9f 5a be
       0.0835062 -0.11638607 0.2454743 -0.21349832
000030 84 07 65 3e f9 46 94 bd ca 44 1d 3e a3 40 95 3d
       0.22366148 -0.072400995 0.15358272 0.07287719
000040 f1 d9 33 3e b9 ea 45 3e 1f ae b6 bd c9 0c c8 bc
       0.17563607 0.19327821 -0.0891993 -0.024420159
000050 bc d8 81 3d 84 80 6f bb ea ea 2d 3e 90 7e ee bd
       0.06340167 -0.0036545107 0.16984144 -0.11645234
000060 d6 33 4b 3e ef 69 e0 3d ec e4 48 3e 94 3e 82 bd
       0.19843993 0.10957705 0.19618577 -0.06359592
000070 38 a4 6e 3e a9 ba 10 be 5b 9e 01 3e f2 75 03 3e
       0.23304832 -0.14133705 0.12658064 0.12837961
000080 ee 5f 24 3e 76 ed 3c 3d 33 84 2d be 41 f7 fa 3d
       0.1605222 0.046124898 -0.16944961 0.12254191
000090 d7 cb 67 3e 8e 04 1a 3e bc ac 3a 3c 21 ee cf bd
       0.22636352 0.150408 0.011393722 -0.10152841
0000a0 84 85 b7 bc bc 3b 56 be 42 46 63 3b da df 53 3e
       -0.022402532 -0.20921224 0.0034679328 0.20690861
0000b0 ad 5e 43 3e 5a 75 9e bd 9a 1a f4 3d aa 10 0d 3d
       0.19079085 -0.07737227 0.11919136 0.03443972
0000c0 47 50 62 bd 1a b0 4d 3e ae a7 30 3d 90 b2 45 be
       -0.05525234 0.20086709 0.04312866 -0.19306397
0000d0 8f e1 f5 3d 2e b4 93 bd b1 80 c3 bc 6a 01 71 3e
       0.120059125 -0.07212101 -0.023865076 0.23535696
0000e0 16 a9 53 be cb a0 a9 3c a4 5d 44 3e 96 e0 43 be
       -0.2066997 0.020706555 0.19176346 -0.19128641
0000f0 71 a4 16 3d 2e 8a 6c 3e ec cb 5f bd 38 b4 f4 bd
       0.036777917 0.23099586 -0.054637834 -0.119484365
000100 3a c3 31 be ee 76 7c bd fb eb 13 3e d0 1f 25 be
       -0.1735963 -0.061636858 0.14445488 -0.16125417
000110 41 97 db 3d 88 30 2d 3e f9 46 67 bc 7d 6f 09 be
       0.10722209 0.16913044 -0.014116042 -0.13421436
000120 c6 cf 67 3d 40 a8 da 3d b8 b8 de bd 94 a8 8c bd
       0.056594633 0.106766224 -0.10875076 -0.06868091
000130 ba b8 2f 3d 6f e3 8a bd 5c 5e 81 3e 1b 1a 8d 3e
       0.04290078 -0.06781661 0.25267303 0.2755898
000140 36 f0 c9 bd 30 e3 86 3c 17 d4 cd bd 1b 70 82 3e
       -0.0986027 0.016465753 -0.100502186 0.25476155
000150 b6 06 a5 bd 5a e8 12 3e bf 0e f4 bb 7a 86 1d be
       -0.08057921 0.14346448 -0.007448047 -0.1538333
000160 ad 5d 1d bd ea 64 68 bc e8 7b 68 be cc 2a a7 3d
       -0.038419414 -0.014184216 -0.22703516 0.0816246
000170 8c e8 6a be 79 26 1e be 0a d6 48 3e 9a 86 c2 3d
       -0.22940272 -0.15444364 0.196129 0.094983295
000180 83 35 54 bd d2 bb 29 be 9e 92 e7 3d bc a8 85 3d
       -0.051808845 -0.16575554 0.11307262 0.06526324
000190 09 0b 36 3e c8 e3 1e be 9c b0 ef 3d 35 da 29 3d
       0.17777647 -0.15516579 0.117036074 0.041467864
0001a0 84 b4 9d bd 1c a6 82 3e 14 11 23 3e 87 7e 5a be
       -0.07700446 0.25517356 0.15924484 -0.21337329
0001b0 ee bf 9b bd aa 91 dd bd 70 6d 96 3d 2a c0 7e 3e
       -0.07604967 -0.10818799 0.07345092 0.24877992
0001c0 49 2b 52 3e 7a 12 07 be 66 90 24 3e a8 e5 14 be
       0.20524324 -0.13190642 0.16070709 -0.14540732
0001d0 ac 51 68 3c a4 a5 5d be e0 6f f5 3c 81 3b 7c 3e
       0.014179628 -0.21645218 0.029960573 0.24632074
0001e0 fe be bd bd fa ba 46 be b8 6a 37 3e 2c df c1 3d
       -0.092649445 -0.19407263 0.17911804 0.09466395
0001f0 1c 2b 88 3d 07 11 f0 bd 64 e5 1a 3e 00 f2 8c bc
       0.066488475 -0.11721998 0.15126568 -0.017205238
000200 22 98 49 be 44 07 6f be 90 5f b1 bd 42 73 17 be
       -0.1968694 -0.23342615 -0.08660805 -0.14790061
000210 4d 54 fa 3c 62 26 1f be 77 18 df 3d eb 00 24 be
       0.030557776 -0.15541986 0.10893338 -0.16015975
000220 36 36 2b be e0 e3 38 be 93 df fc 3c 20 4d 9e bc
       -0.16719899 -0.18055677 0.030868327 -0.019323885
000230 56 8b a2 bb 5a a6 17 be e2 ac 83 be ab 09 fe 3d
       -0.004960458 -0.14809552 -0.25717837 0.12404188
000240 bb a7 24 bb cf 0c e6 bd 48 31 5d be 50 a7 26 be
       -0.002512439 -0.11232912 -0.2160083 -0.16274762
000250 c1 72 c1 3d 91 8c 50 3d c8 10 ed 3c ce f4 1d 3e
       0.09445716 0.050915305 0.028938666 0.15425417
000260 5a 38 07 3e 2c 29 49 3d 36 6f 13 be fc 4b 24 be
       0.1320509 0.04911153 -0.14397892 -0.1604461
000270 ec 77 b3 3c 40 af 4d bd 78 0b e3 3d b0 ca 59 3e
       0.02190777 -0.05021596 0.11086172 0.21268725
000280 41 55 6d be f9 de 04 3e d4 a7 38 bd c3 aa 47 3e
       -0.23177053 0.12975682 -0.04508193 0.19498734
000290 67 84 94 bd 10 6b 40 bd e9 fb 92 bd ca 25 29 be
       -0.07251816 -0.046977103 -0.07176954 -0.16518322
0002a0 ad 91 24 bd ee 03 a8 3b 8d 85 31 3e 2c a2 7b bd
       -0.04017799 0.0051274216 0.17336102 -0.061433956
0002b0 16 4e 98 3c 74 0d e4 bc 45 ec ce 3d 45 29 50 3e
       0.018591922 -0.027838446 0.101036586 0.20328243
0002c0 df 9a a0 3d 60 f6 1e 3e 8e 88 8b 3c 9d f2 60 be
       0.07842039 0.15523672 0.017032888 -0.2196755
0002d0 a2 69 69 3e 1c f5 a7 ba b4 0b 72 bc 28 78 b3 3d
       0.22794202 -0.0012814137 -0.014773298 0.08763152
0002e0 ba b8 5a 3e 4b 67 5f be 2e e3 72 be fc 43 ed 3d
       0.2135953 -0.21816747 -0.23719475 0.115852326
0002f0 72 3e 38 bd 3b 41 15 3e be 56 1e 3d e0 95 c1 3d
       -0.044981427 0.14575665 0.038656943 0.094524145
000300 c2 08 56 be 81 16 e8 3d 74 3f 4e bd 8c ec 89 bd
       -0.20901778 0.11332417 -0.050353482 -0.06734571
000310 73 73 78 3e 2b 93 2b 3d 62 ff ba 3d 9f 44 09 be
       0.2426279 0.041888397 0.09130742 -0.13405083
000320 ba 48 48 bd b5 cd 33 3d c2 01 b4 3d 10 f2 b4 bc
       -0.048897482 0.04389735 0.08789398 -0.02208808
000330 7b d8 2c be 58 23 63 3d 14 24 7f 3d d4 3a aa bd
       -0.16879456 0.05545363 0.062290266 -0.08312002
000340 25 ea 81 3e 90 bf 3a be d4 3b 95 3d 5c c1 6d 3e
       0.2537395 -0.18237138 0.07286802 0.23218292
000350 1d b8 5a be 53 2c 6e be a2 76 17 3d 40 13 6a 3e
       -0.21359296 -0.23259096 0.03697837 0.22858906
000360 dd fa 47 3d 24 60 d1 bd 9d 26 82 3d b4 c9 49 3e
       0.048823226 -0.102234155 0.06355021 0.1970585
000370 3d 56 58 bb 67 64 14 be ac 6a 47 be ac 45 71 be
       -0.0033010386 -0.14491425 -0.19474286 -0.23561734
000380 b0 70 d5 bc 88 f1 1f 3e e9 2d 4e 3b 71 fe 9b bd
       -0.02605471 0.1561948 0.003146047 -0.0761689
000390 ef 7b 1f 3e f4 c7 84 3d 48 78 19 3e 29 dc 7f 3e
       0.1557462 0.064834505 0.1498729 0.24986328
0003a0 1d ef e4 3d a8 f9 cd 3d 1d 1c 71 3c 01 70 9b 3d
       0.1117842 0.10057384 0.014716175 0.075897224
0003b0 a0 d2 75 3e 05 2c b6 bc ad 6d 0e 3e da 49 74 be
       0.24006128 -0.022237787 0.13909025 -0.23856297
0003c0 1b cb fa 3d 20 54 ee 3c 0f 83 75 be 9f 78 9c 3d
       0.122457705 0.029092848 -0.23975776 0.07640194
0003d0 de ac 1b be b0 ad 57 3d e9 5d cb bd 77 de 5c bd
       -0.15202662 0.052655876 -0.09930021 -0.053923097
0003e0 f3 80 0b bd 2e e1 7e be 18 a8 eb bd 8a 1f fc bd
       -0.034058522 -0.24890587 -0.11506671 -0.12310703
0003f0 ee ce 3d 3e 13 2b 67 3d 94 33 3a 3e c0 29 63 3c
       0.18535969 0.056437563 0.18183738 0.013864934
