models/trained_hybrid_model_fixed_lstm.pth (torch, 864776 bytes, 9 tensors)

lstm.weight_ih_l0 f4 [512, 32]
-0.005867522 0.03853202 -0.062314633 -0.049560096 0.0068994923 0.0691875 -0.07124688 0.015978955
-0.015595364 -0.010517479 -0.0020249477 0.07671235 -0.046899136 -0.02815586 -0.06476195 0.07171267
-0.06794489 0.054462917 0.03685519 0.02831411 0.05508562 -0.054665763 -0.009547763 0.07028326
0.026369955 -0.06437962 -0.062057536 0.035983015 -0.07858841 -0.063971266 0.028399693 0.06310827
-0.08103779 0.024091681 0.05236352 0.026848735 0.03832841 -0.01553498 -0.06340718 0.033959493
0.05364521 -0.041334588 0.011493843 -0.03174318 0.062534705 0.07509799 -0.061344523 0.052589286
0.012643142 -0.06980798 0.009411757 0.04157683 -0.011316432 0.04246677 0.053454198 -0.0015484118
0.03276677 0.035303023 0.014571173 0.070827134 -0.076194055 -0.06775956 -0.027037052 0.039231397
-0.036039717 -0.016244233 -0.08179818 -0.042853408 -0.05130927 -0.06282363 -0.046200387 0.04379907
-0.02057248 0.019555755 -0.05555461 -0.009597619 0.095393 0.05323794 0.08606143 -0.016275922
-0.015438084 0.015140268 0.09078448 0.06857098 -0.08555176 -0.026265046 0.026416264 -0.05907598
0.0395561 -0.10266342 0.087639794 0.0073098904 -0.025678864 -0.0035976542 0.07669959 -0.044199888
-0.04496449 0.038207404 -0.04803061 0.06134493 -0.032997895 0.025184808 -0.018623726 -0.019146122
-0.020285068 0.06410759 0.028888451 0.06589143 0.020452213 -0.020428708 -0.045210492 0.046015147
0.0529792 -0.044513177 -0.059139155 0.056924354 -0.053592708 -0.023340221 -0.013426657 -0.06742519
-0.08986948 -0.04348462 0.064580366 -0.019142572 0.05594072 -0.06704096 -0.061188705 -0.02367745
0.06726799 0.055785984 -0.063178115 -0.039610915 -0.052183338 -0.04751532 0.011386124 0.036589324
-0.022596199 -0.06300862 0.058357637 -0.0664415 0.037500717 0.060415566 -0.067162775 -0.03609982
0.07448064 0.054093197 -0.036196724 -0.016110543 -0.0923278 0.043431904 -0.019224735 -0.03102103
0.003163917 0.019666955 -0.063180074 -0.033291817 0.07288584 -0.016882362 -0.011079716 -0.06069778
-0.012859048 -0.02975264 -0.031894315 -0.037921578 0.0066832243 0.051239174 -0.05585974 0.009250056
0.06636512 -0.012432615 -0.020320835 0.08179083 0.008741866 -0.071639836 -0.04793011 0.06261933
0.090793155 -0.009191079 0.06926785 -0.004959736 0.054938827 0.04327743 0.039451126 0.06249887
-0.07958161 -0.09710864 -0.034423757 0.03608317 0.028369023 -0.032697633 -0.045650385 -0.042318888
0.0044519915 -0.06049467 0.029036716 -0.050868355 -0.081450716 -0.011956417 0.02436978 -0.07635892
0.021126622 -0.094709404 0.049629834 -0.0010650131 -0.028607816 0.008902378 0.053980943 -0.074899495
0.031763192 -0.028590394 -0.018219326 -0.001986053 -0.09247629 -0.017158523 -0.026023759 0.08807472
-0.04909254 -0.09564037 -0.024188245 -0.036140844 -0.03774032 0.058441777 0.053784117 -0.029978806
0.027582634 -0.03847521 -0.07430897 0.015994672 -0.0005478718 -0.0019471236 0.043110073 -0.10394053
-0.033732 0.06463387 -0.02287847 0.08284376 -0.05653799 -0.006942697 -0.012144087 -0.024784086
-0.06522696 -0.02947974 0.0035261186 -0.03386997 -0.05742035 0.020534333 -0.06584584 -0.049059648
-0.009229713 -0.036714662 0.04430156 -0.04140398 -0.006893466 -0.021746004 -0.039145462 0.014677569
00000000: 5844 c0bb c0d3 1d3d a13d 7fbd 87ff 4abd
00000010: 2315 e23b 2db2 8d3d e2e9 91bd 4ce6 823c
00000020: b383 7fbc 8151 2cbc fcb4 04bb 5d1b 9d3d
00000030: 4f19 40bd 1ea7 e6bc eaa1 84bd 18de 923d
00000040: b126 8bbd 8214 5f3d 78f5 163d fef2 e73c
00000050: 76a1 613d 35e9 5fbd 386e 1cbc abf0 8f3d
00000060: ce05 d83c 76d9 83bd 0b30 7ebd ed62 133d
00000070: f6f2 a0bd 5e03 83bd 79a6 e83c e93e 813d
00000080: 24f7 a5bd eb5b c53c 217b 563d e1f1 db3c
00000090: 40fe 1c3d 6e86 7ebc a0db 81bd 1c19 0b3d
000000a0: 14bb 5b3d 754e 29bd ac50 3c3c 2305 02bd
000000b0: 3212 803d facc 993d 6544 7bbd dd67 573d
000000c0: 2e25 4f3c 7cf7 8ebd c533 1a3c 774c 2a3d
000000d0: 8e68 39bc a3f1 2d3d caf2 5a3d 14f4 caba
000000e0: 7336 063d e799 103d eebb 6e3c d10d 913d
000000f0: a10b 9cbd 86c5 8abd cf7c ddbc 1ab1 203d
00000100: 629e 13bd a012 85bc ce85 a7bd 0e87 2fbd
00000110: ab29 52bd ada9 80bd 9e3c 3dbd a766 333d
00000120: 9e87 a8bc 6433 a03c 3b8d 63bd 553f 1dbc
00000130: 685d c33d 0710 5a3d fa40 b03d 1555 85bc
00000140: 04f0 7cbc e30e 783c 37ed b93d f16e 8c3d
00000150: c335 afbd cb29 d7bc ec66 d83c a8f9 71bd
00000160: 9405 223d 3341 d2bd 7e7c b33d ce87 ef3b
00000170: 7b5c d2bc 9fc6 6bbb ad14 9d3d f10a 35bd
00000180: af2c 38bd 5e7f 1c3d bfbb 44bd d244 7b3d
00000190: cd28 07bd 5f50 ce3c c990 98bc 54d8 9cbc
000001a0: df2c a6bc d74a 833d 79a7 ec3c 16f2 863d
000001b0: 668b a73c 1b5a a7bc a32e 39bd 617a 3c3d
000001c0: b800 593d 7353 36bd e63b 72bd 8329 693d
000001d0: 0784 5bbd fe33 bfbc 7bfb 5bbc 3816 8abd
000001e0: 7d0d b8bd ee1c 32bd b642 843d e2d0 9cbc
000001f0: 1922 653d c54c 89bd 02a1 7abd 36f7 c1bc
00000200: cdc3 893d d87f 643d 8763 81bd 0e3f 22bd
00000210: 32be 55bd 6d9f 42bd de8c 3a3c b0de 153d
00000220: aa1b b9bc aa0a 81bd 6b08 6f3d 7b12 88bd
00000230: 5a9a 193d 5076 773d a38c 89bd 68dd 13bd
00000240: 4e89 983d d490 5d3d 0443 14bd 42fa 83bc
00000250: 5c16 bdbd a7e5 313d 317d 9dbc d11f febc
00000260: b859 4f3b 981c a13c 8e64 81bd 005d 08bd
00000270: 2c45 953d e14c 8abc b287 35bc 3c9e 78bd
00000280: c2ae 52bc cfbb f3bc 9da3 02bd a853 1bbd
00000290: f3fe da3b 2be0 513d 2fcd 64bd 8c8d 173c
000002a0: 70ea 873d 2bb2 4bbc e177 a6bc f381 a73d
000002b0: 0b3a 0f3c e8b7 92bd 5d52 44bd 903e 803d
000002c0: c3f1 b93d 2e96 16bc 4ddc 8d3d 4885 a2bb
000002d0: 8907 613d ad43 313d 8197 213d d1fe 7f3d
000002e0: affb a2bd e5e0 c6bd edff 0cbd f2cb 133d
000002f0: 2766 e83c f4ed 05bd e6fb 3abd 9256 2dbd
00000300: 03e2 913b 42c9 77bd 68de ed3c 565b 50bd
00000310: a2cf a6bd d9e4 43bc 22a3 c73c 1162 9cbd
00000320: bd11 ad3c 01f7 c1bd a748 4b3d e997 8bba
00000330: f05a eabc 48db 113c 1f1b 5d3d e864 99bd
00000340: 1f1a 023d 6736 eabc b240 95bc 7128 02bb
00000350: 3664 bdbd 0890 8cbc c72f d5bc 8560 b43d
00000360: 4215 49bd 19df c3bd 6d26 c6bc 6c08 14bd
00000370: 9895 1abd a560 6f3d bc4c 5c3d 1d96 f5bc
00000380: faf4 e13c 2f98 1dbd 4d2f 98bd 4207 833c
00000390: 0e9f 0fba a036 ffba 3094 303d c6de d4bd
000003a0: 912a 0abd c35e 843d a16b bbbc fda9 a93d
000003b0: 6194 67bd 907f e3bb fef7 46bc ff07 cbbc
000003c0: b695 85bd 7f7f f1bc 7416 673b 3dbb 0abd
000003d0: 9a31 6bbd 9e37 a83c 2fda 86bd c5f2 48bd
000003e0: 3938 17bc 1d62 16bd 8d75 353d 3897 29bd
000003f0: 96e2 e1bb ad24 b2bc fe56 20bd 307a 703c

lstm.weight_hh_l0 f4 [512, 128]
0.028750282 -0.063346006 -0.030885842 -0.036372215 0.0073197377 0.06955034 -0.008418415 0.04814778
0.017320389 -0.034777567 0.04124905 -0.03986884 -0.085987836 -0.0554854 0.007517382 0.07972062
-0.056641012 0.02759772 -0.0012440125 -0.057794802 0.001719526 0.05218223 -0.006927252 -0.04549028
0.010365866 -0.019866997 -0.030652933 0.06239671 0.06477473 0.08246683 -0.014575337 0.030877732
-0.06673927 0.028049247 0.0189365 -0.030284325 0.053221617 0.088549644 0.07744293 -0.019736
-0.048049744 -0.081392154 0.06584055 -0.022140894 -0.027349142 -0.05922883 0.0430683 -0.015783522
0.029952843 -0.008125324 -0.016002003 0.0668866 0.026886743 -0.050644204 0.02773839 0.05493314
0.05755183 -0.018100524 -0.073709756 -0.06174589 -0.067323856 -0.03850872 0.08858392 -0.004594022
0.032542124 -0.03171854 -0.023556845 0.01597808 0.0222134 -0.01969816 -0.026102921 -0.024091274
-0.06148193 0.060191333 -0.036406785 0.02520636 -0.029180327 0.08637139 0.07562211 0.0632826
-0.043986768 0.055618655 -0.048757575 -0.0055706925 -0.02181216 0.029430756 -0.026036123 0.01317959
-0.031414878 -0.079648085 -0.030363016 -0.072306834 0.06153598 -0.043995164 0.059741344 -0.090151176
0.055360343 -0.08351282 0.013013124 -0.08907906 -0.05801247 -0.06603818 -0.02593551 -0.07669103
0.077490374 -0.046900567 0.07054946 0.07670511 -0.01912 0.038267236 -0.012886651 -0.0011331985
0.04034363 -0.031176375 -0.050126288 -0.036064137 -0.042744745 -0.08010507 0.057747796 -0.088078044
0.048077635 -0.0042740963 -0.043761473 0.0066820593 0.060587283 -0.044235647 -0.024896285 0.020238986
0.0118979495 0.062294774 -0.057518773 0.074748114 0.023977837 -0.01808894 -0.05974567 -0.04232947
0.018561995 0.011951962 -0.012054207 -0.07749908 0.034533195 -0.07047104 -0.078028284 -0.047593042
-0.064203665 0.08884635 0.025949154 0.039342362 0.069439545 0.033025324 0.047550954 0.041391145
0.0054104254 0.09305273 -0.0228524 -0.011300806 0.052521452 -0.0031713375 -0.087408036 0.051679417
0.025242483 -0.019625288 -0.04033776 0.07459835 0.00551932 0.045097608 0.040919703 -0.010560097
0.07510242 -0.06403027 0.03503871 0.046662036 -0.023234613 -0.07276741 -0.022490835 0.06002028
0.06566336 -0.007134251 -0.0097728865 -0.04243067 0.034567732 0.07094077 0.05984424 -0.056858175
-0.08308547 0.049148247 0.03364554 0.04583247 -0.039237108 0.061647538 -0.01906395 -0.049092073
0.085669786 -0.00058395346 0.066725604 -0.07574849 -0.05045938 -0.05895038 -0.0417946 0.08202345
0.009677677 -0.013434634 -0.062287524 -0.019502845 -0.070262015 0.015380448 0.013321192 -0.095390394
-0.00034533808 0.016755212 -0.084037654 0.03342439 0.039132718 0.052603174 -0.00259342 0.023395024
0.005794091 -0.006621861 0.08378474 0.031929664 -0.026554585 -0.01769294 -0.028064815 -0.069326065
0.046728794 -0.066308826 0.0009294976 -0.08573642 0.07230353 -0.05449906 -0.021341925 -0.08701436
-0.06296095 -0.08049555 0.031345405 -0.024592696 -0.045621905 -0.00038825715 -0.009122633 0.08172511
0.085394695 0.05870317 -0.07593768 -0.074538425 0.03713613 0.03578376 -0.052521214 -0.06335187
0.033067428 -0.06430326 0.015698921 0.06886673 0.05000119 0.023611464 0.03333309 0.04351789
00000000: b685 eb3c 8dbb 81bd 4e04 fdbc 08fb 14bd
00000010: 69da ef3b 6970 8e3d 64ed 09bc 9b36 453d
00000020: 7de3 8d3c ec72 0ebd c4f4 283d 824d 23bd
00000030: 641a b0bd a944 63bd 5f54 f63b 9044 a33d
00000040: 6800 68bd 9d14 e23c 220e a3ba 3eba 6cbd
00000050: b861 e13a 09bd 553d 00fe e2bb 0454 3abd
00000060: 98d5 293c 1dc0 a2bc dc1b fbbc b193 7f3d
00000070: 9da8 843d 5fe4 a83d 65cd 6ebc 4cf3 fc3c
00000080: 99ae 88bd 89c7 e53c b820 9b3c d516 f8bc
00000090: e9fe 593d 8459 b53d 669a 9e3d 64ad a1bc
000000a0: cfcf 44bd eeb0 a6bd 69d7 863d d260 b5bc
000000b0: 4f0b e0bc ee99 72bd 6368 303d 724c 81bc
000000c0: aa5f f53c 1420 05bc a216 83bc d7fb 883d
000000d0: 9641 dc3c 4c70 4fbd 9f3b e33c 9201 613d
000000e0: 78bb 6b3d 8d47 94bc 24f5 96bd 42e9 7cbd
000000f0: 17e1 89bd 52bb 1dbd 7c6b b53d 7389 96bb
00000100: e44a 053d 4deb 01bd 49fa c0bc 76e4 823c
00000110: e0f8 b53c 095e a1bc cbd5 d5bc 105b c5bc
00000120: 7ad4 7bbd 308b 763d 481f 15bd 917d ce3c
00000130: 950b efbc 7ce3 b03d c4df 9a3d 4f9a 813d
00000140: 782b 34bd 63d0 633d 06b6 47bd 5b8a b6bb
00000150: 6aaf b2bc c518 f13c b549 d5bc 35ef 573c
00000160: e3ac 00bd 891e a3bd dcbb f8bc 9b15 94bd
00000170: 270d 7c3d 4634 34bd 57b3 743d 2ea1 b8bd
00000180: 87c1 623d c508 abbd ff34 553c 156f b6bd
00000190: 7c9e 6dbd 063f 87bd b576 d4bc 3010 9dbd
000001a0: 46b3 9e3d cf1a 40bd 3c7c 903d 9217 9d3d
000001b0: 8ca1 9cbc 1bbe 1c3d 8822 53bc d587 94ba
000001c0: 5d3f 253d 9965 ffbc 3951 4dbd fdb7 13bd
000001d0: 1d15 2fbd 200e a4bd f488 6c3d 4362 b4bd
000001e0: 0eed 443d b80d 8cbb 3b3f 33bd 2df5 da3b
000001f0: 5f2a 783d 7030 35bd 4bf3 cbbc 3bcc a53c
00000200: 9eef 423c ce28 7f3d ce98 6bbd 8a15 993d
00000210: 2b6d c43c 422f 94bc e0b7 74bd ab61 2dbd
00000220: 530f 983c 29d2 433c 027f 45bc d6b7 9ebd
00000230: ae72 0d3d 1f53 90bd 4bcd 9fbd ecf0 42bd
00000240: 367d 83bd 13f5 b53d 5293 d43c 7525 213d
00000250: 5236 8e3d 9045 073d cac4 423d c389 293d
00000260: f049 b13b 6e92 be3d f534 bbbc 0427 39bc
00000270: bc20 573d 37d6 4fbb fc02 b3bd ccad 533d
00000280: 53c9 ce3c 36c5 a0bc 3539 25bd 05c7 983d
00000290: 69db b43b 45b8 383d 6b9b 273d 4204 2dbc
000002a0: 4ccf 993d 4d22 83bd c084 0f3d b120 3f3d
000002b0: 8456 bebc 1407 95bd b33e b8bc d3d7 753d
000002c0: 837a 863d 6fc6 e9bb 751e 20bc c8cb 2dbd
000002d0: e596 0d3d 6549 913d 3c1f 753d 1ee4 68bd
000002e0: b728 aabd ac4f 493d e8cf 093d d4ba 3b3d
000002f0: 17b7 20bd 2182 7c3d 002c 9cbc c514 49bd
00000300: a473 af3d 7414 19ba 6fa7 883d 0622 9bbd
00000310: 7fae 4ebd f475 71bd d130 2bbd e9fb a73d
00000320: 1f8f 1e3c f01c 5cbc 3421 7fbd 6ec4 9fbc
00000330: 88e5 8fbd 46fe 7b3c 2141 5a3c 0a5c c3bd
00000340: 7e0e b5b9 3a42 893c ef1b acbd 03e8 083d
00000350: a149 203d 6d76 573d 5ef6 29bb eca6 bf3c
00000360: 5cdc bd3b 32fc d8bb 5597 ab3d aec8 023d
00000370: 0089 d9bc c9f0 90bc 2fe8 e5bc d3fa 8dbd
00000380: b166 3f3d eccc 87bd 87a9 733a 9396 afbd
00000390: e013 943d 683a 5fbd 43d5 aebc 9634 b2bd
000003a0: acf1 80bd dada a4bd 0a64 003d 9f76 c9bc
000003b0: 09de 3abd fe8e cbb9 1977 15bc 7f5f a73d
000003c0: 6ae3 ae3d bc72 703d 3785 9bbd 9aa7 98bd
000003d0: 0e1c 183d fe91 123d 7c20 57bd a0be 81bd
000003e0: b671 073d 6db1 83bd 069b 803c 000a 8d3d
000003f0: 0cce 4c3d d46c c13c 4788 083d d13f 323d

lstm.bias_ih_l0 f4 [512]
0.010547127 -0.013548602 -0.02805181 -0.0040720785 0.0007998855 0.013788147 -0.043440793 0.032911103
-0.054702103 0.06186773 -0.056504812 0.07370577 -0.0071804174 -0.026055787 0.0050702826 -0.038045455
0.07341474 -0.030363156 0.073916174 -0.035972357 0.02855318 0.0977454 0.05066419 0.06499203
-0.008422671 0.021841757 0.01738464 -0.043469325 0.0029139365 0.062124655 0.02229585 0.09533216
-0.030651517 -0.07049097 -0.047926635 0.0066185785 0.080162175 -0.07184567 0.036893867 0.04471473
0.049781207 0.020291647 0.03520842 -0.05354378 -0.0057970462 -0.018765215 0.028978515 0.046572853
0.09876568 0.07591142 -0.030097315 -0.04688241 0.020823129 0.03385793 -0.070858814 -0.036892563
-0.013541818 -0.04908755 0.03989811 0.024826905 0.013593828 -0.010631616 -0.06696319 0.01358822
-0.037407998 -0.028524298 0.023465734 0.07045172 -0.044142842 0.013742272 0.03317858 0.021876687
0.05540856 0.073158994 -0.048094466 -0.011324293 -0.029021064 0.0941384 -0.034355562 0.0852778
0.018411798 0.05528119 0.019689403 -0.06328316 -0.04970884 -0.010466929 0.004927375 0.01728656
0.050988976 0.02231668 0.030259522 0.034462832 0.005712129 -0.06062373 -0.023594525 0.07881772
-0.07383845 -0.033905257 -0.05881015 -0.027530642 0.035674926 0.051634338 0.078697756 -0.039673902
0.097498454 0.036266197 0.02183342 -0.010222686 0.056151133 -0.025064118 0.09581217 -0.025046777
-0.0066803605 -0.07017788 0.034485333 0.059434526 0.07601399 0.08747694 -0.028180126 -0.018874314
0.014963947 -0.02719256 0.036479063 -0.03400207 -0.0020908923 -0.057093997 -0.039397456 0.082829446
0.067389555 -0.0730125 -0.06342345 -0.032294378 0.05976746 0.024667725 0.004260963 0.05589827
-0.03208541 0.09167993 0.032376736 0.048399683 -0.022269383 0.03027926 -0.01427652 -0.06886954
0.06818001 -0.06233835 0.08183225 -0.06895337 0.06406823 0.09247345 -0.058301438 -0.008336871
0.07983111 0.025347918 -0.07417906 0.07575044 0.00851419 -0.020212015 -0.061486177 -0.001995839
-0.058724746 0.037769932 -0.03822878 0.01563442 0.026791165 -0.058721364 -0.052254945 -0.05870813
0.016373217 -0.0143551305 -0.07120461 -0.0017668734 -0.0032279766 0.03680043 0.054429647 0.0494563
0.056743957 0.04860311 -0.0727479 0.038368184 -0.022459637 0.008546897 0.041698106 0.060479943
-0.05717707 -0.072929084 0.0984587 0.04977374 0.078278616 0.055025034 -0.013025062 0.011120962
0.060215086 -0.068789676 -0.061269484 0.08464102 0.09719083 -0.022386812 -0.07608109 -0.073919065
-0.0479169 -0.03957793 -0.02012962 0.06996543 -0.051040232 -0.022485401 -0.034735166 0.03089101
-0.032845806 0.08278145 0.091609254 0.06453492 0.039598603 -0.06475667 -0.03824828 -0.04540003
0.0040949616 0.027677383 -0.004884606 0.029812407 -0.046741404 0.03741561 0.030208834 -0.033279005
0.04280392 0.0671573 -0.020095877 -0.014302127 0.037429098 -0.07091171 0.068364084 -0.0073202285
0.065489225 0.07460205 -0.07247981 0.009649776 -0.007836999 0.07622533 0.039164633 -0.040584344
0.076265454 -0.057745926 0.043588262 0.057632696 -0.03982308 0.0032933403 -0.05850835 0.1003705
0.012011098 0.087166294 0.005128579 0.08276563 0.010794299 0.036549315 -0.047959063 -0.05147373
00000000: dbcd 2c3c f5fa 5dbc e9cc e5bc 126f 85bb
00000010: 68af 513a aee7 613c f9ee 31bd cbcd 063d
00000020: 500f 60bd 0469 7d3d 9771 67bd 0df3 963d
00000030: b549 ebbb f272 d5bc 9d24 a63b 8dd5 1bbd
00000040: 785a 963d 27bc f8bc 5d61 973d c057 13bd
00000050: 5ce8 e93c be2e c83d 4185 4f3d 8b1a 853d
00000060: 3eff 09bc 7ced b23c 3c6a 8e3c e40c 32bd
00000070: bef7 3e3b 6c76 7e3d c9a5 b63c 823d c33d
00000080: e418 fbbc 925d 90bd b84e 44bd a9e0 d83b
00000090: 112c a43d d323 93bd 061e 173d cb26 373d
000000a0: 61e7 4b3d ab3a a63c b436 103d b950 5bbd
000000b0: 26f5 bdbb 82b9 99bc 5a64 ed3c 2dc3 3e3d
000000c0: a945 ca3d 7277 9b3d a58e f6bc c507 40bd
000000d0: 4495 aa3c 9dae 0a3d 6d1e 91bd a81c 17bd
000000e0: 80de 5dbc 0710 49bd 336c 233d cb61 cb3c
000000f0: a6b8 5e3c 3b30 2ebc ff23 89bd 20a1 5e3c
00000100: 2139 19bd caab e9bc 363b c03c fe48 903d
00000110: 20cf 34bd 4427 613c 43e6 073d bd36 b33c
00000120: 16f4 623d 62d4 953d b4fe 44bd 8789 39bc
00000130: 95bd edbc a2cb c03d 6bb8 0cbd 21a6 ae3d
00000140: 57d4 963c 876e 623d ac4b a13c 9a9a 81bd
00000150: 7f9b 4bbd 7b7d 2bbc d175 a13b 8b9c 8d3c
00000160: d1d9 503d 78d1 b63c d1e2 f73c e628 0d3d
00000170: d02c bb3b 9750 78bd 4e49 c1bc 2f6b a13d
00000180: 9d38 97bd 3de0 0abd e9e2 70bd f187 e1bc
00000190: df1f 123d 877e 533d 4a2c a13d 1a81 22bd
000001a0: 45ad c73d dd8b 143d 00dc b23c 0e7d 27bc
000001b0: bbfe 653d 4453 cdbc 2c39 c43d e62e cdbc
000001c0: ede6 dabb 6cb9 8fbd 7e40 0d3d 9e71 733d
000001d0: 39ad 9b3d 1c27 b33d 02da e6bc 4e9e 9abc
000001e0: 582b 753c eec2 debc 126b 153d c145 0bbd
000001f0: 5a07 09bb 65db 69bd 3a5f 21bd 7ca2 a93d
00000200: 8903 8a3d 9487 95bd 27e4 81bd 1c47 04bd
00000210: b9ce 743d f813 ca3c 8c9f 8b3b 96f5 643d
00000220: fe6b 03bd b0c2 bb3d 789d 043d bf3e 463d
00000230: 486e b6bc 360c f83c 11e8 69bc 790b 8dbd
00000240: f6a1 8b3d 7f56 7fbd ab97 a73d 6d37 8dbd
00000250: 3436 833d b862 bd3d 7dcd 6ebd 5f97 08bc
00000260: 7e7e a33d 70a6 cf3c 31eb 97bd 0c23 9b3d
00000270: 1a7f 0b3c ab93 a5bc eed8 7bbd 9fcc 02bb
00000280: 5c89 70bd a5b4 1a3d c895 1cbd c113 803c
00000290: 2579 db3c d085 70bd 4809 56bd f077 70bd
000002a0: 2021 863c c831 6bbc b9d3 91bd 6f96 e7ba
000002b0: 768c 53bb 0cbc 163d 9ff1 5e3d b092 4a3d
000002c0: 5a6c 683d 0e14 473d dafc 94bd f527 1d3d
000002d0: 46fd b7bc 4908 0c3c a2cb 2a3d d1b9 773d
000002e0: 8132 6abd d85b 95bd b7a4 c93d 8ddf 4b3d
000002f0: 8a50 a03d ee61 613d 1267 55bc b234 363c
00000300: 18a4 763d 9ae1 8cbd b6f5 7abd 4558 ad3d
00000310: fc0b c73d 8c64 b7bc 67d0 9bbd e162 97bd
00000320: 8344 44bd 781c 22bd dfe6 a4bc 094a 8f3d
00000330: 900f 51bd 4e33 b8bc 7646 0ebd 250f fd3c
00000340: 5389 06bd 5289 a93d a29d bb3d e22a 843d
00000350: 2532 223d 259f 84bd 3aaa 1cbd 62f5 39bd
00000360: 072f 863b aebb e23c 0c0f a0bb 2639 f43c
00000370: ea73 3fbd 1c41 193d 8478 f73c 914f 08bd
00000380: 2a53 2f3d c489 893d 1ca0 a4bc 7853 6abc
00000390: 414f 193d 293a 91bd 7802 8c3d 87de efbb
000003a0: 371f 863d f6c8 983d 4b70 94bd 181a 1e3c
000003b0: c266 00bc 071c 9c3d 186b 203d c53b 26bd
000003c0: 1031 9c3d fe86 6cbd 9b89 323d 4310 6c3d
000003d0: 871d 23bd 15d5 573b 74a6 6fbd 0c8f cd3d
000003e0: 32ca 443c 3e84 b23d a40d a83b 0781 a93d
000003f0: 92da 303c bcb4 153d b970 44bd 1ed6 52bd

lstm.bias_hh_l0 f4 [512]
-0.084579 -0.080429226 -0.061290108 -0.023431003 -0.03150382 0.035957288 0.02438392 -0.04735804
-0.059175942 0.08450323 -0.03849527 -0.008079383 -0.08798174 0.028218403 0.032066666 -0.05318084
-0.066119775 -0.07484846 0.012389037 0.030386703 0.099294744 -0.041744705 0.01466364 -0.05157218
0.070186235 0.07896676 0.019724367 0.026958384 -0.036777314 -0.050241925 0.05996644 -0.005290461
-0.03662273 -0.039670482 0.0622539 0.05141714 -0.020370286 -0.029403517 0.08403495 -0.051559523
0.08461814 0.04548181 0.015470979 -0.055694852 0.05853343 0.00054941553 -0.023367684 0.0022459175
-0.046094526 -0.029261613 -0.037270762 0.07106797 0.019296875 -0.05937786 -0.028418494 -0.004446568
-0.04410955 0.093800105 -0.0320076 -0.02063659 0.05081037 -0.04230933 0.014481594 -0.05056194
0.015872663 0.04659505 -0.052508075 0.06705022 0.076041944 0.021249318 -0.04686259 -0.044583503
0.022806434 -0.017261026 0.00074958266 -0.031071365 -0.03185836 0.046671726 0.06811989 0.017603533
-0.059810907 0.019844517 -0.06878894 -0.009676846 -0.05659362 0.077696525 0.026997678 0.08320626
0.05849791 -0.0027428302 0.060938604 0.061127543 0.07658388 0.06630094 0.07187076 0.07733131
0.098158576 0.09567325 0.049859017 0.08145856 -0.041534804 -0.037027515 -0.011370735 -0.0104107745
-0.016499639 0.068422586 0.09678721 -0.045537096 0.046072934 0.01288482 -0.023547962 -0.02954853
0.071827665 -0.071353756 0.076613806 0.048433147 0.07343125 0.002071614 0.032187834 0.067412324
0.05775902 0.02847962 -0.050726574 -0.04999336 0.02561411 0.016337756 0.053522296 0.011076514
0.02070392 -0.07210022 0.050280176 0.03232513 0.0023807948 0.09237507 -0.065617375 -0.019229973
0.05806564 0.06706498 0.06711788 0.04393048 0.02852489 -0.07186525 -0.05826786 0.036328766
0.024615947 0.032749668 -0.019955609 -0.04461512 0.025933977 -0.03931608 -0.04786657 0.07444758
-0.06434885 0.055289548 0.061310362 0.045024585 -0.03894312 0.059683386 0.028408647 0.0054844897
0.015004525 0.033189 0.03764232 -0.02909683 0.04094585 0.05413113 0.08005566 0.03639926
0.038786482 0.057362318 0.07150851 -0.05139006 -0.017715352 0.042893007 -0.008408674 -0.037800252
0.06781639 -0.05105785 0.06903821 0.030399052 -0.08284465 0.059016827 0.09503784 -0.01897756
0.033848654 0.091143385 -0.01608007 0.0047952845 -0.08271635 0.06896179 -0.0654805 -0.0044793286
-0.066112176 0.049000423 0.034044087 -0.053885356 -0.015155416 -0.016612908 -0.016298575 0.0039453995
-0.0677807 -0.002260171 -0.05835443 -0.058262262 -0.015753962 0.034094807 -0.043589577 0.048746794
-0.033323277 -0.047471225 0.0041369307 0.04083381 0.06973001 -0.046972718 -0.05232339 0.049354434
0.0012810496 0.09191677 0.00020048984 0.050423704 0.05512808 0.074951574 -0.0049789334 0.09606157
0.049143173 0.034397174 0.056533758 0.024346804 0.079955496 -1.2528435e-05 -0.025253436 -0.052830443
0.095192775 -0.06785995 -0.06675913 0.0822144 0.05129196 -0.0056367056 -0.0451574 -0.019252924
-0.06892445 0.028798424 0.009878176 0.030933093 0.06001353 -0.040740166 0.027380396 0.020497106
0.0019219059 0.025368595 -0.0069198287 0.04004117 -0.011369994 0.015823822 -0.07669682 -0.01197323
00000000: c137 adbd 14b8 a4bd 560b 7bbd 60f2 bfbc
00000010: 260a 01bd f347 133d c9c0 c73c 81fa 41bd
00000020: 7962 72bd 0810 ad3d 37ad 1dbd 635f 04bc
00000030: c52f b4bd 482a e73c 5658 033d 27d4 59bd
00000040: ce69 87bd 264a 99bd 63fb 4a3c 89ed f83c
00000050: 0b5b cb3d 7ffc 2abd c43f 703c 5a3d 53bd
00000060: cdbd 8f3d 53b9 a13d ff94 a13c d4d7 dc3c
00000070: cfa3 16bd 7aca 4dbd 5f9f 753d 9a5b adbb
00000080: b701 16bd 847d 22bd f2fd 7e3d c79a 523d
00000090: 96df a6bc a5df f0bc 841a ac3d 1430 53bd
000000a0: 464c ad3d 224b 3a3d fd79 7d3c 4920 64bd
000000b0: c0c0 6f3d a706 103a 966d bfbc 3e30 133b
000000c0: 9dcd 3cbd 0db6 efbc 3aa9 18bd 158c 913d
000000d0: 7b14 9e3c 3336 73bd e7cd e8bc 84b4 91bb
000000e0: 37ac 34bd 451a c03d 671a 03bd 110e a9bc
000000f0: 891e 503d 8c4c 2dbd 3544 6d3c 091a 4fbd
00000100: 6307 823c 73da 3e3d b512 57bd a051 893d
00000110: e1bb 9b3d 0d13 ae3c fdf2 3fbd 319d 36bd
00000120: 8fd4 ba3c ff66 8dbc a47f 443a 6089 febc
00000130: e97d 02bd da2a 3f3d 7182 8b3d 4935 903c
00000140: 48fc 74bd f890 a23c 37e1 8cbd a28b 1ebc
00000150: b6ce 67bd 5b1f 9f3d 3c2a dd3c 0b68 aa3d
00000160: 819b 6f3d 0ec1 33bb c29a 793d e060 7a3d
00000170: 02d8 9c3d cac8 873d fa30 933d e15f 9e3d
00000180: 5d07 c93d 56f0 c33d f838 4c3d bfd3 a63d
00000190: 6620 2abd 2aaa 17bd 524c 3abc f491 2abc
000001a0: 402a 87bc 2421 8c3d 5f38 c63d 1b85 3abd
000001b0: f9b6 3c3d da1a 533c a8e7 c0bc c20f f2bc
000001c0: 621a 933d eb21 92bd b3e7 9c3d d661 463d
000001d0: 2063 963d eac3 073b 64d7 033d 790f 8a3d
000001e0: b994 6c3d 184e e93c abc6 4fbd d6c5 4cbd
000001f0: afd4 d13c c2d6 853c 323a 5b3d 447a 353c
00000200: 449b a93c 48a9 93bd 96f2 4d3d 5b67 043d
00000210: 1c07 1c3b 242f bd3d 6762 86bd 2d88 9dbc
00000220: 3dd6 6d3d 5d59 893d 1975 893d 72f0 333d
00000230: 08ad e93c 172e 93bd 48aa 6ebd 79cd 143d
00000240: 62a7 c93c 8424 063d f279 a3bc 58be 36bd
00000250: 7e73 d43c e609 21bd bd0f 44bd f977 983d
00000260: 54c9 83bd 4b77 623d 9320 7b3d b36b 383d
00000270: d282 1fbd 9176 743d 40b9 e83c 3cb7 b33b
00000280: 8ad5 753c 30f1 073d d52e 1a3d 7a5c eebc
00000290: d6b6 273d 9bb8 5d3d 39f4 a33d 6417 153d
000002a0: 93de 1e3d c0f4 6a3d 0e73 923d 627e 52bd
000002b0: c91f 91bc 94b0 2f3d 89c4 09bc 70d4 1abd
000002c0: 52e3 8a3d 0922 51bd e863 8d3d 6f07 f93c
000002d0: 75aa a9bd a1bb 713d 33a3 c23d d476 9bbc
000002e0: e3a4 0a3d 62a9 ba3d 5aba 83bc c321 9d3b
000002f0: 3167 a9bd d73b 8d3d a41a 86bd 55c7 92bb
00000300: d265 87bd abb4 483d d071 0b3d e4b6 5cbd
00000310: 6c4e 78bc cb17 88bc 9784 85bc 6948 813b
00000320: 9cd0 8abd 611f 14bb 0e05 6fbd 69a4 6ebd
00000330: 740e 81bc ffa6 0b3d fc8a 32bd b8aa 473d
00000340: fd7d 08bd 3071 42bd 178f 873b 5a41 273d
00000350: 9cce 8e3d 7766 40bd 0d51 56bd e027 4a3d
00000360: e4e8 a73a dc3e bc3d 953a 5239 1689 4e3d
00000370: fbcd 613d 3680 993d 5226 a3bb eebb c43d
00000380: 5a4a 493d 0de4 0c3d f18f 673d f372 c73c
00000390: b5bf a33d 3831 52b7 4be0 cebc bc64 58bd
000003a0: 6ef4 c23d 28fa 8abd 03b9 88bd 0660 a83d
000003b0: 8517 523d 1db4 b8bb f7f6 38bd 4fb8 9dbc
000003c0: 4328 8dbd acea eb3c 13d8 213c 6667 fd3c
000003d0: bfd0 753d 29df 26bd da4c e03c 8ce9 a73c
000003e0: 76e8 fb3a cdd1 cf3c bbbf e2bb 3602 243d
000003f0: 3649 3abc f6a0 813c 3913 9dbd 5e2b 44bc

lstm.weight_ih_l1 f4 [512, 128]
0.0481309 0.06474403 -0.06276123 0.064152054 0.028768819 0.031979255 -0.02702867 0.040263284
-0.08508312 -0.0036032775 0.03052746 -0.058161438 -0.029949516 0.0016955448 0.05048064 0.02466726
-0.065355234 -0.07755473 0.07565556 0.0051577804 0.05131036 -0.039495315 -0.07792983 0.05352213
-0.002893778 -0.06776158 -0.058893315 -0.038394596 -0.0018022758 0.014513724 -0.07158911 0.070447
-0.018074844 0.019442987 -0.05474653 -0.01729614 0.01548812 -0.07204373 0.060276847 0.046824254
-0.004856254 0.030505273 -0.09228543 0.00501763 -0.072115086 -0.014033316 -0.04348469 0.043954536
-0.007025569 0.019439979 -0.021375475 0.07230077 -0.00856037 0.043779496 0.019519016 -0.09233271
-0.030404659 0.027086493 0.0348015 0.06100475 0.06360516 0.07483456 -0.08863227 -0.032958444
0.054464497 -0.06803929 0.023302242 0.054906093 -0.036275953 -0.04495322 0.020859072 0.061733328
0.08354006 0.03078436 0.008375675 0.019661209 0.062063783 0.048359964 0.09242562 0.058710627
0.018856302 -0.008476316 -0.08654671 0.042754766 -0.073428735 0.0715278 0.07295602 -0.040193148
0.02539969 -0.041847914 -0.059361156 0.012135516 -0.09071988 -0.00699009 0.079649724 0.06653482
0.033426978 0.030477801 -0.007694974 0.039295446 0.047843747 -0.02463361 0.08948184 -0.05537324
-0.038897157 -0.043967374 0.06301491 0.055331055 -0.06354942 -0.056404643 0.06275116 -0.019506248
0.02072056 0.069132574 0.02647407 -0.04064739 -0.034722347 -0.00019748673 -0.099679045 -0.07485714
-0.05934249 0.064667925 0.02152311 -0.015682522 0.068214126 -0.0054961024 0.045353934 0.010394864
0.068977594 0.06964072 0.05766299 -0.004805138 0.013675098 0.054461136 0.011830396 0.02271769
-0.09321464 -0.06345598 -0.014281319 0.055905655 -0.069779694 -0.08122344 -0.014979447 0.09704374
0.0048167985 0.074108265 -0.012032333 0.07671909 -0.054477658 0.0035635203 -0.004332901 0.013538524
0.06430395 0.08632493 0.059124686 0.06850207 0.033587895 -0.102501236 0.0411274 -0.053130012
-0.012596068 -0.054394394 -0.05699496 -0.034219455 0.098574564 -0.022322906 0.088384226 0.08663836
-0.035879333 -0.0067288075 -0.09595431 -0.07985375 -0.02124847 0.032698393 -0.06393582 0.09529371
-0.071299635 -0.035934154 0.0033997793 0.04929619 0.05562821 -0.016222866 0.054111276 -0.09032259
0.025203401 0.033649977 -0.048931487 0.025455713 0.006533889 0.017543226 0.0066653695 0.0052045146
0.067349374 0.08807671 0.09585227 0.0906644 0.0065069967 -0.032065436 -0.0020801267 0.054746106
0.090074815 -0.0937456 -0.050673384 -0.06930773 0.009499556 -0.0155596575 0.020454671 0.017214715
-0.011129142 0.07572113 0.048310906 0.0145989405 -0.070012815 0.025784802 -0.097767 -0.023814391
-0.05695903 -0.04412749 9.310128e-05 0.025493398 -0.09574202 -0.0659578 -0.026027262 0.02884908
-0.058625966 -0.004467551 -0.044792216 0.1017828 0.031891648 0.07803036 0.051778633 0.07586794
-0.007898306 0.03912021 -0.0006442859 -0.0019826265 -0.026332801 0.08012278 -0.103097916 0.017741036
0.06442148 0.024040665 -0.03540932 0.10214879 -0.046302352 0.052202288 0.06420325 -0.068928055
0.06489373 0.017867303 0.04580944 -0.102866165 -0.028602067 -0.06307674 -0.045844156 -0.014899631
00000000: e824 453d 8598 843d f688 80bd 2762 833d
00000010: 96ac eb3c aefc 023d 3b6b ddbc 1deb 243d
00000020: 0f40 aebd f724 6cbb b914 fa3c b03a 6ebd
00000030: b058 f5bc 0b3d de3a cac4 4e3d fe12 ca3c
00000040: f7d8 85bd 04d5 9ebd 4df1 9a3d 9902 a93b
00000050: d02a 523d d7c5 21bd ad99 9fbd 053a 5b3d
00000060: 8aa5 3dbb 95c6 8abd 1e3a 71bd a743 1dbd
00000070: 573a ecba f8ca 6d3c 509d 92bd 8446 903d
00000080: b211 94bc e646 9f3c e63d 60bd a2b0 8dbc
00000090: e2c1 7d3c aa8b 93bd dbe4 763d caca 3f3d
000000a0: 3621 9fbb 32e6 f93c 2500 bdbd ee6a a43b
000000b0: 13b1 93bd feeb 65bc 011d 32bd ac09 343d
000000c0: bf36 e6bb 9740 9f3c 9f1b afbc 6d12 943d
000000d0: cb40 0cbc 2152 333d 58e6 9f3c ef18 bdbd
000000e0: 3113 f9bc 7ee4 dd3c 058c 0e3d 1ee0 793d
000000f0: 6c43 823d dd42 993d d684 b5bd 6fff 06bd
00000100: 2a16 5f3d 2f58 8bbd 58e4 be3c 36e5 603d
00000110: 1896 14bd de20 38bd a5e0 aa3c 16dc 7c3d
00000120: 0d17 ab3d 7b2f fc3c 213a 093c 8b10 a13c
00000130: 9836 7e3d 1915 463d a549 bd3d 8e7a 703d
00000140: 8878 9a3c 3fe0 0abc 673f b1bd 9f1f 2f3d
00000150: ce61 96bd 2b7d 923d f769 953d 92a1 24bd
00000160: 0313 d03c b868 2bbd af24 73bd 0bd4 463c
00000170: 58cb b9bd 200d e5bb 651f a33d 6843 883d
00000180: baea 083d 95ac f93c 1f26 fcbb 43f4 203d
00000190: cef7 433d 6dcc c9bc 4142 b73d 0dcf 62bd
000001a0: a052 1fbd 2217 34bd f60d 813d d1a2 623d
000001b0: 3326 82bd 8e08 67bd ae83 803d 91cb 9fbc
000001c0: 2abe a93c 6195 8d3d 26e0 d83c e17d 26bd
000001d0: 0539 0ebd 7114 4fb9 8724 ccbd b34e 99bd
000001e0: 1c11 73bd 9e70 843d 3c51 b03c a278 80bc
000001f0: d9b3 8b3d a618 b4bb 0cc5 393d 384f 2a3c
00000200: 2044 8d3d cb9f 8e3d 0730 6c3d 6b74 9dbb
00000210: 850d 603c a412 5f3d 47d4 413c 731a ba3c
00000220: 51e7 bebd 35f5 81bd 32fc 69bc 54fd 643d
00000230: a8e8 8ebd 7a58 a6bd 5b6c 75bc debe c63d
00000240: 3cd6 9d3b 13c6 973d 4323 45bc e61e 9d3d
00000250: f723 5fbd f389 693b 02fb 8dbb afd0 5d3c
00000260: cab1 833d 20cb b03d ba2c 723d d04a 8c3d
00000270: 7693 093d 2bec d1bd 3475 283d db9e 59bd
00000280: bd5f 4ebc a8cc 5ebd 8c73 69bd b329 0cbd
00000290: 76e1 c93d 87de b6bc ca02 b53d 746f b13d
000002a0: 35f6 12bd 547d dcbb b183 c4bd 5d8a a3bd
000002b0: 4511 aebc c0ee 053d c8f0 82bd 5929 c33d
000002c0: 8b05 92bd b12f 13bd d5ce 5e3b cdea 493d
000002d0: 68da 633d d1e5 84bc c9a3 5d3d 0dfb b8bd
000002e0: 5d77 ce3c 8fd4 093d 626c 48bd 8088 d03c
000002f0: 3c1a d63b d0b6 8f3c 2c69 da3b a28a aa3b
00000300: 78ee 893d 9061 b43d 324e c43d 42ae b93d
00000310: a538 d53b 0c57 03bd bc52 08bb 743d 603d
00000320: 2579 b83d b1fd bfbd e58e 4fbd 36f1 8dbd
00000330: 07a4 1b3c efed 7ebc 8e90 a73c e005 8d3c
00000340: 0157 36bc ae13 9b3d a8e1 453d 6530 6f3c
00000350: e162 8fbd a63a d33c 113a c8bd 6616 c3bc
00000360: df4d 69bd 07bf 34bd 5e3f c338 88d7 d03c
00000370: 6414 c4bd e214 87bd 2037 d5bc e854 ec3c
00000380: c821 70bd 8964 92bb 0b78 37bd 8073 d03d
00000390: d1a0 023d 62ce 9f3d d515 543d a760 9b3d
000003a0: e567 01bc 833c 203d 4be5 28ba f4ee 01bb
000003b0: e3b7 d7bc 6917 a43d 0025 d3bd a655 913c
000003c0: 69ef 833d eef0 c43c 5d09 11bd 6333 d13d
000003d0: 89a7 3dbd 11d2 553d fe7c 833d 272a 8dbd
000003e0: 01e7 843d 735e 923c aea2 3b3d 7fab d2bd
000003f0: e24e eabc 612e 81bd 15c7 3bbd 951d 74bc

lstm.weight_hh_l1 f4 [512, 128]
-0.08566415 -0.023065077 0.0026220668 0.025938338 0.0454747 -0.044441257 -0.05494875 0.04003275
-0.0707598 -0.06587067 0.044668965 -0.033528205 -0.026947908 -0.00936779 -0.051628917 0.051748674
0.08463922 0.006390592 -0.07522137 0.04951068 -0.07353115 -0.02867997 0.014967423 -0.014449817
0.034394134 0.029039105 -0.105163515 0.061103847 -0.019813603 0.02892064 0.0044596065 -0.022075027
-0.06268614 -0.024694573 0.08754894 0.062596 0.03507681 -0.017471034 0.0065411697 0.0024944614
-0.000919916 0.039964285 0.040092435 -0.03309488 -0.09819663 -0.0014151329 -0.10015413 -0.093978554
0.054166343 0.036090843 0.0071880417 -0.031742573 0.05720249 0.059487164 -0.03174119 0.08023002
-0.035065897 -0.08197764 -0.003901198 0.050158985 0.07977084 -0.0031385946 -0.07856446 -0.07822219
-0.06645338 0.07548718 0.0004591242 -0.022964062 0.06240099 0.055672344 0.06623972 0.034924895
-0.090559065 -0.0669531 0.063022934 -0.030885968 0.046178296 0.039056215 -0.03356242 0.003037014
0.026401477 0.03800378 -0.041053295 -0.044736307 -0.014639727 0.07922442 0.06069121 0.09505389
-0.047479156 -0.044413485 0.04052228 0.06422269 -0.015713697 -0.048059635 -0.06768124 -0.030134209
-0.021659056 0.0014297935 -0.04851187 -0.0833619 0.01312639 -0.03416437 0.04127565 -0.06364141
-0.014605057 0.035661876 0.04922132 -0.04370573 -0.011784839 0.0016890063 -0.023101922 0.055403545
-0.06220634 0.027793275 0.014205994 0.06497959 0.07991733 -0.012478731 -0.09969198 -0.03945818
0.050935905 0.034620885 -0.062380485 0.036915857 0.0060958727 -0.036021985 0.058901556 -0.03060416
0.009893537 -0.044411197 0.055464935 0.0031585936 -0.015640102 0.06073591 -0.060287487 0.023825387
-0.093897045 -0.04976862 -0.10008245 -0.03534545 -0.076381564 -0.057539478 0.012356934 0.023910029
0.058763023 -0.0010513734 0.0214175 -0.050206024 0.07059779 0.03923928 0.035267003 0.021098614
0.011272862 0.060682446 -0.0076860697 -0.08744454 -0.061875995 -0.03475074 -0.05218652 0.07976671
0.094792835 0.041778024 -0.058938373 0.051874243 0.079112284 -0.0010866069 -0.035207994 0.031179342
0.032748878 -0.009751835 -0.017868387 -0.09286637 0.033257276 0.05449965 -9.306813e-05 0.025391392
-0.01863136 0.042842835 -0.029105622 -0.015876388 -0.02521945 0.025300687 -0.023875922 -0.010647783
-0.0024616935 -0.049432274 -0.06558838 -0.04335008 -0.016147882 -0.085769586 0.03925332 0.015959067
-0.04611571 0.043893628 0.0795576 0.035118338 0.040608987 0.006607942 -0.08987624 -0.044486493
-0.04993277 -0.07390946 0.04201559 -0.035647467 -0.10252121 0.045094654 0.06375822 0.043428317
-0.049332988 0.06458767 -0.04920952 -0.067490794 -0.0497395 0.011092649 0.092575304 -0.023954844
0.09487764 0.060313188 0.043226227 0.0016079707 0.018319346 0.051633254 -0.028724665 0.0015823542
0.097550794 -0.04315064 0.057180855 0.04597961 -0.027929218 -0.0145143615 0.05527099 0.0702217
-0.020754103 -0.048597194 -0.06675405 0.09476048 -0.041238382 -0.011254665 -0.051135153 -0.014236175
-0.038220126 -0.054375015 -0.047261152 -0.06608656 0.061853826 -0.0030145089 0.072502166 0.09038382
-0.069726855 0.019129207 0.056697946 -0.059217766 0.0066578574 0.062351055 -0.023697553 0.021492481
00000000: b070 afbd f9f2 bcbc fbd6 2b3b a37c d43c
00000010: ae43 3a3d 0908 36bd f111 61bd 62f9 233d
00000020: 84ea 90bd 34e7 86bd cef6 363d df54 09bd
00000030: dcc1 dcbc 5c7b 19bc d878 53bd 6bf6 533d
00000040: 5457 ad3d 2c68 d13b a90d 9abd b6cb 4a3d
00000050: 8097 96bd 42f2 eabc ec39 753c edbe 6cbc
00000060: dde0 0c3d 6be3 ed3c f85f d7bd 0748 7a3d
00000070: 2350 a2bc faea ec3c e421 923b b0d6 b4bc
00000080: 9761 80bd 464c cabc dc4c b33d 5532 803d
00000090: b3ac 0f3d 6a1f 8fbc 4f57 d63b 1e7a 233b
000000a0: 8526 71ba 97b1 233d f737 243d 7f8e 07bd
000000b0: 511b c9bd fb7b b9ba 9c1d cdbd d477 c0bd
000000c0: 87dd 5d3d fed3 133d aa89 eb3b 8004 02bd
000000d0: 284d 6a3d d0a8 733d 0d03 02bd a34f a43d
000000e0: 42a1 0fbd e5e3 a7bd 3eab 7fbb 8273 4d3d
000000f0: e55e a33d e1b0 4dbb 67e6 a0bd f532 a0bd
00000100: b618 88bd 0699 9a3d 9bb6 f039 211f bcbc
00000110: 2e98 7f3d af08 643d b1a8 873d 680d 0f3d
00000120: 0877 b9bd b51e 89bd 2b12 813d 9204 fdbc
00000130: 7425 3d3d 69f9 1f3d c078 09bd a408 473b
00000140: e947 d83c daa9 1b3d 8027 28bd 6b3d 37bd
00000150: 77db 6fbc 6a40 a23d 5997 783d 9dab c23d
00000160: 8179 42bd eaea 35bd b1fa 253d 3087 833d
00000170: 03ba 80bc 2eda 44bd 769c 8abd 04dc f6bc
00000180: 556e b1bc e967 bb3a 62b4 46bd a5b9 aabd
00000190: 1210 573c f0ef 0bbd a810 293d 6d56 82bd
000001a0: 0d4a 6fbc 3012 123d 4b9c 493d c804 33bd
000001b0: 3315 41bc a661 dd3a 3e40 bdbc d4ee 623d
000001c0: 13cc 7ebd b9ae e33c 42c0 683c 0514 853d
000001d0: b2ab a33d 9773 4cbc 4f2b ccbd e79e 21bd
000001e0: 2ba2 503d a1ce 0d3d ae82 7fbd 1535 173d
000001f0: e3bf c73b ca8b 13bd c242 713d 93b5 fabc
00000200: 8018 223c 84e8 35bd 332f 633d 6800 4f3b
00000210: ac1f 80bc 38c6 783d 03f0 76bd 752d c33c
00000220: 184d c0bd 2eda 4bbd 07f8 ccbd 64c6 10bd
00000230: f06d 9cbd 84ae 6bbd bd74 4a3c f7de c33c
00000240: 7fb1 703d 3dce 89ba c173 af3c d5a4 4dbd
00000250: 9395 903d 5eb9 203d 2274 103d 00d7 ac3c
00000260: cfb1 383c 288e 783d 6ddb fbbb 1f16 b3bd
00000270: af71 7dbd cb56 0ebd 88c1 55bd bb5c a33d
00000280: bf22 c23d 6f1f 2b3d 5d69 71bd 167a 543d
00000290: 9f05 a23d 7a6c 8eba 4236 10bd d26b ff3c
000002a0: b023 063d 29c6 1fbc b960 92bc b930 bebd
000002b0: c838 083d 063b 5f3d 922d c3b8 9c01 d03c
000002c0: cba0 98bc f87b 2f3d ea6e eebc 330f 82bc
000002d0: 0599 cebc 6343 cf3c 7097 c3bc 0a74 2ebc
000002e0: 5d54 21bb 7f79 4abd 3353 86bd da8f 31bd
000002f0: 9048 84bc f7a7 afbd 17c8 203d 97bc 823c
00000300: d4e3 3cbd cec9 333d 18ef a23d 3fd8 0f3d
00000310: 9c55 263d 6f87 d83b 0911 b8bd 7837 36bd
00000320: 4e86 4cbd d85d 97bd 8a18 2c3d 1403 12bd
00000330: a4f6 d1bd 2cb5 383d ab93 823d e4e1 313d
00000340: 6311 4abd 8a46 843d ec8f 49bd 9d38 8abd
00000350: a5bb 4bbd f1bd 353c 1f98 bd3d f33c c4bc
00000360: 354f c23d f60a 773d fc0d 313d 8bc2 d23a
00000370: 7412 963c 647d 533d fd4f ebbc ff66 cf3a
00000380: b6c8 c73d babe 30bd 7936 6a3d 1e55 3c3d
00000390: d1cb e4bc a5cd 6dbc d563 623d 65d0 8f3d
000003a0: 8204 aabc da0d 47bd 59b6 88bd c811 c23d
000003b0: 94e9 28bd 7d65 38bc 1873 51bd d93e 69bc
000003c0: b58c 1cbd 56b8 5ebd e994 41bd 6458 87bd
000003d0: 705a 7d3d 118f 45bb 047c 943d 271b b93d
000003e0: f4cc 8ebd dbb4 9c3c 1b3c 683d 548e 72bd
000003f0: 282a da3b d263 7f3d 5f21 c2bc 0011 b03c

lstm.bias_ih_l1 f4 [512]
0.05862388 -0.0077311937 -0.062912226 0.021105325 -0.031031463 -0.039340846 -0.009812013 -0.02754807
0.0021119644 0.00808323 -0.0055071265 0.0132781165 0.018520117 -0.07144109 0.027787037 -0.065944865
-0.06451517 -0.07141312 0.0078381775 0.03926839 -0.0067399624 0.079630375 -0.055886433 0.045879148
-3.8656224e-05 0.08779805 -0.036448058 0.0054472024 0.061978307 -0.0048939376 0.07709956 -0.06134413
-0.062262237 -0.032329146 0.017437689 -0.03951347 -0.01109605 0.017073395 0.0712139 -0.016115397
0.08519795 0.052805133 0.031100055 0.0449877 -0.06666082 0.025816092 0.08266591 0.04089368
0.09922492 0.06934992 -0.060330827 -0.032094046 -0.03425831 0.014790798 0.08183582 0.020560216
-0.063749634 0.013860629 -0.0448702 -0.04683981 0.016439402 -0.047316484 0.05682877 0.058635257
0.050492134 -0.011710158 -0.054181878 0.032990832 -0.003799632 0.00031954906 -0.0130884675 0.09015017
-0.034478366 -0.031056853 0.05065492 0.027453266 0.031140652 0.032475635 0.0859264 -0.02808129
-0.069486946 0.091052964 0.04120969 -0.063237235 -0.07228269 -0.024830077 0.06527031 0.032110024
0.036050748 -0.003927945 0.08841154 -0.05829429 -0.023967741 0.08236661 -0.051632795 0.056649692
-0.03518705 -0.057724603 0.082137704 0.018403672 0.058746383 0.07661971 0.07127437 -0.0063681803
-0.057117097 -0.00079736393 -0.053015646 0.037386797 0.06718285 -0.008466226 0.0556343 -0.005417273
-0.04114711 0.049394544 0.09535677 -0.052478377 -0.042745337 -0.03465574 -0.082674764 -0.016029578
0.07997597 -0.0116120605 0.07655471 0.0031284378 -0.007946987 -0.040814936 -0.054438516 -0.064486936
-0.019483538 0.07956056 0.08695201 0.025641633 -0.03173309 -0.007081281 -0.0014624184 -0.022326294
0.00604154 -0.049405873 0.09492955 0.079159625 0.05994595 0.09654636 0.059471995 -0.050752643
0.07465768 -0.069053315 -0.014617399 0.008948651 -0.04015757 0.04910649 0.026881225 0.052947935
0.08096395 0.018775843 0.02970698 0.0018057685 -0.0753895 -0.044857282 -0.02798207 -0.0032476783
-0.029244862 0.08608571 0.08871222 -0.07436189 0.05647191 -0.044543315 -0.029774096 -0.06902323
-0.024051491 -0.08409934 -0.070419274 0.08000119 0.032019943 -0.06428091 0.05591733 -0.009287176
0.09529058 0.08078486 0.0076265754 0.053393744 0.06481926 -0.062292602 -0.02463025 0.0406801
-0.072345644 0.055715907 0.02204621 0.018428259 0.05241433 -0.04863952 0.04594937 -0.017812291
0.089048885 0.085443124 -0.016248444 0.033637654 0.084178805 0.042347994 0.07030139 0.051357806
-0.039742623 0.0147213545 -0.046035822 -0.0686014 0.07702778 0.08062321 -0.0726188 -0.0648572
-0.05707161 0.009732437 -0.018328825 0.07984554 -0.074622825 0.022582008 0.057508223 0.08978765
0.06008749 -0.026229864 0.09758911 0.0717775 -0.01808396 -0.04791323 -0.059985552 -0.005383788
0.058785733 -0.02067707 0.03435326 -0.028600346 -0.058292873 0.034586653 0.09896041 0.015664065
-0.063321084 0.025235018 -0.06378545 -0.018277789 -0.021204516 -0.08210295 0.0097364895 -0.06255661
0.044771843 -0.06490418 -0.024597865 -0.025809858 0.0003663731 0.031778473 0.08033698 -0.03163097
-0.043139946 -0.056430068 -0.045920476 0.03161901 0.026290704 0.05307171 0.034391534 0.08768968
00000000: 981f 703d f455 fdbb 20d8 80bd 13e5 ac3c
00000010: b235 febc de23 21bd 91c2 20bc 7dac e1bc
00000020: e268 0a3b 866f 043c 2075 b4bb 758c 593c
00000030: 80b7 973c b54f 92bd a4a1 e33c 1a0e 87bd
00000040: 8820 84bd 0b41 92bd b36b 003c e4d7 203d
00000050: e7da dcbb 4015 a33d 2ce9 64bd c6eb 3b3d
00000060: ce22 22b8 77cf b33d 8f4a 15bd 727e b23b
00000070: f7dc 7d3d 535d a0bb 60e6 9d3d fc43 7bbd
00000080: b006 7fbd 916b 04bd 7cd9 8e3c e0d8 21bd
00000090: 35cc 35bc 81dd 8b3c 98d8 913d 7004 84bc
000000a0: 437c ae3d 324a 583d 8bc5 fe3c 0645 383d
000000b0: 7885 88bd 457c d33c bf4c a93d 2280 273d
000000c0: 6f36 cb3d 5507 8e3d 751d 77bd 0c75 03bd
000000d0: 7152 0cbd 1a55 723c 8a99 a73d e66d a83c
000000e0: 2b8f 82bd b117 633c d1c9 37bd 1adb 3fbd
000000f0: edab 863c eece 41bd 49c5 683d 862b 703d
00000100: d7d0 4e3d f6db 3fbc d1ed 5dbd 6521 073d
00000110: 3f03 79bb 2689 a739 0371 56bc a7a0 b83d
00000120: 3039 0dbd f16a febc 897b 4f3d ace5 e03c
00000130: ae1a ff3c 2c05 053d 2efa af3d bc0a e6bc
00000140: 2c4f 8ebd fa79 ba3d 7ecb 283d 8682 81bd
00000150: f208 94bd 7268 cbbc 71ac 853d cd85 033d
00000160: f3a9 133d feb5 80bb 1c11 b53d fec5 6ebd
00000170: ff57 c4bc d3af a83d e97c 53bd 8209 683d
00000180: 4c20 10bd a270 6cbd d037 a83d 4cc3 963c
00000190: 0ca0 703d cbea 9c3d 4cf8 913d 2bac d0bb
000001a0: 9ef3 69bd 3006 51ba ef26 59bd e622 193d
000001b0: 2997 893d edb5 0abc cbe0 633d 6183 b1bb
000001c0: df89 28bd ef51 4a3d 694a c33d 91f3 56bd
000001d0: bc15 2fbd 2df3 0dbd 6351 a9bd 7650 83bc
000001e0: 71ca a33d 8340 3ebc b7c8 9c3d 7a06 4d3b
000001f0: 1434 02bc 902d 27bd ecfa 5ebd ba11 84bd
00000200: f19b 9fbc a6f0 a23d e513 b23d 670e d23c
00000210: 8efa 01bd 170a e8bb 9eae bfba a2e5 b6bc
00000220: 1cf8 c53b d05d 4abd 6d6a c23d 711e a23d
00000230: e289 753d 19ba c53d e898 733d 01e2 4fbd
00000240: 20e6 983d d36b 8dbd d17d 6fbc 5d9d 123c
00000250: 447c 24bd e323 493d 0436 dc3c efdf 583d
00000260: 6dd0 a53d cccf 993c 0d5c f33c 89af ec3a
00000270: cf65 9abd 45bc 37bd a73a e5bc 00d7 54bb
00000280: ec92 efbc b44d b03d c1ae b53d 0c4b 98bd
00000290: 174f 673d 0d73 36bd cee8 f3bc 0d5c 8dbd
000002a0: a207 c5bc 463c acbd fb37 90bd aad7 a33d
000002b0: 5827 033d b6a5 83bd 9209 653d 3d29 18bc
000002c0: b527 c33d 8872 a53d 5ae8 f93b 66b3 5a3d
000002d0: f6bf 843d 8726 7fbd 61c5 c9bc 2da0 263d
000002e0: f429 94bd 5d36 643d 419a b43c dcf6 963c
000002f0: 69b0 563d 3c3a 47bd 6835 3c3d 15eb 91bc
00000300: 435f b63d cefc ae3d 751b 85bc a3c7 093d
00000310: f065 ac3d 1775 2d3d 2dfa 8f3d 905c 523d
00000320: 29c9 22bd d631 713c 0f90 3cbd e47e 8cbd
00000330: bec0 9d3d c81d a53d 2ab9 94bd dad3 84bd
00000340: ecc3 69bd cd74 1f3c 5526 96bc 0f86 a33d
00000350: dad3 98bd e7fd b83c be8d 6b3d 96e2 b73d
00000360: 4d1e 763d 03e0 d6bc cddc c73d 1500 933d
00000370: d024 94bc aa40 44bd 69b3 75bd 7d6a b0bb
00000380: 4fc9 703d f562 a9bc 01b6 0c3d 464b eabc
00000390: 82c4 6ebd bcaa 0d3d c1ab ca3d ed51 803c
000003a0: 7cae 81bd abb9 ce3c f2a1 82bd 4dbb 95bc
000003b0: 18b5 adbc 9725 a8bd cc85 1f3c ae1d 80bd
000003c0: ae62 373d 7cec 84bd 7681 c9bc 326f d3bc
000003d0: c415 c039 252a 023d b787 a43d 7a8f 01bd
000003e0: 83b3 30bd 3723 67bd 1c17 3cbd ef82 013d
000003f0: 9a5f d73c b961 593d 23de 0c3d a696 b33d
